program(1.0)
[buildInfo = dict<tensor<string, []>, tensor<string, []>>({{"coremlc-component-MIL", "4.28.4"}, {"coremlc-version", "1429.0.0"}})]
{
    func main<ios16>(tensor<fp16, [2, 768, 1, 77]> encoder_hidden_states, tensor<fp16, [2, 4, 64, 64]> sample, tensor<fp16, [2]> timestep) {
            tensor<int32, []> var_25 = const()[name = tensor<string, []>("op_25"), val = tensor<int32, []>(-1)];
            tensor<int32, [1]> var_42_axes_0 = const()[name = tensor<string, []>("op_42_axes_0"), val = tensor<int32, [1]>([1])];
            tensor<fp16, [2, 1]> var_42_cast = expand_dims(axes = var_42_axes_0, x = timestep);
            tensor<fp16, [1, 160]> var_44_to_fp16 = const()[name = tensor<string, []>("op_44_to_fp16"), val = tensor<fp16, [1, 160]>(BLOBFILE(path = tensor<string, []>("@model_path/weights/weight.bin"), offset = tensor<uint64, []>(64)))];
            tensor<fp16, [2, 160]> emb_3_cast = mul(x = var_42_cast, y = var_44_to_fp16);
            tensor<fp16, [2, 160]> var_49_cast = sin(x = emb_3_cast);
            tensor<fp16, [2, 160]> var_50_cast = cos(x = emb_3_cast);
            tensor<bool, []> emb_interleave_0 = const()[name = tensor<string, []>("emb_interleave_0"), val = tensor<bool, []>(false)];
            tensor<fp16, [2, 320]> emb_cast = concat(axis = var_25, interleave = emb_interleave_0, values = (var_49_cast, var_50_cast));
            tensor<int32, [2]> var_54_begin_0 = const()[name = tensor<string, []>("op_54_begin_0"), val = tensor<int32, [2]>([0, 160])];
            tensor<int32, [2]> var_54_end_0 = const()[name = tensor<string, []>("op_54_end_0"), val = tensor<int32, [2]>([2, 320])];
            tensor<bool, [2]> var_54_end_mask_0 = const()[name = tensor<string, []>("op_54_end_mask_0"), val = tensor<bool, [2]>([true, true])];
            tensor<fp16, [2, 160]> var_54_cast = slice_by_index(begin = var_54_begin_0, end = var_54_end_0, end_mask = var_54_end_mask_0, x = emb_cast);
            tensor<int32, [2]> var_56_begin_0 = const()[name = tensor<string, []>("op_56_begin_0"), val = tensor<int32, [2]>([0, 0])];
            tensor<int32, [2]> var_56_end_0 = const()[name = tensor<string, []>("op_56_end_0"), val = tensor<int32, [2]>([2, 160])];
            tensor<bool, [2]> var_56_end_mask_0 = const()[name = tensor<string, []>("op_56_end_mask_0"), val = tensor<bool, [2]>([true, false])];
            tensor<fp16, [2, 160]> var_56_cast = slice_by_index(begin = var_56_begin_0, end = var_56_end_0, end_mask = var_56_end_mask_0, x = emb_cast);
            tensor<bool, []> sample_interleave_0 = const()[name = tensor<string, []>("sample_interleave_0"), val = tensor<bool, []>(false)];
            tensor<fp16, [2, 320]> sample_cast = concat(axis = var_25, interleave = sample_interleave_0, values = (var_54_cast, var_56_cast));
            tensor<int32, []> var_59 = const()[name = tensor<string, []>("op_59"), val = tensor<int32, []>(1)];
            tensor<int32, [1]> var_66_axes_0 = const()[name = tensor<string, []>("op_66_axes_0"), val = tensor<int32, [1]>([-1])];
            tensor<fp16, [2, 320, 1]> var_66_cast = expand_dims(axes = var_66_axes_0, x = sample_cast);
            tensor<int32, [1]> input_1_axes_0 = const()[name = tensor<string, []>("input_1_axes_0"), val = tensor<int32, [1]>([-1])];
            tensor<fp16, [2, 320, 1, 1]> input_1_cast = expand_dims(axes = input_1_axes_0, x = var_66_cast);
            tensor<int32, [2]> var_70 = const()[name = tensor<string, []>("op_70"), val = tensor<int32, [2]>([1, 1])];
            tensor<int32, [2]> var_72 = const()[name = tensor<string, []>("op_72"), val = tensor<int32, [2]>([1, 1])];
            tensor<string, []> input_3_pad_type_0 = const()[name = tensor<string, []>("input_3_pad_type_0"), val = tensor<string, []>("custom")];
            tensor<int32, [4]> input_3_pad_0 = const()[name = tensor<string, []>("input_3_pad_0"), val = tensor<int32, [4]>([0, 0, 0, 0])];
            tensor<fp16, [1280, 320, 1, 1]> time_embedding_linear_1_weight_to_fp16 = const()[name = tensor<string, []>("time_embedding_linear_1_weight_to_fp16"), val = tensor<fp16, [1280, 320, 1, 1]>(BLOBFILE(path = tensor<string, []>("@model_path/weights/weight.bin"), offset = tensor<uint64, []>(448)))];
            tensor<fp16, [1280]> time_embedding_linear_1_bias_to_fp16 = const()[name = tensor<string, []>("time_embedding_linear_1_bias_to_fp16"), val = tensor<fp16, [1280]>(BLOBFILE(path = tensor<string, []>("@model_path/weights/weight.bin"), offset = tensor<uint64, []>(819712)))];
            tensor<fp16, [2, 1280, 1, 1]> input_3_cast = conv(bias = time_embedding_linear_1_bias_to_fp16, dilations = var_72, groups = var_59, pad = input_3_pad_0, pad_type = input_3_pad_type_0, strides = var_70, weight = time_embedding_linear_1_weight_to_fp16, x = input_1_cast);
            tensor<fp16, [2, 1280, 1, 1]> input_5_cast = silu(x = input_3_cast);
            tensor<int32, [2]> var_78 = const()[name = tensor<string, []>("op_78"), val = tensor<int32, [2]>([1, 1])];
            tensor<int32, [2]> var_80 = const()[name = tensor<string, []>("op_80"), val = tensor<int32, [2]>([1, 1])];
            tensor<string, []> input_13_pad_type_0 = const()[name = tensor<string, []>("input_13_pad_type_0"), val = tensor<string, []>("custom")];
            tensor<int32, [4]> input_13_pad_0 = const()[name = tensor<string, []>("input_13_pad_0"), val = tensor<int32, [4]>([0, 0, 0, 0])];
            tensor<fp16, [1280, 1280, 1, 1]> time_embedding_linear_2_weight_to_fp16 = const()[name = tensor<string, []>("time_embedding_linear_2_weight_to_fp16"), val = tensor<fp16, [1280, 1280, 1, 1]>(BLOBFILE(path = tensor<string, []>("@model_path/weights/weight.bin"), offset = tensor<uint64, []>(822336)))];
            tensor<fp16, [1280]> time_embedding_linear_2_bias_to_fp16 = const()[name = tensor<string, []>("time_embedding_linear_2_bias_to_fp16"), val = tensor<fp16, [1280]>(BLOBFILE(path = tensor<string, []>("@model_path/weights/weight.bin"), offset = tensor<uint64, []>(4099200)))];
            tensor<fp16, [2, 1280, 1, 1]> input_13_cast = conv(bias = time_embedding_linear_2_bias_to_fp16, dilations = var_80, groups = var_59, pad = input_13_pad_0, pad_type = input_13_pad_type_0, strides = var_78, weight = time_embedding_linear_2_weight_to_fp16, x = input_5_cast);
            tensor<int32, []> var_86 = const()[name = tensor<string, []>("op_86"), val = tensor<int32, []>(1)];
            tensor<int32, [2]> var_89 = const()[name = tensor<string, []>("op_89"), val = tensor<int32, [2]>([1, 1])];
            tensor<int32, [2]> var_91 = const()[name = tensor<string, []>("op_91"), val = tensor<int32, [2]>([1, 1])];
            tensor<string, []> input_7_pad_type_0 = const()[name = tensor<string, []>("input_7_pad_type_0"), val = tensor<string, []>("custom")];
            tensor<int32, [4]> input_7_pad_0 = const()[name = tensor<string, []>("input_7_pad_0"), val = tensor<int32, [4]>([1, 1, 1, 1])];
            tensor<fp16, [320, 4, 3, 3]> conv_in_weight_to_fp16 = const()[name = tensor<string, []>("conv_in_weight_to_fp16"), val = tensor<fp16, [320, 4, 3, 3]>(BLOBFILE(path = tensor<string, []>("@model_path/weights/weight.bin"), offset = tensor<uint64, []>(4101824)))];
            tensor<fp16, [320]> conv_in_bias_to_fp16 = const()[name = tensor<string, []>("conv_in_bias_to_fp16"), val = tensor<fp16, [320]>(BLOBFILE(path = tensor<string, []>("@model_path/weights/weight.bin"), offset = tensor<uint64, []>(4124928)))];
            tensor<fp16, [2, 320, 64, 64]> input_7_cast_1 = conv(bias = conv_in_bias_to_fp16, dilations = var_91, groups = var_86, pad = input_7_pad_0, pad_type = input_7_pad_type_0, strides = var_89, weight = conv_in_weight_to_fp16, x = sample);
            tensor<bool, []> var_110 = const()[name = tensor<string, []>("op_110"), val = tensor<bool, []>(true)];
            tensor<int32, []> var_115 = const()[name = tensor<string, []>("op_115"), val = tensor<int32, []>(1)];
            tensor<int32, [5]> reshape_0_shape_0 = const()[name = tensor<string, []>("reshape_0_shape_0"), val = tensor<int32, [5]>([2, 32, 10, 64, 64])];
            tensor<fp16, [2, 32, 10, 64, 64]> reshape_0_cast = reshape(shape = reshape_0_shape_0, x = input_7_cast_1);
            tensor<int32, [3]> reduce_mean_0_axes_0 = const()[name = tensor<string, []>("reduce_mean_0_axes_0"), val = tensor<int32, [3]>([2, 3, 4])];
            tensor<bool, []> reduce_mean_0_keep_dims_0 = const()[name = tensor<string, []>("reduce_mean_0_keep_dims_0"), val = tensor<bool, []>(true)];
            tensor<fp16, [2, 32, 1, 1, 1]> reduce_mean_0_cast = reduce_mean(axes = reduce_mean_0_axes_0, keep_dims = reduce_mean_0_keep_dims_0, x = reshape_0_cast);
            tensor<fp16, [2, 32, 10, 64, 64]> sub_0_cast = sub(x = reshape_0_cast, y = reduce_mean_0_cast);
            tensor<fp16, [2, 32, 10, 64, 64]> square_0_cast = square(x = sub_0_cast);
            tensor<int32, [3]> reduce_mean_2_axes_0 = const()[name = tensor<string, []>("reduce_mean_2_axes_0"), val = tensor<int32, [3]>([2, 3, 4])];
            tensor<bool, []> reduce_mean_2_keep_dims_0 = const()[name = tensor<string, []>("reduce_mean_2_keep_dims_0"), val = tensor<bool, []>(true)];
            tensor<fp16, [2, 32, 1, 1, 1]> reduce_mean_2_cast = reduce_mean(axes = reduce_mean_2_axes_0, keep_dims = reduce_mean_2_keep_dims_0, x = square_0_cast);
            tensor<fp16, []> add_0_y_0_to_fp16 = const()[name = tensor<string, []>("add_0_y_0_to_fp16"), val = tensor<fp16, []>(0x1.5p-17)];
            tensor<fp16, [2, 32, 1, 1, 1]> add_0_cast = add(x = reduce_mean_2_cast, y = add_0_y_0_to_fp16);
            tensor<fp16, [2, 32, 1, 1, 1]> sqrt_0_cast = sqrt(x = add_0_cast);
            tensor<fp16, [2, 32, 10, 64, 64]> real_div_0_cast = real_div(x = sub_0_cast, y = sqrt_0_cast);
            tensor<int32, [4]> reshape_1_shape_0 = const()[name = tensor<string, []>("reshape_1_shape_0"), val = tensor<int32, [4]>([2, 320, 64, 64])];
            tensor<fp16, [2, 320, 64, 64]> reshape_1_cast = reshape(shape = reshape_1_shape_0, x = real_div_0_cast);
            tensor<fp16, [320]> add_1_mean_0_to_fp16 = const()[name = tensor<string, []>("add_1_mean_0_to_fp16"), val = tensor<fp16, [320]>(BLOBFILE(path = tensor<string, []>("@model_path/weights/weight.bin"), offset = tensor<uint64, []>(4125632)))];
            tensor<fp16, [320]> add_1_variance_0_to_fp16 = const()[name = tensor<string, []>("add_1_variance_0_to_fp16"), val = tensor<fp16, [320]>(BLOBFILE(path = tensor<string, []>("@model_path/weights/weight.bin"), offset = tensor<uint64, []>(4126336)))];
            tensor<fp16, [320]> add_1_gamma_0_to_fp16 = const()[name = tensor<string, []>("add_1_gamma_0_to_fp16"), val = tensor<fp16, [320]>(BLOBFILE(path = tensor<string, []>("@model_path/weights/weight.bin"), offset = tensor<uint64, []>(4127040)))];
            tensor<fp16, [320]> add_1_beta_0_to_fp16 = const()[name = tensor<string, []>("add_1_beta_0_to_fp16"), val = tensor<fp16, [320]>(BLOBFILE(path = tensor<string, []>("@model_path/weights/weight.bin"), offset = tensor<uint64, []>(4127744)))];
            tensor<fp16, []> add_1_epsilon_0_to_fp16 = const()[name = tensor<string, []>("add_1_epsilon_0_to_fp16"), val = tensor<fp16, []>(0x1.5p-17)];
            tensor<fp16, [2, 320, 64, 64]> add_1_cast = batch_norm(beta = add_1_beta_0_to_fp16, epsilon = add_1_epsilon_0_to_fp16, gamma = add_1_gamma_0_to_fp16, mean = add_1_mean_0_to_fp16, variance = add_1_variance_0_to_fp16, x = reshape_1_cast);
            tensor<fp16, [2, 320, 64, 64]> input_11_cast = silu(x = add_1_cast);
            tensor<int32, [2]> var_137 = const()[name = tensor<string, []>("op_137"), val = tensor<int32, [2]>([1, 1])];
            tensor<int32, [2]> var_139 = const()[name = tensor<string, []>("op_139"), val = tensor<int32, [2]>([1, 1])];
            tensor<string, []> hidden_states_1_pad_type_0 = const()[name = tensor<string, []>("hidden_states_1_pad_type_0"), val = tensor<string, []>("custom")];
            tensor<int32, [4]> hidden_states_1_pad_0 = const()[name = tensor<string, []>("hidden_states_1_pad_0"), val = tensor<int32, [4]>([1, 1, 1, 1])];
            tensor<fp16, [320, 320, 3, 3]> down_blocks_0_resnets_0_conv1_weight_to_fp16 = const()[name = tensor<string, []>("down_blocks_0_resnets_0_conv1_weight_to_fp16"), val = tensor<fp16, [320, 320, 3, 3]>(BLOBFILE(path = tensor<string, []>("@model_path/weights/weight.bin"), offset = tensor<uint64, []>(4128448)))];
            tensor<fp16, [320]> down_blocks_0_resnets_0_conv1_bias_to_fp16 = const()[name = tensor<string, []>("down_blocks_0_resnets_0_conv1_bias_to_fp16"), val = tensor<fp16, [320]>(BLOBFILE(path = tensor<string, []>("@model_path/weights/weight.bin"), offset = tensor<uint64, []>(5971712)))];
            tensor<fp16, [2, 320, 64, 64]> hidden_states_1_cast = conv(bias = down_blocks_0_resnets_0_conv1_bias_to_fp16, dilations = var_139, groups = var_115, pad = hidden_states_1_pad_0, pad_type = hidden_states_1_pad_type_0, strides = var_137, weight = down_blocks_0_resnets_0_conv1_weight_to_fp16, x = input_11_cast);
            tensor<fp16, [2, 1280, 1, 1]> input_15_cast_1 = silu(x = input_13_cast);
            tensor<int32, [2]> var_145 = const()[name = tensor<string, []>("op_145"), val = tensor<int32, [2]>([1, 1])];
            tensor<int32, [2]> var_147 = const()[name = tensor<string, []>("op_147"), val = tensor<int32, [2]>([1, 1])];
            tensor<string, []> temb_1_pad_type_0 = const()[name = tensor<string, []>("temb_1_pad_type_0"), val = tensor<string, []>("custom")];
            tensor<int32, [4]> temb_1_pad_0 = const()[name = tensor<string, []>("temb_1_pad_0"), val = tensor<int32, [4]>([0, 0, 0, 0])];
            tensor<fp16, [320, 1280, 1, 1]> down_blocks_0_resnets_0_time_emb_proj_weight_to_fp16 = const()[name = tensor<string, []>("down_blocks_0_resnets_0_time_emb_proj_weight_to_fp16"), val = tensor<fp16, [320, 1280, 1, 1]>(BLOBFILE(path = tensor<string, []>("@model_path/weights/weight.bin"), offset = tensor<uint64, []>(5972416)))];
            tensor<fp16, [320]> down_blocks_0_resnets_0_time_emb_proj_bias_to_fp16 = const()[name = tensor<string, []>("down_blocks_0_resnets_0_time_emb_proj_bias_to_fp16"), val = tensor<fp16, [320]>(BLOBFILE(path = tensor<string, []>("@model_path/weights/weight.bin"), offset = tensor<uint64, []>(6791680)))];
            tensor<fp16, [2, 320, 1, 1]> temb_1_cast = conv(bias = down_blocks_0_resnets_0_time_emb_proj_bias_to_fp16, dilations = var_147, groups = var_115, pad = temb_1_pad_0, pad_type = temb_1_pad_type_0, strides = var_145, weight = down_blocks_0_resnets_0_time_emb_proj_weight_to_fp16, x = input_15_cast_1);
            tensor<fp16, [2, 320, 64, 64]> input_17_cast = add(x = hidden_states_1_cast, y = temb_1_cast);
            tensor<int32, [5]> reshape_4_shape_0 = const()[name = tensor<string, []>("reshape_4_shape_0"), val = tensor<int32, [5]>([2, 32, 10, 64, 64])];
            tensor<fp16, [2, 32, 10, 64, 64]> reshape_4_cast = reshape(shape = reshape_4_shape_0, x = input_17_cast);
            tensor<int32, [3]> reduce_mean_3_axes_0 = const()[name = tensor<string, []>("reduce_mean_3_axes_0"), val = tensor<int32, [3]>([2, 3, 4])];
            tensor<bool, []> reduce_mean_3_keep_dims_0 = const()[name = tensor<string, []>("reduce_mean_3_keep_dims_0"), val = tensor<bool, []>(true)];
            tensor<fp16, [2, 32, 1, 1, 1]> reduce_mean_3_cast = reduce_mean(axes = reduce_mean_3_axes_0, keep_dims = reduce_mean_3_keep_dims_0, x = reshape_4_cast);
            tensor<fp16, [2, 32, 10, 64, 64]> sub_2_cast = sub(x = reshape_4_cast, y = reduce_mean_3_cast);
            tensor<fp16, [2, 32, 10, 64, 64]> square_1_cast = square(x = sub_2_cast);
            tensor<int32, [3]> reduce_mean_5_axes_0 = const()[name = tensor<string, []>("reduce_mean_5_axes_0"), val = tensor<int32, [3]>([2, 3, 4])];
            tensor<bool, []> reduce_mean_5_keep_dims_0 = const()[name = tensor<string, []>("reduce_mean_5_keep_dims_0"), val = tensor<bool, []>(true)];
            tensor<fp16, [2, 32, 1, 1, 1]> reduce_mean_5_cast = reduce_mean(axes = reduce_mean_5_axes_0, keep_dims = reduce_mean_5_keep_dims_0, x = square_1_cast);
            tensor<fp16, []> add_2_y_0_to_fp16 = const()[name = tensor<string, []>("add_2_y_0_to_fp16"), val = tensor<fp16, []>(0x1.5p-17)];
            tensor<fp16, [2, 32, 1, 1, 1]> add_2_cast = add(x = reduce_mean_5_cast, y = add_2_y_0_to_fp16);
            tensor<fp16, [2, 32, 1, 1, 1]> sqrt_1_cast = sqrt(x = add_2_cast);
            tensor<fp16, [2, 32, 10, 64, 64]> real_div_1_cast = real_div(x = sub_2_cast, y = sqrt_1_cast);
            tensor<int32, [4]> reshape_5_shape_0 = const()[name = tensor<string, []>("reshape_5_shape_0"), val = tensor<int32, [4]>([2, 320, 64, 64])];
            tensor<fp16, [2, 320, 64, 64]> reshape_5_cast = reshape(shape = reshape_5_shape_0, x = real_div_1_cast);
            tensor<fp16, [320]> add_3_mean_0_to_fp16 = const()[name = tensor<string, []>("add_3_mean_0_to_fp16"), val = tensor<fp16, [320]>(BLOBFILE(path = tensor<string, []>("@model_path/weights/weight.bin"), offset = tensor<uint64, []>(6792384)))];
            tensor<fp16, [320]> add_3_variance_0_to_fp16 = const()[name = tensor<string, []>("add_3_variance_0_to_fp16"), val = tensor<fp16, [320]>(BLOBFILE(path = tensor<string, []>("@model_path/weights/weight.bin"), offset = tensor<uint64, []>(6793088)))];
            tensor<fp16, [320]> add_3_gamma_0_to_fp16 = const()[name = tensor<string, []>("add_3_gamma_0_to_fp16"), val = tensor<fp16, [320]>(BLOBFILE(path = tensor<string, []>("@model_path/weights/weight.bin"), offset = tensor<uint64, []>(6793792)))];
            tensor<fp16, [320]> add_3_beta_0_to_fp16 = const()[name = tensor<string, []>("add_3_beta_0_to_fp16"), val = tensor<fp16, [320]>(BLOBFILE(path = tensor<string, []>("@model_path/weights/weight.bin"), offset = tensor<uint64, []>(6794496)))];
            tensor<fp16, []> add_3_epsilon_0_to_fp16 = const()[name = tensor<string, []>("add_3_epsilon_0_to_fp16"), val = tensor<fp16, []>(0x1.5p-17)];
            tensor<fp16, [2, 320, 64, 64]> add_3_cast = batch_norm(beta = add_3_beta_0_to_fp16, epsilon = add_3_epsilon_0_to_fp16, gamma = add_3_gamma_0_to_fp16, mean = add_3_mean_0_to_fp16, variance = add_3_variance_0_to_fp16, x = reshape_5_cast);
            tensor<fp16, [2, 320, 64, 64]> input_21_cast = silu(x = add_3_cast);
            tensor<int32, [2]> var_157 = const()[name = tensor<string, []>("op_157"), val = tensor<int32, [2]>([1, 1])];
            tensor<int32, [2]> var_159 = const()[name = tensor<string, []>("op_159"), val = tensor<int32, [2]>([1, 1])];
            tensor<string, []> hidden_states_3_pad_type_0 = const()[name = tensor<string, []>("hidden_states_3_pad_type_0"), val = tensor<string, []>("custom")];
            tensor<int32, [4]> hidden_states_3_pad_0 = const()[name = tensor<string, []>("hidden_states_3_pad_0"), val = tensor<int32, [4]>([1, 1, 1, 1])];
            tensor<fp16, [320, 320, 3, 3]> down_blocks_0_resnets_0_conv2_weight_to_fp16 = const()[name = tensor<string, []>("down_blocks_0_resnets_0_conv2_weight_to_fp16"), val = tensor<fp16, [320, 320, 3, 3]>(BLOBFILE(path = tensor<string, []>("@model_path/weights/weight.bin"), offset = tensor<uint64, []>(6795200)))];
            tensor<fp16, [320]> down_blocks_0_resnets_0_conv2_bias_to_fp16 = const()[name = tensor<string, []>("down_blocks_0_resnets_0_conv2_bias_to_fp16"), val = tensor<fp16, [320]>(BLOBFILE(path = tensor<string, []>("@model_path/weights/weight.bin"), offset = tensor<uint64, []>(8638464)))];
            tensor<fp16, [2, 320, 64, 64]> hidden_states_3_cast = conv(bias = down_blocks_0_resnets_0_conv2_bias_to_fp16, dilations = var_159, groups = var_115, pad = hidden_states_3_pad_0, pad_type = hidden_states_3_pad_type_0, strides = var_157, weight = down_blocks_0_resnets_0_conv2_weight_to_fp16, x = input_21_cast);
            tensor<fp16, [2, 320, 64, 64]> hidden_states_5_cast = add(x = input_7_cast_1, y = hidden_states_3_cast);
            tensor<int32, [5]> reshape_8_shape_0 = const()[name = tensor<string, []>("reshape_8_shape_0"), val = tensor<int32, [5]>([2, 32, 10, 64, 64])];
            tensor<fp16, [2, 32, 10, 64, 64]> reshape_8_cast = reshape(shape = reshape_8_shape_0, x = hidden_states_5_cast);
            tensor<int32, [3]> reduce_mean_6_axes_0 = const()[name = tensor<string, []>("reduce_mean_6_axes_0"), val = tensor<int32, [3]>([2, 3, 4])];
            tensor<bool, []> reduce_mean_6_keep_dims_0 = const()[name = tensor<string, []>("reduce_mean_6_keep_dims_0"), val = tensor<bool, []>(true)];
            tensor<fp16, [2, 32, 1, 1, 1]> reduce_mean_6_cast = reduce_mean(axes = reduce_mean_6_axes_0, keep_dims = reduce_mean_6_keep_dims_0, x = reshape_8_cast);
            tensor<fp16, [2, 32, 10, 64, 64]> sub_4_cast = sub(x = reshape_8_cast, y = reduce_mean_6_cast);
            tensor<fp16, [2, 32, 10, 64, 64]> square_2_cast = square(x = sub_4_cast);
            tensor<int32, [3]> reduce_mean_8_axes_0 = const()[name = tensor<string, []>("reduce_mean_8_axes_0"), val = tensor<int32, [3]>([2, 3, 4])];
            tensor<bool, []> reduce_mean_8_keep_dims_0 = const()[name = tensor<string, []>("reduce_mean_8_keep_dims_0"), val = tensor<bool, []>(true)];
            tensor<fp16, [2, 32, 1, 1, 1]> reduce_mean_8_cast = reduce_mean(axes = reduce_mean_8_axes_0, keep_dims = reduce_mean_8_keep_dims_0, x = square_2_cast);
            tensor<fp16, []> add_4_y_0_to_fp16 = const()[name = tensor<string, []>("add_4_y_0_to_fp16"), val = tensor<fp16, []>(0x1.1p-20)];
            tensor<fp16, [2, 32, 1, 1, 1]> add_4_cast = add(x = reduce_mean_8_cast, y = add_4_y_0_to_fp16);
            tensor<fp16, [2, 32, 1, 1, 1]> sqrt_2_cast = sqrt(x = add_4_cast);
            tensor<fp16, [2, 32, 10, 64, 64]> real_div_2_cast = real_div(x = sub_4_cast, y = sqrt_2_cast);
            tensor<int32, [4]> reshape_9_shape_0 = const()[name = tensor<string, []>("reshape_9_shape_0"), val = tensor<int32, [4]>([2, 320, 64, 64])];
            tensor<fp16, [2, 320, 64, 64]> reshape_9_cast = reshape(shape = reshape_9_shape_0, x = real_div_2_cast);
            tensor<fp16, [320]> add_5_mean_0_to_fp16 = const()[name = tensor<string, []>("add_5_mean_0_to_fp16"), val = tensor<fp16, [320]>(BLOBFILE(path = tensor<string, []>("@model_path/weights/weight.bin"), offset = tensor<uint64, []>(8639168)))];
            tensor<fp16, [320]> add_5_variance_0_to_fp16 = const()[name = tensor<string, []>("add_5_variance_0_to_fp16"), val = tensor<fp16, [320]>(BLOBFILE(path = tensor<string, []>("@model_path/weights/weight.bin"), offset = tensor<uint64, []>(8639872)))];
            tensor<fp16, [320]> add_5_gamma_0_to_fp16 = const()[name = tensor<string, []>("add_5_gamma_0_to_fp16"), val = tensor<fp16, [320]>(BLOBFILE(path = tensor<string, []>("@model_path/weights/weight.bin"), offset = tensor<uint64, []>(8640576)))];
            tensor<fp16, [320]> add_5_beta_0_to_fp16 = const()[name = tensor<string, []>("add_5_beta_0_to_fp16"), val = tensor<fp16, [320]>(BLOBFILE(path = tensor<string, []>("@model_path/weights/weight.bin"), offset = tensor<uint64, []>(8641280)))];
            tensor<fp16, []> add_5_epsilon_0_to_fp16 = const()[name = tensor<string, []>("add_5_epsilon_0_to_fp16"), val = tensor<fp16, []>(0x1.5p-17)];
            tensor<fp16, [2, 320, 64, 64]> add_5_cast = batch_norm(beta = add_5_beta_0_to_fp16, epsilon = add_5_epsilon_0_to_fp16, gamma = add_5_gamma_0_to_fp16, mean = add_5_mean_0_to_fp16, variance = add_5_variance_0_to_fp16, x = reshape_9_cast);
            tensor<int32, [2]> var_179 = const()[name = tensor<string, []>("op_179"), val = tensor<int32, [2]>([1, 1])];
            tensor<int32, [2]> var_181 = const()[name = tensor<string, []>("op_181"), val = tensor<int32, [2]>([1, 1])];
            tensor<string, []> hidden_states_7_pad_type_0 = const()[name = tensor<string, []>("hidden_states_7_pad_type_0"), val = tensor<string, []>("custom")];
            tensor<int32, [4]> hidden_states_7_pad_0 = const()[name = tensor<string, []>("hidden_states_7_pad_0"), val = tensor<int32, [4]>([0, 0, 0, 0])];
            tensor<fp16, [320, 320, 1, 1]> down_blocks_0_attentions_0_proj_in_weight_to_fp16 = const()[name = tensor<string, []>("down_blocks_0_attentions_0_proj_in_weight_to_fp16"), val = tensor<fp16, [320, 320, 1, 1]>(BLOBFILE(path = tensor<string, []>("@model_path/weights/weight.bin"), offset = tensor<uint64, []>(8641984)))];
            tensor<fp16, [320]> down_blocks_0_attentions_0_proj_in_bias_to_fp16 = const()[name = tensor<string, []>("down_blocks_0_attentions_0_proj_in_bias_to_fp16"), val = tensor<fp16, [320]>(BLOBFILE(path = tensor<string, []>("@model_path/weights/weight.bin"), offset = tensor<uint64, []>(8846848)))];
            tensor<fp16, [2, 320, 64, 64]> hidden_states_7_cast = conv(bias = down_blocks_0_attentions_0_proj_in_bias_to_fp16, dilations = var_181, groups = var_115, pad = hidden_states_7_pad_0, pad_type = hidden_states_7_pad_type_0, strides = var_179, weight = down_blocks_0_attentions_0_proj_in_weight_to_fp16, x = add_5_cast);
            tensor<int32, [4]> var_186 = const()[name = tensor<string, []>("op_186"), val = tensor<int32, [4]>([2, 320, 1, 4096])];
            tensor<fp16, [2, 320, 1, 4096]> inputs_1_cast = reshape(shape = var_186, x = hidden_states_7_cast);
            tensor<int32, [1]> var_196 = const()[name = tensor<string, []>("op_196"), val = tensor<int32, [1]>([1])];
            tensor<fp16, [2, 1, 1, 4096]> channels_mean_1_cast = reduce_mean(axes = var_196, keep_dims = var_110, x = inputs_1_cast);
            tensor<fp16, [2, 320, 1, 4096]> zero_mean_1_cast = sub(x = inputs_1_cast, y = channels_mean_1_cast);
            tensor<fp16, [2, 320, 1, 4096]> zero_mean_sq_1_cast = mul(x = zero_mean_1_cast, y = zero_mean_1_cast);
            tensor<int32, [1]> var_200 = const()[name = tensor<string, []>("op_200"), val = tensor<int32, [1]>([1])];
            tensor<fp16, [2, 1, 1, 4096]> var_201_cast = reduce_mean(axes = var_200, keep_dims = var_110, x = zero_mean_sq_1_cast);
            tensor<fp16, []> var_202_to_fp16 = const()[name = tensor<string, []>("op_202_to_fp16"), val = tensor<fp16, []>(0x1.5p-17)];
            tensor<fp16, [2, 1, 1, 4096]> var_203_cast = add(x = var_201_cast, y = var_202_to_fp16);
            tensor<fp16, []> denom_1_epsilon_0_to_fp16 = const()[name = tensor<string, []>("denom_1_epsilon_0_to_fp16"), val = tensor<fp16, []>(0x1p-24)];
            tensor<fp16, [2, 1, 1, 4096]> denom_1_cast = rsqrt(epsilon = denom_1_epsilon_0_to_fp16, x = var_203_cast);
            tensor<fp16, [2, 320, 1, 4096]> out_1_cast = mul(x = zero_mean_1_cast, y = denom_1_cast);
            tensor<fp16, [1, 320, 1, 1]> var_207_to_fp16 = const()[name = tensor<string, []>("op_207_to_fp16"), val = tensor<fp16, [1, 320, 1, 1]>(BLOBFILE(path = tensor<string, []>("@model_path/weights/weight.bin"), offset = tensor<uint64, []>(8847552)))];
            tensor<fp16, [2, 320, 1, 4096]> var_208_cast = add(x = out_1_cast, y = var_207_to_fp16);
            tensor<fp16, [1, 320, 1, 1]> var_210_to_fp16 = const()[name = tensor<string, []>("op_210_to_fp16"), val = tensor<fp16, [1, 320, 1, 1]>(BLOBFILE(path = tensor<string, []>("@model_path/weights/weight.bin"), offset = tensor<uint64, []>(8848256)))];
            tensor<fp16, [2, 320, 1, 4096]> hidden_states_9_cast = mul(x = var_208_cast, y = var_210_to_fp16);
            tensor<int32, [2]> var_217 = const()[name = tensor<string, []>("op_217"), val = tensor<int32, [2]>([1, 1])];
            tensor<int32, [2]> var_219 = const()[name = tensor<string, []>("op_219"), val = tensor<int32, [2]>([1, 1])];
            tensor<string, []> q_1_pad_type_0 = const()[name = tensor<string, []>("q_1_pad_type_0"), val = tensor<string, []>("custom")];
            tensor<int32, [4]> q_1_pad_0 = const()[name = tensor<string, []>("q_1_pad_0"), val = tensor<int32, [4]>([0, 0, 0, 0])];
            tensor<fp16, [320, 320, 1, 1]> down_blocks_0_attentions_0_transformer_blocks_0_attn1_to_q_weight_to_fp16 = const()[name = tensor<string, []>("down_blocks_0_attentions_0_transformer_blocks_0_attn1_to_q_weight_to_fp16"), val = tensor<fp16, [320, 320, 1, 1]>(BLOBFILE(path = tensor<string, []>("@model_path/weights/weight.bin"), offset = tensor<uint64, []>(8848960)))];
            tensor<fp16, [2, 320, 1, 4096]> q_1_cast = conv(dilations = var_219, groups = var_115, pad = q_1_pad_0, pad_type = q_1_pad_type_0, strides = var_217, weight = down_blocks_0_attentions_0_transformer_blocks_0_attn1_to_q_weight_to_fp16, x = hidden_states_9_cast);
            tensor<int32, [2]> var_223 = const()[name = tensor<string, []>("op_223"), val = tensor<int32, [2]>([1, 1])];
            tensor<int32, [2]> var_225 = const()[name = tensor<string, []>("op_225"), val = tensor<int32, [2]>([1, 1])];
            tensor<string, []> k_1_pad_type_0 = const()[name = tensor<string, []>("k_1_pad_type_0"), val = tensor<string, []>("custom")];
            tensor<int32, [4]> k_1_pad_0 = const()[name = tensor<string, []>("k_1_pad_0"), val = tensor<int32, [4]>([0, 0, 0, 0])];
            tensor<fp16, [320, 320, 1, 1]> down_blocks_0_attentions_0_transformer_blocks_0_attn1_to_k_weight_to_fp16 = const()[name = tensor<string, []>("down_blocks_0_attentions_0_transformer_blocks_0_attn1_to_k_weight_to_fp16"), val = tensor<fp16, [320, 320, 1, 1]>(BLOBFILE(path = tensor<string, []>("@model_path/weights/weight.bin"), offset = tensor<uint64, []>(9053824)))];
            tensor<fp16, [2, 320, 1, 4096]> k_1_cast = conv(dilations = var_225, groups = var_115, pad = k_1_pad_0, pad_type = k_1_pad_type_0, strides = var_223, weight = down_blocks_0_attentions_0_transformer_blocks_0_attn1_to_k_weight_to_fp16, x = hidden_states_9_cast);
            tensor<int32, [2]> var_229 = const()[name = tensor<string, []>("op_229"), val = tensor<int32, [2]>([1, 1])];
            tensor<int32, [2]> var_231 = const()[name = tensor<string, []>("op_231"), val = tensor<int32, [2]>([1, 1])];
            tensor<string, []> v_1_pad_type_0 = const()[name = tensor<string, []>("v_1_pad_type_0"), val = tensor<string, []>("custom")];
            tensor<int32, [4]> v_1_pad_0 = const()[name = tensor<string, []>("v_1_pad_0"), val = tensor<int32, [4]>([0, 0, 0, 0])];
            tensor<fp16, [320, 320, 1, 1]> down_blocks_0_attentions_0_transformer_blocks_0_attn1_to_v_weight_to_fp16 = const()[name = tensor<string, []>("down_blocks_0_attentions_0_transformer_blocks_0_attn1_to_v_weight_to_fp16"), val = tensor<fp16, [320, 320, 1, 1]>(BLOBFILE(path = tensor<string, []>("@model_path/weights/weight.bin"), offset = tensor<uint64, []>(9258688)))];
            tensor<fp16, [2, 320, 1, 4096]> v_1_cast = conv(dilations = var_231, groups = var_115, pad = v_1_pad_0, pad_type = v_1_pad_type_0, strides = var_229, weight = down_blocks_0_attentions_0_transformer_blocks_0_attn1_to_v_weight_to_fp16, x = hidden_states_9_cast);
            tensor<int32, [4]> var_235_begin_0 = const()[name = tensor<string, []>("op_235_begin_0"), val = tensor<int32, [4]>([0, 0, 0, 0])];
            tensor<int32, [4]> var_235_end_0 = const()[name = tensor<string, []>("op_235_end_0"), val = tensor<int32, [4]>([2, 40, 1, 4096])];
            tensor<bool, [4]> var_235_end_mask_0 = const()[name = tensor<string, []>("op_235_end_mask_0"), val = tensor<bool, [4]>([true, false, true, true])];
            tensor<fp16, [2, 40, 1, 4096]> var_235_cast = slice_by_index(begin = var_235_begin_0, end = var_235_end_0, end_mask = var_235_end_mask_0, x = q_1_cast);
            tensor<int32, [4]> var_239_begin_0 = const()[name = tensor<string, []>("op_239_begin_0"), val = tensor<int32, [4]>([0, 40, 0, 0])];
            tensor<int32, [4]> var_239_end_0 = const()[name = tensor<string, []>("op_239_end_0"), val = tensor<int32, [4]>([2, 80, 1, 4096])];
            tensor<bool, [4]> var_239_end_mask_0 = const()[name = tensor<string, []>("op_239_end_mask_0"), val = tensor<bool, [4]>([true, false, true, true])];
            tensor<fp16, [2, 40, 1, 4096]> var_239_cast = slice_by_index(begin = var_239_begin_0, end = var_239_end_0, end_mask = var_239_end_mask_0, x = q_1_cast);
            tensor<int32, [4]> var_243_begin_0 = const()[name = tensor<string, []>("op_243_begin_0"), val = tensor<int32, [4]>([0, 80, 0, 0])];
            tensor<int32, [4]> var_243_end_0 = const()[name = tensor<string, []>("op_243_end_0"), val = tensor<int32, [4]>([2, 120, 1, 4096])];
            tensor<bool, [4]> var_243_end_mask_0 = const()[name = tensor<string, []>("op_243_end_mask_0"), val = tensor<bool, [4]>([true, false, true, true])];
            tensor<fp16, [2, 40, 1, 4096]> var_243_cast = slice_by_index(begin = var_243_begin_0, end = var_243_end_0, end_mask = var_243_end_mask_0, x = q_1_cast);
            tensor<int32, [4]> var_247_begin_0 = const()[name = tensor<string, []>("op_247_begin_0"), val = tensor<int32, [4]>([0, 120, 0, 0])];
            tensor<int32, [4]> var_247_end_0 = const()[name = tensor<string, []>("op_247_end_0"), val = tensor<int32, [4]>([2, 160, 1, 4096])];
            tensor<bool, [4]> var_247_end_mask_0 = const()[name = tensor<string, []>("op_247_end_mask_0"), val = tensor<bool, [4]>([true, false, true, true])];
            tensor<fp16, [2, 40, 1, 4096]> var_247_cast = slice_by_index(begin = var_247_begin_0, end = var_247_end_0, end_mask = var_247_end_mask_0, x = q_1_cast);
            tensor<int32, [4]> var_251_begin_0 = const()[name = tensor<string, []>("op_251_begin_0"), val = tensor<int32, [4]>([0, 160, 0, 0])];
            tensor<int32, [4]> var_251_end_0 = const()[name = tensor<string, []>("op_251_end_0"), val = tensor<int32, [4]>([2, 200, 1, 4096])];
            tensor<bool, [4]> var_251_end_mask_0 = const()[name = tensor<string, []>("op_251_end_mask_0"), val = tensor<bool, [4]>([true, false, true, true])];
            tensor<fp16, [2, 40, 1, 4096]> var_251_cast = slice_by_index(begin = var_251_begin_0, end = var_251_end_0, end_mask = var_251_end_mask_0, x = q_1_cast);
            tensor<int32, [4]> var_255_begin_0 = const()[name = tensor<string, []>("op_255_begin_0"), val = tensor<int32, [4]>([0, 200, 0, 0])];
            tensor<int32, [4]> var_255_end_0 = const()[name = tensor<string, []>("op_255_end_0"), val = tensor<int32, [4]>([2, 240, 1, 4096])];
            tensor<bool, [4]> var_255_end_mask_0 = const()[name = tensor<string, []>("op_255_end_mask_0"), val = tensor<bool, [4]>([true, false, true, true])];
            tensor<fp16, [2, 40, 1, 4096]> var_255_cast = slice_by_index(begin = var_255_begin_0, end = var_255_end_0, end_mask = var_255_end_mask_0, x = q_1_cast);
            tensor<int32, [4]> var_259_begin_0 = const()[name = tensor<string, []>("op_259_begin_0"), val = tensor<int32, [4]>([0, 240, 0, 0])];
            tensor<int32, [4]> var_259_end_0 = const()[name = tensor<string, []>("op_259_end_0"), val = tensor<int32, [4]>([2, 280, 1, 4096])];
            tensor<bool, [4]> var_259_end_mask_0 = const()[name = tensor<string, []>("op_259_end_mask_0"), val = tensor<bool, [4]>([true, false, true, true])];
            tensor<fp16, [2, 40, 1, 4096]> var_259_cast = slice_by_index(begin = var_259_begin_0, end = var_259_end_0, end_mask = var_259_end_mask_0, x = q_1_cast);
            tensor<int32, [4]> var_263_begin_0 = const()[name = tensor<string, []>("op_263_begin_0"), val = tensor<int32, [4]>([0, 280, 0, 0])];
            tensor<int32, [4]> var_263_end_0 = const()[name = tensor<string, []>("op_263_end_0"), val = tensor<int32, [4]>([2, 320, 1, 4096])];
            tensor<bool, [4]> var_263_end_mask_0 = const()[name = tensor<string, []>("op_263_end_mask_0"), val = tensor<bool, [4]>([true, false, true, true])];
            tensor<fp16, [2, 40, 1, 4096]> var_263_cast = slice_by_index(begin = var_263_begin_0, end = var_263_end_0, end_mask = var_263_end_mask_0, x = q_1_cast);
            tensor<int32, [4]> k_3_perm_0 = const()[name = tensor<string, []>("k_3_perm_0"), val = tensor<int32, [4]>([0, 3, 2, 1])];
            tensor<int32, [4]> var_270_begin_0 = const()[name = tensor<string, []>("op_270_begin_0"), val = tensor<int32, [4]>([0, 0, 0, 0])];
            tensor<int32, [4]> var_270_end_0 = const()[name = tensor<string, []>("op_270_end_0"), val = tensor<int32, [4]>([2, 4096, 1, 40])];
            tensor<bool, [4]> var_270_end_mask_0 = const()[name = tensor<string, []>("op_270_end_mask_0"), val = tensor<bool, [4]>([true, true, true, false])];
            tensor<fp16, [2, 4096, 1, 320]> transpose_77 = transpose(perm = k_3_perm_0, x = k_1_cast);
            tensor<fp16, [2, 4096, 1, 40]> var_270_cast = slice_by_index(begin = var_270_begin_0, end = var_270_end_0, end_mask = var_270_end_mask_0, x = transpose_77);
            tensor<int32, [4]> var_274_begin_0 = const()[name = tensor<string, []>("op_274_begin_0"), val = tensor<int32, [4]>([0, 0, 0, 40])];
            tensor<int32, [4]> var_274_end_0 = const()[name = tensor<string, []>("op_274_end_0"), val = tensor<int32, [4]>([2, 4096, 1, 80])];
            tensor<bool, [4]> var_274_end_mask_0 = const()[name = tensor<string, []>("op_274_end_mask_0"), val = tensor<bool, [4]>([true, true, true, false])];
            tensor<fp16, [2, 4096, 1, 40]> var_274_cast = slice_by_index(begin = var_274_begin_0, end = var_274_end_0, end_mask = var_274_end_mask_0, x = transpose_77);
            tensor<int32, [4]> var_278_begin_0 = const()[name = tensor<string, []>("op_278_begin_0"), val = tensor<int32, [4]>([0, 0, 0, 80])];
            tensor<int32, [4]> var_278_end_0 = const()[name = tensor<string, []>("op_278_end_0"), val = tensor<int32, [4]>([2, 4096, 1, 120])];
            tensor<bool, [4]> var_278_end_mask_0 = const()[name = tensor<string, []>("op_278_end_mask_0"), val = tensor<bool, [4]>([true, true, true, false])];
            tensor<fp16, [2, 4096, 1, 40]> var_278_cast = slice_by_index(begin = var_278_begin_0, end = var_278_end_0, end_mask = var_278_end_mask_0, x = transpose_77);
            tensor<int32, [4]> var_282_begin_0 = const()[name = tensor<string, []>("op_282_begin_0"), val = tensor<int32, [4]>([0, 0, 0, 120])];
            tensor<int32, [4]> var_282_end_0 = const()[name = tensor<string, []>("op_282_end_0"), val = tensor<int32, [4]>([2, 4096, 1, 160])];
            tensor<bool, [4]> var_282_end_mask_0 = const()[name = tensor<string, []>("op_282_end_mask_0"), val = tensor<bool, [4]>([true, true, true, false])];
            tensor<fp16, [2, 4096, 1, 40]> var_282_cast = slice_by_index(begin = var_282_begin_0, end = var_282_end_0, end_mask = var_282_end_mask_0, x = transpose_77);
            tensor<int32, [4]> var_286_begin_0 = const()[name = tensor<string, []>("op_286_begin_0"), val = tensor<int32, [4]>([0, 0, 0, 160])];
            tensor<int32, [4]> var_286_end_0 = const()[name = tensor<string, []>("op_286_end_0"), val = tensor<int32, [4]>([2, 4096, 1, 200])];
            tensor<bool, [4]> var_286_end_mask_0 = const()[name = tensor<string, []>("op_286_end_mask_0"), val = tensor<bool, [4]>([true, true, true, false])];
            tensor<fp16, [2, 4096, 1, 40]> var_286_cast = slice_by_index(begin = var_286_begin_0, end = var_286_end_0, end_mask = var_286_end_mask_0, x = transpose_77);
            tensor<int32, [4]> var_290_begin_0 = const()[name = tensor<string, []>("op_290_begin_0"), val = tensor<int32, [4]>([0, 0, 0, 200])];
            tensor<int32, [4]> var_290_end_0 = const()[name = tensor<string, []>("op_290_end_0"), val = tensor<int32, [4]>([2, 4096, 1, 240])];
            tensor<bool, [4]> var_290_end_mask_0 = const()[name = tensor<string, []>("op_290_end_mask_0"), val = tensor<bool, [4]>([true, true, true, false])];
            tensor<fp16, [2, 4096, 1, 40]> var_290_cast = slice_by_index(begin = var_290_begin_0, end = var_290_end_0, end_mask = var_290_end_mask_0, x = transpose_77);
            tensor<int32, [4]> var_294_begin_0 = const()[name = tensor<string, []>("op_294_begin_0"), val = tensor<int32, [4]>([0, 0, 0, 240])];
            tensor<int32, [4]> var_294_end_0 = const()[name = tensor<string, []>("op_294_end_0"), val = tensor<int32, [4]>([2, 4096, 1, 280])];
            tensor<bool, [4]> var_294_end_mask_0 = const()[name = tensor<string, []>("op_294_end_mask_0"), val = tensor<bool, [4]>([true, true, true, false])];
            tensor<fp16, [2, 4096, 1, 40]> var_294_cast = slice_by_index(begin = var_294_begin_0, end = var_294_end_0, end_mask = var_294_end_mask_0, x = transpose_77);
            tensor<int32, [4]> var_298_begin_0 = const()[name = tensor<string, []>("op_298_begin_0"), val = tensor<int32, [4]>([0, 0, 0, 280])];
            tensor<int32, [4]> var_298_end_0 = const()[name = tensor<string, []>("op_298_end_0"), val = tensor<int32, [4]>([2, 4096, 1, 320])];
            tensor<bool, [4]> var_298_end_mask_0 = const()[name = tensor<string, []>("op_298_end_mask_0"), val = tensor<bool, [4]>([true, true, true, false])];
            tensor<fp16, [2, 4096, 1, 40]> var_298_cast = slice_by_index(begin = var_298_begin_0, end = var_298_end_0, end_mask = var_298_end_mask_0, x = transpose_77);
            tensor<int32, [4]> var_300_begin_0 = const()[name = tensor<string, []>("op_300_begin_0"), val = tensor<int32, [4]>([0, 0, 0, 0])];
            tensor<int32, [4]> var_300_end_0 = const()[name = tensor<string, []>("op_300_end_0"), val = tensor<int32, [4]>([2, 40, 1, 4096])];
            tensor<bool, [4]> var_300_end_mask_0 = const()[name = tensor<string, []>("op_300_end_mask_0"), val = tensor<bool, [4]>([true, false, true, true])];
            tensor<fp16, [2, 40, 1, 4096]> var_300_cast = slice_by_index(begin = var_300_begin_0, end = var_300_end_0, end_mask = var_300_end_mask_0, x = v_1_cast);
            tensor<int32, [4]> var_304_begin_0 = const()[name = tensor<string, []>("op_304_begin_0"), val = tensor<int32, [4]>([0, 40, 0, 0])];
            tensor<int32, [4]> var_304_end_0 = const()[name = tensor<string, []>("op_304_end_0"), val = tensor<int32, [4]>([2, 80, 1, 4096])];
            tensor<bool, [4]> var_304_end_mask_0 = const()[name = tensor<string, []>("op_304_end_mask_0"), val = tensor<bool, [4]>([true, false, true, true])];
            tensor<fp16, [2, 40, 1, 4096]> var_304_cast = slice_by_index(begin = var_304_begin_0, end = var_304_end_0, end_mask = var_304_end_mask_0, x = v_1_cast);
            tensor<int32, [4]> var_308_begin_0 = const()[name = tensor<string, []>("op_308_begin_0"), val = tensor<int32, [4]>([0, 80, 0, 0])];
            tensor<int32, [4]> var_308_end_0 = const()[name = tensor<string, []>("op_308_end_0"), val = tensor<int32, [4]>([2, 120, 1, 4096])];
            tensor<bool, [4]> var_308_end_mask_0 = const()[name = tensor<string, []>("op_308_end_mask_0"), val = tensor<bool, [4]>([true, false, true, true])];
            tensor<fp16, [2, 40, 1, 4096]> var_308_cast = slice_by_index(begin = var_308_begin_0, end = var_308_end_0, end_mask = var_308_end_mask_0, x = v_1_cast);
            tensor<int32, [4]> var_312_begin_0 = const()[name = tensor<string, []>("op_312_begin_0"), val = tensor<int32, [4]>([0, 120, 0, 0])];
            tensor<int32, [4]> var_312_end_0 = const()[name = tensor<string, []>("op_312_end_0"), val = tensor<int32, [4]>([2, 160, 1, 4096])];
            tensor<bool, [4]> var_312_end_mask_0 = const()[name = tensor<string, []>("op_312_end_mask_0"), val = tensor<bool, [4]>([true, false, true, true])];
            tensor<fp16, [2, 40, 1, 4096]> var_312_cast = slice_by_index(begin = var_312_begin_0, end = var_312_end_0, end_mask = var_312_end_mask_0, x = v_1_cast);
            tensor<int32, [4]> var_316_begin_0 = const()[name = tensor<string, []>("op_316_begin_0"), val = tensor<int32, [4]>([0, 160, 0, 0])];
            tensor<int32, [4]> var_316_end_0 = const()[name = tensor<string, []>("op_316_end_0"), val = tensor<int32, [4]>([2, 200, 1, 4096])];
            tensor<bool, [4]> var_316_end_mask_0 = const()[name = tensor<string, []>("op_316_end_mask_0"), val = tensor<bool, [4]>([true, false, true, true])];
            tensor<fp16, [2, 40, 1, 4096]> var_316_cast = slice_by_index(begin = var_316_begin_0, end = var_316_end_0, end_mask = var_316_end_mask_0, x = v_1_cast);
            tensor<int32, [4]> var_320_begin_0 = const()[name = tensor<string, []>("op_320_begin_0"), val = tensor<int32, [4]>([0, 200, 0, 0])];
            tensor<int32, [4]> var_320_end_0 = const()[name = tensor<string, []>("op_320_end_0"), val = tensor<int32, [4]>([2, 240, 1, 4096])];
            tensor<bool, [4]> var_320_end_mask_0 = const()[name = tensor<string, []>("op_320_end_mask_0"), val = tensor<bool, [4]>([true, false, true, true])];
            tensor<fp16, [2, 40, 1, 4096]> var_320_cast = slice_by_index(begin = var_320_begin_0, end = var_320_end_0, end_mask = var_320_end_mask_0, x = v_1_cast);
            tensor<int32, [4]> var_324_begin_0 = const()[name = tensor<string, []>("op_324_begin_0"), val = tensor<int32, [4]>([0, 240, 0, 0])];
            tensor<int32, [4]> var_324_end_0 = const()[name = tensor<string, []>("op_324_end_0"), val = tensor<int32, [4]>([2, 280, 1, 4096])];
            tensor<bool, [4]> var_324_end_mask_0 = const()[name = tensor<string, []>("op_324_end_mask_0"), val = tensor<bool, [4]>([true, false, true, true])];
            tensor<fp16, [2, 40, 1, 4096]> var_324_cast = slice_by_index(begin = var_324_begin_0, end = var_324_end_0, end_mask = var_324_end_mask_0, x = v_1_cast);
            tensor<int32, [4]> var_328_begin_0 = const()[name = tensor<string, []>("op_328_begin_0"), val = tensor<int32, [4]>([0, 280, 0, 0])];
            tensor<int32, [4]> var_328_end_0 = const()[name = tensor<string, []>("op_328_end_0"), val = tensor<int32, [4]>([2, 320, 1, 4096])];
            tensor<bool, [4]> var_328_end_mask_0 = const()[name = tensor<string, []>("op_328_end_mask_0"), val = tensor<bool, [4]>([true, false, true, true])];
            tensor<fp16, [2, 40, 1, 4096]> var_328_cast = slice_by_index(begin = var_328_begin_0, end = var_328_end_0, end_mask = var_328_end_mask_0, x = v_1_cast);
            tensor<string, []> var_332_equation_0 = const()[name = tensor<string, []>("op_332_equation_0"), val = tensor<string, []>("bkhc,bchq->bkhq")];
            tensor<fp16, [2, 4096, 1, 4096]> var_332_cast = einsum(equation = var_332_equation_0, values = (var_270_cast, var_235_cast));
            tensor<fp16, []> var_333_to_fp16 = const()[name = tensor<string, []>("op_333_to_fp16"), val = tensor<fp16, []>(0x1.43cp-3)];
            tensor<fp16, [2, 4096, 1, 4096]> aw_1_cast = mul(x = var_332_cast, y = var_333_to_fp16);
            tensor<string, []> var_336_equation_0 = const()[name = tensor<string, []>("op_336_equation_0"), val = tensor<string, []>("bkhc,bchq->bkhq")];
            tensor<fp16, [2, 4096, 1, 4096]> var_336_cast = einsum(equation = var_336_equation_0, values = (var_274_cast, var_239_cast));
            tensor<fp16, []> var_337_to_fp16 = const()[name = tensor<string, []>("op_337_to_fp16"), val = tensor<fp16, []>(0x1.43cp-3)];
            tensor<fp16, [2, 4096, 1, 4096]> aw_3_cast = mul(x = var_336_cast, y = var_337_to_fp16);
            tensor<string, []> var_340_equation_0 = const()[name = tensor<string, []>("op_340_equation_0"), val = tensor<string, []>("bkhc,bchq->bkhq")];
            tensor<fp16, [2, 4096, 1, 4096]> var_340_cast = einsum(equation = var_340_equation_0, values = (var_278_cast, var_243_cast));
            tensor<fp16, []> var_341_to_fp16 = const()[name = tensor<string, []>("op_341_to_fp16"), val = tensor<fp16, []>(0x1.43cp-3)];
            tensor<fp16, [2, 4096, 1, 4096]> aw_5_cast = mul(x = var_340_cast, y = var_341_to_fp16);
            tensor<string, []> var_344_equation_0 = const()[name = tensor<string, []>("op_344_equation_0"), val = tensor<string, []>("bkhc,bchq->bkhq")];
            tensor<fp16, [2, 4096, 1, 4096]> var_344_cast = einsum(equation = var_344_equation_0, values = (var_282_cast, var_247_cast));
            tensor<fp16, []> var_345_to_fp16 = const()[name = tensor<string, []>("op_345_to_fp16"), val = tensor<fp16, []>(0x1.43cp-3)];
            tensor<fp16, [2, 4096, 1, 4096]> aw_7_cast = mul(x = var_344_cast, y = var_345_to_fp16);
            tensor<string, []> var_348_equation_0 = const()[name = tensor<string, []>("op_348_equation_0"), val = tensor<string, []>("bkhc,bchq->bkhq")];
            tensor<fp16, [2, 4096, 1, 4096]> var_348_cast = einsum(equation = var_348_equation_0, values = (var_286_cast, var_251_cast));
            tensor<fp16, []> var_349_to_fp16 = const()[name = tensor<string, []>("op_349_to_fp16"), val = tensor<fp16, []>(0x1.43cp-3)];
            tensor<fp16, [2, 4096, 1, 4096]> aw_9_cast = mul(x = var_348_cast, y = var_349_to_fp16);
            tensor<string, []> var_352_equation_0 = const()[name = tensor<string, []>("op_352_equation_0"), val = tensor<string, []>("bkhc,bchq->bkhq")];
            tensor<fp16, [2, 4096, 1, 4096]> var_352_cast = einsum(equation = var_352_equation_0, values = (var_290_cast, var_255_cast));
            tensor<fp16, []> var_353_to_fp16 = const()[name = tensor<string, []>("op_353_to_fp16"), val = tensor<fp16, []>(0x1.43cp-3)];
            tensor<fp16, [2, 4096, 1, 4096]> aw_11_cast = mul(x = var_352_cast, y = var_353_to_fp16);
            tensor<string, []> var_356_equation_0 = const()[name = tensor<string, []>("op_356_equation_0"), val = tensor<string, []>("bkhc,bchq->bkhq")];
            tensor<fp16, [2, 4096, 1, 4096]> var_356_cast = einsum(equation = var_356_equation_0, values = (var_294_cast, var_259_cast));
            tensor<fp16, []> var_357_to_fp16 = const()[name = tensor<string, []>("op_357_to_fp16"), val = tensor<fp16, []>(0x1.43cp-3)];
            tensor<fp16, [2, 4096, 1, 4096]> aw_13_cast = mul(x = var_356_cast, y = var_357_to_fp16);
            tensor<string, []> var_360_equation_0 = const()[name = tensor<string, []>("op_360_equation_0"), val = tensor<string, []>("bkhc,bchq->bkhq")];
            tensor<fp16, [2, 4096, 1, 4096]> var_360_cast = einsum(equation = var_360_equation_0, values = (var_298_cast, var_263_cast));
            tensor<fp16, []> var_361_to_fp16 = const()[name = tensor<string, []>("op_361_to_fp16"), val = tensor<fp16, []>(0x1.43cp-3)];
            tensor<fp16, [2, 4096, 1, 4096]> aw_15_cast = mul(x = var_360_cast, y = var_361_to_fp16);
            tensor<fp16, [2, 4096, 1, 4096]> var_363_cast = softmax(axis = var_115, x = aw_1_cast);
            tensor<fp16, [2, 4096, 1, 4096]> var_364_cast = softmax(axis = var_115, x = aw_3_cast);
            tensor<fp16, [2, 4096, 1, 4096]> var_365_cast = softmax(axis = var_115, x = aw_5_cast);
            tensor<fp16, [2, 4096, 1, 4096]> var_366_cast = softmax(axis = var_115, x = aw_7_cast);
            tensor<fp16, [2, 4096, 1, 4096]> var_367_cast = softmax(axis = var_115, x = aw_9_cast);
            tensor<fp16, [2, 4096, 1, 4096]> var_368_cast = softmax(axis = var_115, x = aw_11_cast);
            tensor<fp16, [2, 4096, 1, 4096]> var_369_cast = softmax(axis = var_115, x = aw_13_cast);
            tensor<fp16, [2, 4096, 1, 4096]> var_370_cast = softmax(axis = var_115, x = aw_15_cast);
            tensor<string, []> var_372_equation_0 = const()[name = tensor<string, []>("op_372_equation_0"), val = tensor<string, []>("bchk,bkhq->bchq")];
            tensor<fp16, [2, 40, 1, 4096]> var_372_cast = einsum(equation = var_372_equation_0, values = (var_300_cast, var_363_cast));
            tensor<string, []> var_374_equation_0 = const()[name = tensor<string, []>("op_374_equation_0"), val = tensor<string, []>("bchk,bkhq->bchq")];
            tensor<fp16, [2, 40, 1, 4096]> var_374_cast = einsum(equation = var_374_equation_0, values = (var_304_cast, var_364_cast));
            tensor<string, []> var_376_equation_0 = const()[name = tensor<string, []>("op_376_equation_0"), val = tensor<string, []>("bchk,bkhq->bchq")];
            tensor<fp16, [2, 40, 1, 4096]> var_376_cast = einsum(equation = var_376_equation_0, values = (var_308_cast, var_365_cast));
            tensor<string, []> var_378_equation_0 = const()[name = tensor<string, []>("op_378_equation_0"), val = tensor<string, []>("bchk,bkhq->bchq")];
            tensor<fp16, [2, 40, 1, 4096]> var_378_cast = einsum(equation = var_378_equation_0, values = (var_312_cast, var_366_cast));
            tensor<string, []> var_380_equation_0 = const()[name = tensor<string, []>("op_380_equation_0"), val = tensor<string, []>("bchk,bkhq->bchq")];
            tensor<fp16, [2, 40, 1, 4096]> var_380_cast = einsum(equation = var_380_equation_0, values = (var_316_cast, var_367_cast));
            tensor<string, []> var_382_equation_0 = const()[name = tensor<string, []>("op_382_equation_0"), val = tensor<string, []>("bchk,bkhq->bchq")];
            tensor<fp16, [2, 40, 1, 4096]> var_382_cast = einsum(equation = var_382_equation_0, values = (var_320_cast, var_368_cast));
            tensor<string, []> var_384_equation_0 = const()[name = tensor<string, []>("op_384_equation_0"), val = tensor<string, []>("bchk,bkhq->bchq")];
            tensor<fp16, [2, 40, 1, 4096]> var_384_cast = einsum(equation = var_384_equation_0, values = (var_324_cast, var_369_cast));
            tensor<string, []> var_386_equation_0 = const()[name = tensor<string, []>("op_386_equation_0"), val = tensor<string, []>("bchk,bkhq->bchq")];
            tensor<fp16, [2, 40, 1, 4096]> var_386_cast = einsum(equation = var_386_equation_0, values = (var_328_cast, var_370_cast));
            tensor<bool, []> input_25_interleave_0 = const()[name = tensor<string, []>("input_25_interleave_0"), val = tensor<bool, []>(false)];
            tensor<fp16, [2, 320, 1, 4096]> input_25_cast = concat(axis = var_115, interleave = input_25_interleave_0, values = (var_372_cast, var_374_cast, var_376_cast, var_378_cast, var_380_cast, var_382_cast, var_384_cast, var_386_cast));
            tensor<int32, [2]> var_392 = const()[name = tensor<string, []>("op_392"), val = tensor<int32, [2]>([1, 1])];
            tensor<int32, [2]> var_394 = const()[name = tensor<string, []>("op_394"), val = tensor<int32, [2]>([1, 1])];
            tensor<string, []> var_396_pad_type_0 = const()[name = tensor<string, []>("op_396_pad_type_0"), val = tensor<string, []>("custom")];
            tensor<int32, [4]> var_396_pad_0 = const()[name = tensor<string, []>("op_396_pad_0"), val = tensor<int32, [4]>([0, 0, 0, 0])];
            tensor<fp16, [320, 320, 1, 1]> down_blocks_0_attentions_0_transformer_blocks_0_attn1_to_out_0_weight_to_fp16 = const()[name = tensor<string, []>("down_blocks_0_attentions_0_transformer_blocks_0_attn1_to_out_0_weight_to_fp16"), val = tensor<fp16, [320, 320, 1, 1]>(BLOBFILE(path = tensor<string, []>("@model_path/weights/weight.bin"), offset = tensor<uint64, []>(9463552)))];
            tensor<fp16, [320]> down_blocks_0_attentions_0_transformer_blocks_0_attn1_to_out_0_bias_to_fp16 = const()[name = tensor<string, []>("down_blocks_0_attentions_0_transformer_blocks_0_attn1_to_out_0_bias_to_fp16"), val = tensor<fp16, [320]>(BLOBFILE(path = tensor<string, []>("@model_path/weights/weight.bin"), offset = tensor<uint64, []>(9668416)))];
            tensor<fp16, [2, 320, 1, 4096]> var_396_cast = conv(bias = down_blocks_0_attentions_0_transformer_blocks_0_attn1_to_out_0_bias_to_fp16, dilations = var_394, groups = var_115, pad = var_396_pad_0, pad_type = var_396_pad_type_0, strides = var_392, weight = down_blocks_0_attentions_0_transformer_blocks_0_attn1_to_out_0_weight_to_fp16, x = input_25_cast);
            tensor<fp16, [2, 320, 1, 4096]> inputs_3_cast = add(x = var_396_cast, y = inputs_1_cast);
            tensor<int32, [1]> var_400 = const()[name = tensor<string, []>("op_400"), val = tensor<int32, [1]>([1])];
            tensor<fp16, [2, 1, 1, 4096]> channels_mean_3_cast = reduce_mean(axes = var_400, keep_dims = var_110, x = inputs_3_cast);
            tensor<fp16, [2, 320, 1, 4096]> zero_mean_3_cast = sub(x = inputs_3_cast, y = channels_mean_3_cast);
            tensor<fp16, [2, 320, 1, 4096]> zero_mean_sq_3_cast = mul(x = zero_mean_3_cast, y = zero_mean_3_cast);
            tensor<int32, [1]> var_404 = const()[name = tensor<string, []>("op_404"), val = tensor<int32, [1]>([1])];
            tensor<fp16, [2, 1, 1, 4096]> var_405_cast = reduce_mean(axes = var_404, keep_dims = var_110, x = zero_mean_sq_3_cast);
            tensor<fp16, []> var_406_to_fp16 = const()[name = tensor<string, []>("op_406_to_fp16"), val = tensor<fp16, []>(0x1.5p-17)];
            tensor<fp16, [2, 1, 1, 4096]> var_407_cast = add(x = var_405_cast, y = var_406_to_fp16);
            tensor<fp16, []> denom_3_epsilon_0_to_fp16 = const()[name = tensor<string, []>("denom_3_epsilon_0_to_fp16"), val = tensor<fp16, []>(0x1p-24)];
            tensor<fp16, [2, 1, 1, 4096]> denom_3_cast = rsqrt(epsilon = denom_3_epsilon_0_to_fp16, x = var_407_cast);
            tensor<fp16, [2, 320, 1, 4096]> out_3_cast = mul(x = zero_mean_3_cast, y = denom_3_cast);
            tensor<fp16, [1, 320, 1, 1]> var_411_to_fp16 = const()[name = tensor<string, []>("op_411_to_fp16"), val = tensor<fp16, [1, 320, 1, 1]>(BLOBFILE(path = tensor<string, []>("@model_path/weights/weight.bin"), offset = tensor<uint64, []>(9669120)))];
            tensor<fp16, [2, 320, 1, 4096]> var_412_cast = add(x = out_3_cast, y = var_411_to_fp16);
            tensor<fp16, [1, 320, 1, 1]> var_414_to_fp16 = const()[name = tensor<string, []>("op_414_to_fp16"), val = tensor<fp16, [1, 320, 1, 1]>(BLOBFILE(path = tensor<string, []>("@model_path/weights/weight.bin"), offset = tensor<uint64, []>(9669824)))];
            tensor<fp16, [2, 320, 1, 4096]> hidden_states_11_cast = mul(x = var_412_cast, y = var_414_to_fp16);
            tensor<int32, [2]> var_421 = const()[name = tensor<string, []>("op_421"), val = tensor<int32, [2]>([1, 1])];
            tensor<int32, [2]> var_423 = const()[name = tensor<string, []>("op_423"), val = tensor<int32, [2]>([1, 1])];
            tensor<string, []> q_3_pad_type_0 = const()[name = tensor<string, []>("q_3_pad_type_0"), val = tensor<string, []>("custom")];
            tensor<int32, [4]> q_3_pad_0 = const()[name = tensor<string, []>("q_3_pad_0"), val = tensor<int32, [4]>([0, 0, 0, 0])];
            tensor<fp16, [320, 320, 1, 1]> down_blocks_0_attentions_0_transformer_blocks_0_attn2_to_q_weight_to_fp16 = const()[name = tensor<string, []>("down_blocks_0_attentions_0_transformer_blocks_0_attn2_to_q_weight_to_fp16"), val = tensor<fp16, [320, 320, 1, 1]>(BLOBFILE(path = tensor<string, []>("@model_path/weights/weight.bin"), offset = tensor<uint64, []>(9670528)))];
            tensor<fp16, [2, 320, 1, 4096]> q_3_cast = conv(dilations = var_423, groups = var_115, pad = q_3_pad_0, pad_type = q_3_pad_type_0, strides = var_421, weight = down_blocks_0_attentions_0_transformer_blocks_0_attn2_to_q_weight_to_fp16, x = hidden_states_11_cast);
            tensor<int32, [2]> var_427 = const()[name = tensor<string, []>("op_427"), val = tensor<int32, [2]>([1, 1])];
            tensor<int32, [2]> var_429 = const()[name = tensor<string, []>("op_429"), val = tensor<int32, [2]>([1, 1])];
            tensor<string, []> k_5_pad_type_0 = const()[name = tensor<string, []>("k_5_pad_type_0"), val = tensor<string, []>("custom")];
            tensor<int32, [4]> k_5_pad_0 = const()[name = tensor<string, []>("k_5_pad_0"), val = tensor<int32, [4]>([0, 0, 0, 0])];
            tensor<fp16, [320, 768, 1, 1]> down_blocks_0_attentions_0_transformer_blocks_0_attn2_to_k_weight_to_fp16 = const()[name = tensor<string, []>("down_blocks_0_attentions_0_transformer_blocks_0_attn2_to_k_weight_to_fp16"), val = tensor<fp16, [320, 768, 1, 1]>(BLOBFILE(path = tensor<string, []>("@model_path/weights/weight.bin"), offset = tensor<uint64, []>(9875392)))];
            tensor<fp16, [2, 320, 1, 77]> k_5_cast = conv(dilations = var_429, groups = var_115, pad = k_5_pad_0, pad_type = k_5_pad_type_0, strides = var_427, weight = down_blocks_0_attentions_0_transformer_blocks_0_attn2_to_k_weight_to_fp16, x = encoder_hidden_states);
            tensor<int32, [2]> var_433 = const()[name = tensor<string, []>("op_433"), val = tensor<int32, [2]>([1, 1])];
            tensor<int32, [2]> var_435 = const()[name = tensor<string, []>("op_435"), val = tensor<int32, [2]>([1, 1])];
            tensor<string, []> v_3_pad_type_0 = const()[name = tensor<string, []>("v_3_pad_type_0"), val = tensor<string, []>("custom")];
            tensor<int32, [4]> v_3_pad_0 = const()[name = tensor<string, []>("v_3_pad_0"), val = tensor<int32, [4]>([0, 0, 0, 0])];
            tensor<fp16, [320, 768, 1, 1]> down_blocks_0_attentions_0_transformer_blocks_0_attn2_to_v_weight_to_fp16 = const()[name = tensor<string, []>("down_blocks_0_attentions_0_transformer_blocks_0_attn2_to_v_weight_to_fp16"), val = tensor<fp16, [320, 768, 1, 1]>(BLOBFILE(path = tensor<string, []>("@model_path/weights/weight.bin"), offset = tensor<uint64, []>(10366976)))];
            tensor<fp16, [2, 320, 1, 77]> v_3_cast = conv(dilations = var_435, groups = var_115, pad = v_3_pad_0, pad_type = v_3_pad_type_0, strides = var_433, weight = down_blocks_0_attentions_0_transformer_blocks_0_attn2_to_v_weight_to_fp16, x = encoder_hidden_states);
            tensor<int32, [4]> var_439_begin_0 = const()[name = tensor<string, []>("op_439_begin_0"), val = tensor<int32, [4]>([0, 0, 0, 0])];
            tensor<int32, [4]> var_439_end_0 = const()[name = tensor<string, []>("op_439_end_0"), val = tensor<int32, [4]>([2, 40, 1, 4096])];
            tensor<bool, [4]> var_439_end_mask_0 = const()[name = tensor<string, []>("op_439_end_mask_0"), val = tensor<bool, [4]>([true, false, true, true])];
            tensor<fp16, [2, 40, 1, 4096]> var_439_cast = slice_by_index(begin = var_439_begin_0, end = var_439_end_0, end_mask = var_439_end_mask_0, x = q_3_cast);
            tensor<int32, [4]> var_443_begin_0 = const()[name = tensor<string, []>("op_443_begin_0"), val = tensor<int32, [4]>([0, 40, 0, 0])];
            tensor<int32, [4]> var_443_end_0 = const()[name = tensor<string, []>("op_443_end_0"), val = tensor<int32, [4]>([2, 80, 1, 4096])];
            tensor<bool, [4]> var_443_end_mask_0 = const()[name = tensor<string, []>("op_443_end_mask_0"), val = tensor<bool, [4]>([true, false, true, true])];
            tensor<fp16, [2, 40, 1, 4096]> var_443_cast = slice_by_index(begin = var_443_begin_0, end = var_443_end_0, end_mask = var_443_end_mask_0, x = q_3_cast);
            tensor<int32, [4]> var_447_begin_0 = const()[name = tensor<string, []>("op_447_begin_0"), val = tensor<int32, [4]>([0, 80, 0, 0])];
            tensor<int32, [4]> var_447_end_0 = const()[name = tensor<string, []>("op_447_end_0"), val = tensor<int32, [4]>([2, 120, 1, 4096])];
            tensor<bool, [4]> var_447_end_mask_0 = const()[name = tensor<string, []>("op_447_end_mask_0"), val = tensor<bool, [4]>([true, false, true, true])];
            tensor<fp16, [2, 40, 1, 4096]> var_447_cast = slice_by_index(begin = var_447_begin_0, end = var_447_end_0, end_mask = var_447_end_mask_0, x = q_3_cast);
            tensor<int32, [4]> var_451_begin_0 = const()[name = tensor<string, []>("op_451_begin_0"), val = tensor<int32, [4]>([0, 120, 0, 0])];
            tensor<int32, [4]> var_451_end_0 = const()[name = tensor<string, []>("op_451_end_0"), val = tensor<int32, [4]>([2, 160, 1, 4096])];
            tensor<bool, [4]> var_451_end_mask_0 = const()[name = tensor<string, []>("op_451_end_mask_0"), val = tensor<bool, [4]>([true, false, true, true])];
            tensor<fp16, [2, 40, 1, 4096]> var_451_cast = slice_by_index(begin = var_451_begin_0, end = var_451_end_0, end_mask = var_451_end_mask_0, x = q_3_cast);
            tensor<int32, [4]> var_455_begin_0 = const()[name = tensor<string, []>("op_455_begin_0"), val = tensor<int32, [4]>([0, 160, 0, 0])];
            tensor<int32, [4]> var_455_end_0 = const()[name = tensor<string, []>("op_455_end_0"), val = tensor<int32, [4]>([2, 200, 1, 4096])];
            tensor<bool, [4]> var_455_end_mask_0 = const()[name = tensor<string, []>("op_455_end_mask_0"), val = tensor<bool, [4]>([true, false, true, true])];
            tensor<fp16, [2, 40, 1, 4096]> var_455_cast = slice_by_index(begin = var_455_begin_0, end = var_455_end_0, end_mask = var_455_end_mask_0, x = q_3_cast);
            tensor<int32, [4]> var_459_begin_0 = const()[name = tensor<string, []>("op_459_begin_0"), val = tensor<int32, [4]>([0, 200, 0, 0])];
            tensor<int32, [4]> var_459_end_0 = const()[name = tensor<string, []>("op_459_end_0"), val = tensor<int32, [4]>([2, 240, 1, 4096])];
            tensor<bool, [4]> var_459_end_mask_0 = const()[name = tensor<string, []>("op_459_end_mask_0"), val = tensor<bool, [4]>([true, false, true, true])];
            tensor<fp16, [2, 40, 1, 4096]> var_459_cast = slice_by_index(begin = var_459_begin_0, end = var_459_end_0, end_mask = var_459_end_mask_0, x = q_3_cast);
            tensor<int32, [4]> var_463_begin_0 = const()[name = tensor<string, []>("op_463_begin_0"), val = tensor<int32, [4]>([0, 240, 0, 0])];
            tensor<int32, [4]> var_463_end_0 = const()[name = tensor<string, []>("op_463_end_0"), val = tensor<int32, [4]>([2, 280, 1, 4096])];
            tensor<bool, [4]> var_463_end_mask_0 = const()[name = tensor<string, []>("op_463_end_mask_0"), val = tensor<bool, [4]>([true, false, true, true])];
            tensor<fp16, [2, 40, 1, 4096]> var_463_cast = slice_by_index(begin = var_463_begin_0, end = var_463_end_0, end_mask = var_463_end_mask_0, x = q_3_cast);
            tensor<int32, [4]> var_467_begin_0 = const()[name = tensor<string, []>("op_467_begin_0"), val = tensor<int32, [4]>([0, 280, 0, 0])];
            tensor<int32, [4]> var_467_end_0 = const()[name = tensor<string, []>("op_467_end_0"), val = tensor<int32, [4]>([2, 320, 1, 4096])];
            tensor<bool, [4]> var_467_end_mask_0 = const()[name = tensor<string, []>("op_467_end_mask_0"), val = tensor<bool, [4]>([true, false, true, true])];
            tensor<fp16, [2, 40, 1, 4096]> var_467_cast = slice_by_index(begin = var_467_begin_0, end = var_467_end_0, end_mask = var_467_end_mask_0, x = q_3_cast);
            tensor<int32, [4]> k_7_perm_0 = const()[name = tensor<string, []>("k_7_perm_0"), val = tensor<int32, [4]>([0, 3, 2, 1])];
            tensor<int32, [4]> var_474_begin_0 = const()[name = tensor<string, []>("op_474_begin_0"), val = tensor<int32, [4]>([0, 0, 0, 0])];
            tensor<int32, [4]> var_474_end_0 = const()[name = tensor<string, []>("op_474_end_0"), val = tensor<int32, [4]>([2, 77, 1, 40])];
            tensor<bool, [4]> var_474_end_mask_0 = const()[name = tensor<string, []>("op_474_end_mask_0"), val = tensor<bool, [4]>([true, true, true, false])];
            tensor<fp16, [2, 77, 1, 320]> transpose_76 = transpose(perm = k_7_perm_0, x = k_5_cast);
            tensor<fp16, [2, 77, 1, 40]> var_474_cast = slice_by_index(begin = var_474_begin_0, end = var_474_end_0, end_mask = var_474_end_mask_0, x = transpose_76);
            tensor<int32, [4]> var_478_begin_0 = const()[name = tensor<string, []>("op_478_begin_0"), val = tensor<int32, [4]>([0, 0, 0, 40])];
            tensor<int32, [4]> var_478_end_0 = const()[name = tensor<string, []>("op_478_end_0"), val = tensor<int32, [4]>([2, 77, 1, 80])];
            tensor<bool, [4]> var_478_end_mask_0 = const()[name = tensor<string, []>("op_478_end_mask_0"), val = tensor<bool, [4]>([true, true, true, false])];
            tensor<fp16, [2, 77, 1, 40]> var_478_cast = slice_by_index(begin = var_478_begin_0, end = var_478_end_0, end_mask = var_478_end_mask_0, x = transpose_76);
            tensor<int32, [4]> var_482_begin_0 = const()[name = tensor<string, []>("op_482_begin_0"), val = tensor<int32, [4]>([0, 0, 0, 80])];
            tensor<int32, [4]> var_482_end_0 = const()[name = tensor<string, []>("op_482_end_0"), val = tensor<int32, [4]>([2, 77, 1, 120])];
            tensor<bool, [4]> var_482_end_mask_0 = const()[name = tensor<string, []>("op_482_end_mask_0"), val = tensor<bool, [4]>([true, true, true, false])];
            tensor<fp16, [2, 77, 1, 40]> var_482_cast = slice_by_index(begin = var_482_begin_0, end = var_482_end_0, end_mask = var_482_end_mask_0, x = transpose_76);
            tensor<int32, [4]> var_486_begin_0 = const()[name = tensor<string, []>("op_486_begin_0"), val = tensor<int32, [4]>([0, 0, 0, 120])];
            tensor<int32, [4]> var_486_end_0 = const()[name = tensor<string, []>("op_486_end_0"), val = tensor<int32, [4]>([2, 77, 1, 160])];
            tensor<bool, [4]> var_486_end_mask_0 = const()[name = tensor<string, []>("op_486_end_mask_0"), val = tensor<bool, [4]>([true, true, true, false])];
            tensor<fp16, [2, 77, 1, 40]> var_486_cast = slice_by_index(begin = var_486_begin_0, end = var_486_end_0, end_mask = var_486_end_mask_0, x = transpose_76);
            tensor<int32, [4]> var_490_begin_0 = const()[name = tensor<string, []>("op_490_begin_0"), val = tensor<int32, [4]>([0, 0, 0, 160])];
            tensor<int32, [4]> var_490_end_0 = const()[name = tensor<string, []>("op_490_end_0"), val = tensor<int32, [4]>([2, 77, 1, 200])];
            tensor<bool, [4]> var_490_end_mask_0 = const()[name = tensor<string, []>("op_490_end_mask_0"), val = tensor<bool, [4]>([true, true, true, false])];
            tensor<fp16, [2, 77, 1, 40]> var_490_cast = slice_by_index(begin = var_490_begin_0, end = var_490_end_0, end_mask = var_490_end_mask_0, x = transpose_76);
            tensor<int32, [4]> var_494_begin_0 = const()[name = tensor<string, []>("op_494_begin_0"), val = tensor<int32, [4]>([0, 0, 0, 200])];
            tensor<int32, [4]> var_494_end_0 = const()[name = tensor<string, []>("op_494_end_0"), val = tensor<int32, [4]>([2, 77, 1, 240])];
            tensor<bool, [4]> var_494_end_mask_0 = const()[name = tensor<string, []>("op_494_end_mask_0"), val = tensor<bool, [4]>([true, true, true, false])];
            tensor<fp16, [2, 77, 1, 40]> var_494_cast = slice_by_index(begin = var_494_begin_0, end = var_494_end_0, end_mask = var_494_end_mask_0, x = transpose_76);
            tensor<int32, [4]> var_498_begin_0 = const()[name = tensor<string, []>("op_498_begin_0"), val = tensor<int32, [4]>([0, 0, 0, 240])];
            tensor<int32, [4]> var_498_end_0 = const()[name = tensor<string, []>("op_498_end_0"), val = tensor<int32, [4]>([2, 77, 1, 280])];
            tensor<bool, [4]> var_498_end_mask_0 = const()[name = tensor<string, []>("op_498_end_mask_0"), val = tensor<bool, [4]>([true, true, true, false])];
            tensor<fp16, [2, 77, 1, 40]> var_498_cast = slice_by_index(begin = var_498_begin_0, end = var_498_end_0, end_mask = var_498_end_mask_0, x = transpose_76);
            tensor<int32, [4]> var_502_begin_0 = const()[name = tensor<string, []>("op_502_begin_0"), val = tensor<int32, [4]>([0, 0, 0, 280])];
            tensor<int32, [4]> var_502_end_0 = const()[name = tensor<string, []>("op_502_end_0"), val = tensor<int32, [4]>([2, 77, 1, 320])];
            tensor<bool, [4]> var_502_end_mask_0 = const()[name = tensor<string, []>("op_502_end_mask_0"), val = tensor<bool, [4]>([true, true, true, false])];
            tensor<fp16, [2, 77, 1, 40]> var_502_cast = slice_by_index(begin = var_502_begin_0, end = var_502_end_0, end_mask = var_502_end_mask_0, x = transpose_76);
            tensor<int32, [4]> var_504_begin_0 = const()[name = tensor<string, []>("op_504_begin_0"), val = tensor<int32, [4]>([0, 0, 0, 0])];
            tensor<int32, [4]> var_504_end_0 = const()[name = tensor<string, []>("op_504_end_0"), val = tensor<int32, [4]>([2, 40, 1, 77])];
            tensor<bool, [4]> var_504_end_mask_0 = const()[name = tensor<string, []>("op_504_end_mask_0"), val = tensor<bool, [4]>([true, false, true, true])];
            tensor<fp16, [2, 40, 1, 77]> var_504_cast = slice_by_index(begin = var_504_begin_0, end = var_504_end_0, end_mask = var_504_end_mask_0, x = v_3_cast);
            tensor<int32, [4]> var_508_begin_0 = const()[name = tensor<string, []>("op_508_begin_0"), val = tensor<int32, [4]>([0, 40, 0, 0])];
            tensor<int32, [4]> var_508_end_0 = const()[name = tensor<string, []>("op_508_end_0"), val = tensor<int32, [4]>([2, 80, 1, 77])];
            tensor<bool, [4]> var_508_end_mask_0 = const()[name = tensor<string, []>("op_508_end_mask_0"), val = tensor<bool, [4]>([true, false, true, true])];
            tensor<fp16, [2, 40, 1, 77]> var_508_cast = slice_by_index(begin = var_508_begin_0, end = var_508_end_0, end_mask = var_508_end_mask_0, x = v_3_cast);
            tensor<int32, [4]> var_512_begin_0 = const()[name = tensor<string, []>("op_512_begin_0"), val = tensor<int32, [4]>([0, 80, 0, 0])];
            tensor<int32, [4]> var_512_end_0 = const()[name = tensor<string, []>("op_512_end_0"), val = tensor<int32, [4]>([2, 120, 1, 77])];
            tensor<bool, [4]> var_512_end_mask_0 = const()[name = tensor<string, []>("op_512_end_mask_0"), val = tensor<bool, [4]>([true, false, true, true])];
            tensor<fp16, [2, 40, 1, 77]> var_512_cast = slice_by_index(begin = var_512_begin_0, end = var_512_end_0, end_mask = var_512_end_mask_0, x = v_3_cast);
            tensor<int32, [4]> var_516_begin_0 = const()[name = tensor<string, []>("op_516_begin_0"), val = tensor<int32, [4]>([0, 120, 0, 0])];
            tensor<int32, [4]> var_516_end_0 = const()[name = tensor<string, []>("op_516_end_0"), val = tensor<int32, [4]>([2, 160, 1, 77])];
            tensor<bool, [4]> var_516_end_mask_0 = const()[name = tensor<string, []>("op_516_end_mask_0"), val = tensor<bool, [4]>([true, false, true, true])];
            tensor<fp16, [2, 40, 1, 77]> var_516_cast = slice_by_index(begin = var_516_begin_0, end = var_516_end_0, end_mask = var_516_end_mask_0, x = v_3_cast);
            tensor<int32, [4]> var_520_begin_0 = const()[name = tensor<string, []>("op_520_begin_0"), val = tensor<int32, [4]>([0, 160, 0, 0])];
            tensor<int32, [4]> var_520_end_0 = const()[name = tensor<string, []>("op_520_end_0"), val = tensor<int32, [4]>([2, 200, 1, 77])];
            tensor<bool, [4]> var_520_end_mask_0 = const()[name = tensor<string, []>("op_520_end_mask_0"), val = tensor<bool, [4]>([true, false, true, true])];
            tensor<fp16, [2, 40, 1, 77]> var_520_cast = slice_by_index(begin = var_520_begin_0, end = var_520_end_0, end_mask = var_520_end_mask_0, x = v_3_cast);
            tensor<int32, [4]> var_524_begin_0 = const()[name = tensor<string, []>("op_524_begin_0"), val = tensor<int32, [4]>([0, 200, 0, 0])];
            tensor<int32, [4]> var_524_end_0 = const()[name = tensor<string, []>("op_524_end_0"), val = tensor<int32, [4]>([2, 240, 1, 77])];
            tensor<bool, [4]> var_524_end_mask_0 = const()[name = tensor<string, []>("op_524_end_mask_0"), val = tensor<bool, [4]>([true, false, true, true])];
            tensor<fp16, [2, 40, 1, 77]> var_524_cast = slice_by_index(begin = var_524_begin_0, end = var_524_end_0, end_mask = var_524_end_mask_0, x = v_3_cast);
            tensor<int32, [4]> var_528_begin_0 = const()[name = tensor<string, []>("op_528_begin_0"), val = tensor<int32, [4]>([0, 240, 0, 0])];
            tensor<int32, [4]> var_528_end_0 = const()[name = tensor<string, []>("op_528_end_0"), val = tensor<int32, [4]>([2, 280, 1, 77])];
            tensor<bool, [4]> var_528_end_mask_0 = const()[name = tensor<string, []>("op_528_end_mask_0"), val = tensor<bool, [4]>([true, false, true, true])];
            tensor<fp16, [2, 40, 1, 77]> var_528_cast = slice_by_index(begin = var_528_begin_0, end = var_528_end_0, end_mask = var_528_end_mask_0, x = v_3_cast);
            tensor<int32, [4]> var_532_begin_0 = const()[name = tensor<string, []>("op_532_begin_0"), val = tensor<int32, [4]>([0, 280, 0, 0])];
            tensor<int32, [4]> var_532_end_0 = const()[name = tensor<string, []>("op_532_end_0"), val = tensor<int32, [4]>([2, 320, 1, 77])];
            tensor<bool, [4]> var_532_end_mask_0 = const()[name = tensor<string, []>("op_532_end_mask_0"), val = tensor<bool, [4]>([true, false, true, true])];
            tensor<fp16, [2, 40, 1, 77]> var_532_cast = slice_by_index(begin = var_532_begin_0, end = var_532_end_0, end_mask = var_532_end_mask_0, x = v_3_cast);
            tensor<string, []> var_536_equation_0 = const()[name = tensor<string, []>("op_536_equation_0"), val = tensor<string, []>("bkhc,bchq->bkhq")];
            tensor<fp16, [2, 77, 1, 4096]> var_536_cast = einsum(equation = var_536_equation_0, values = (var_474_cast, var_439_cast));
            tensor<fp16, []> var_537_to_fp16 = const()[name = tensor<string, []>("op_537_to_fp16"), val = tensor<fp16, []>(0x1.43cp-3)];
            tensor<fp16, [2, 77, 1, 4096]> aw_17_cast = mul(x = var_536_cast, y = var_537_to_fp16);
            tensor<string, []> var_540_equation_0 = const()[name = tensor<string, []>("op_540_equation_0"), val = tensor<string, []>("bkhc,bchq->bkhq")];
            tensor<fp16, [2, 77, 1, 4096]> var_540_cast = einsum(equation = var_540_equation_0, values = (var_478_cast, var_443_cast));
            tensor<fp16, []> var_541_to_fp16 = const()[name = tensor<string, []>("op_541_to_fp16"), val = tensor<fp16, []>(0x1.43cp-3)];
            tensor<fp16, [2, 77, 1, 4096]> aw_19_cast = mul(x = var_540_cast, y = var_541_to_fp16);
            tensor<string, []> var_544_equation_0 = const()[name = tensor<string, []>("op_544_equation_0"), val = tensor<string, []>("bkhc,bchq->bkhq")];
            tensor<fp16, [2, 77, 1, 4096]> var_544_cast = einsum(equation = var_544_equation_0, values = (var_482_cast, var_447_cast));
            tensor<fp16, []> var_545_to_fp16 = const()[name = tensor<string, []>("op_545_to_fp16"), val = tensor<fp16, []>(0x1.43cp-3)];
            tensor<fp16, [2, 77, 1, 4096]> aw_21_cast = mul(x = var_544_cast, y = var_545_to_fp16);
            tensor<string, []> var_548_equation_0 = const()[name = tensor<string, []>("op_548_equation_0"), val = tensor<string, []>("bkhc,bchq->bkhq")];
            tensor<fp16, [2, 77, 1, 4096]> var_548_cast = einsum(equation = var_548_equation_0, values = (var_486_cast, var_451_cast));
            tensor<fp16, []> var_549_to_fp16 = const()[name = tensor<string, []>("op_549_to_fp16"), val = tensor<fp16, []>(0x1.43cp-3)];
            tensor<fp16, [2, 77, 1, 4096]> aw_23_cast = mul(x = var_548_cast, y = var_549_to_fp16);
            tensor<string, []> var_552_equation_0 = const()[name = tensor<string, []>("op_552_equation_0"), val = tensor<string, []>("bkhc,bchq->bkhq")];
            tensor<fp16, [2, 77, 1, 4096]> var_552_cast = einsum(equation = var_552_equation_0, values = (var_490_cast, var_455_cast));
            tensor<fp16, []> var_553_to_fp16 = const()[name = tensor<string, []>("op_553_to_fp16"), val = tensor<fp16, []>(0x1.43cp-3)];
            tensor<fp16, [2, 77, 1, 4096]> aw_25_cast = mul(x = var_552_cast, y = var_553_to_fp16);
            tensor<string, []> var_556_equation_0 = const()[name = tensor<string, []>("op_556_equation_0"), val = tensor<string, []>("bkhc,bchq->bkhq")];
            tensor<fp16, [2, 77, 1, 4096]> var_556_cast = einsum(equation = var_556_equation_0, values = (var_494_cast, var_459_cast));
            tensor<fp16, []> var_557_to_fp16 = const()[name = tensor<string, []>("op_557_to_fp16"), val = tensor<fp16, []>(0x1.43cp-3)];
            tensor<fp16, [2, 77, 1, 4096]> aw_27_cast = mul(x = var_556_cast, y = var_557_to_fp16);
            tensor<string, []> var_560_equation_0 = const()[name = tensor<string, []>("op_560_equation_0"), val = tensor<string, []>("bkhc,bchq->bkhq")];
            tensor<fp16, [2, 77, 1, 4096]> var_560_cast = einsum(equation = var_560_equation_0, values = (var_498_cast, var_463_cast));
            tensor<fp16, []> var_561_to_fp16 = const()[name = tensor<string, []>("op_561_to_fp16"), val = tensor<fp16, []>(0x1.43cp-3)];
            tensor<fp16, [2, 77, 1, 4096]> aw_29_cast = mul(x = var_560_cast, y = var_561_to_fp16);
            tensor<string, []> var_564_equation_0 = const()[name = tensor<string, []>("op_564_equation_0"), val = tensor<string, []>("bkhc,bchq->bkhq")];
            tensor<fp16, [2, 77, 1, 4096]> var_564_cast = einsum(equation = var_564_equation_0, values = (var_502_cast, var_467_cast));
            tensor<fp16, []> var_565_to_fp16 = const()[name = tensor<string, []>("op_565_to_fp16"), val = tensor<fp16, []>(0x1.43cp-3)];
            tensor<fp16, [2, 77, 1, 4096]> aw_31_cast = mul(x = var_564_cast, y = var_565_to_fp16);
            tensor<fp16, [2, 77, 1, 4096]> var_567_cast = softmax(axis = var_115, x = aw_17_cast);
            tensor<fp16, [2, 77, 1, 4096]> var_568_cast = softmax(axis = var_115, x = aw_19_cast);
            tensor<fp16, [2, 77, 1, 4096]> var_569_cast = softmax(axis = var_115, x = aw_21_cast);
            tensor<fp16, [2, 77, 1, 4096]> var_570_cast = softmax(axis = var_115, x = aw_23_cast);
            tensor<fp16, [2, 77, 1, 4096]> var_571_cast = softmax(axis = var_115, x = aw_25_cast);
            tensor<fp16, [2, 77, 1, 4096]> var_572_cast = softmax(axis = var_115, x = aw_27_cast);
            tensor<fp16, [2, 77, 1, 4096]> var_573_cast = softmax(axis = var_115, x = aw_29_cast);
            tensor<fp16, [2, 77, 1, 4096]> var_574_cast = softmax(axis = var_115, x = aw_31_cast);
            tensor<string, []> var_576_equation_0 = const()[name = tensor<string, []>("op_576_equation_0"), val = tensor<string, []>("bchk,bkhq->bchq")];
            tensor<fp16, [2, 40, 1, 4096]> var_576_cast = einsum(equation = var_576_equation_0, values = (var_504_cast, var_567_cast));
            tensor<string, []> var_578_equation_0 = const()[name = tensor<string, []>("op_578_equation_0"), val = tensor<string, []>("bchk,bkhq->bchq")];
            tensor<fp16, [2, 40, 1, 4096]> var_578_cast = einsum(equation = var_578_equation_0, values = (var_508_cast, var_568_cast));
            tensor<string, []> var_580_equation_0 = const()[name = tensor<string, []>("op_580_equation_0"), val = tensor<string, []>("bchk,bkhq->bchq")];
            tensor<fp16, [2, 40, 1, 4096]> var_580_cast = einsum(equation = var_580_equation_0, values = (var_512_cast, var_569_cast));
            tensor<string, []> var_582_equation_0 = const()[name = tensor<string, []>("op_582_equation_0"), val = tensor<string, []>("bchk,bkhq->bchq")];
            tensor<fp16, [2, 40, 1, 4096]> var_582_cast = einsum(equation = var_582_equation_0, values = (var_516_cast, var_570_cast));
            tensor<string, []> var_584_equation_0 = const()[name = tensor<string, []>("op_584_equation_0"), val = tensor<string, []>("bchk,bkhq->bchq")];
            tensor<fp16, [2, 40, 1, 4096]> var_584_cast = einsum(equation = var_584_equation_0, values = (var_520_cast, var_571_cast));
            tensor<string, []> var_586_equation_0 = const()[name = tensor<string, []>("op_586_equation_0"), val = tensor<string, []>("bchk,bkhq->bchq")];
            tensor<fp16, [2, 40, 1, 4096]> var_586_cast = einsum(equation = var_586_equation_0, values = (var_524_cast, var_572_cast));
            tensor<string, []> var_588_equation_0 = const()[name = tensor<string, []>("op_588_equation_0"), val = tensor<string, []>("bchk,bkhq->bchq")];
            tensor<fp16, [2, 40, 1, 4096]> var_588_cast = einsum(equation = var_588_equation_0, values = (var_528_cast, var_573_cast));
            tensor<string, []> var_590_equation_0 = const()[name = tensor<string, []>("op_590_equation_0"), val = tensor<string, []>("bchk,bkhq->bchq")];
            tensor<fp16, [2, 40, 1, 4096]> var_590_cast = einsum(equation = var_590_equation_0, values = (var_532_cast, var_574_cast));
            tensor<bool, []> input_27_interleave_0 = const()[name = tensor<string, []>("input_27_interleave_0"), val = tensor<bool, []>(false)];
            tensor<fp16, [2, 320, 1, 4096]> input_27_cast = concat(axis = var_115, interleave = input_27_interleave_0, values = (var_576_cast, var_578_cast, var_580_cast, var_582_cast, var_584_cast, var_586_cast, var_588_cast, var_590_cast));
            tensor<int32, [2]> var_596 = const()[name = tensor<string, []>("op_596"), val = tensor<int32, [2]>([1, 1])];
            tensor<int32, [2]> var_598 = const()[name = tensor<string, []>("op_598"), val = tensor<int32, [2]>([1, 1])];
            tensor<string, []> var_600_pad_type_0 = const()[name = tensor<string, []>("op_600_pad_type_0"), val = tensor<string, []>("custom")];
            tensor<int32, [4]> var_600_pad_0 = const()[name = tensor<string, []>("op_600_pad_0"), val = tensor<int32, [4]>([0, 0, 0, 0])];
            tensor<fp16, [320, 320, 1, 1]> down_blocks_0_attentions_0_transformer_blocks_0_attn2_to_out_0_weight_to_fp16 = const()[name = tensor<string, []>("down_blocks_0_attentions_0_transformer_blocks_0_attn2_to_out_0_weight_to_fp16"), val = tensor<fp16, [320, 320, 1, 1]>(BLOBFILE(path = tensor<string, []>("@model_path/weights/weight.bin"), offset = tensor<uint64, []>(10858560)))];
            tensor<fp16, [320]> down_blocks_0_attentions_0_transformer_blocks_0_attn2_to_out_0_bias_to_fp16 = const()[name = tensor<string, []>("down_blocks_0_attentions_0_transformer_blocks_0_attn2_to_out_0_bias_to_fp16"), val = tensor<fp16, [320]>(BLOBFILE(path = tensor<string, []>("@model_path/weights/weight.bin"), offset = tensor<uint64, []>(11063424)))];
            tensor<fp16, [2, 320, 1, 4096]> var_600_cast = conv(bias = down_blocks_0_attentions_0_transformer_blocks_0_attn2_to_out_0_bias_to_fp16, dilations = var_598, groups = var_115, pad = var_600_pad_0, pad_type = var_600_pad_type_0, strides = var_596, weight = down_blocks_0_attentions_0_transformer_blocks_0_attn2_to_out_0_weight_to_fp16, x = input_27_cast);
            tensor<fp16, [2, 320, 1, 4096]> inputs_5_cast = add(x = var_600_cast, y = inputs_3_cast);
            tensor<int32, [1]> var_604 = const()[name = tensor<string, []>("op_604"), val = tensor<int32, [1]>([1])];
            tensor<fp16, [2, 1, 1, 4096]> channels_mean_5_cast = reduce_mean(axes = var_604, keep_dims = var_110, x = inputs_5_cast);
            tensor<fp16, [2, 320, 1, 4096]> zero_mean_5_cast = sub(x = inputs_5_cast, y = channels_mean_5_cast);
            tensor<fp16, [2, 320, 1, 4096]> zero_mean_sq_5_cast = mul(x = zero_mean_5_cast, y = zero_mean_5_cast);
            tensor<int32, [1]> var_608 = const()[name = tensor<string, []>("op_608"), val = tensor<int32, [1]>([1])];
            tensor<fp16, [2, 1, 1, 4096]> var_609_cast = reduce_mean(axes = var_608, keep_dims = var_110, x = zero_mean_sq_5_cast);
            tensor<fp16, []> var_610_to_fp16 = const()[name = tensor<string, []>("op_610_to_fp16"), val = tensor<fp16, []>(0x1.5p-17)];
            tensor<fp16, [2, 1, 1, 4096]> var_611_cast = add(x = var_609_cast, y = var_610_to_fp16);
            tensor<fp16, []> denom_5_epsilon_0_to_fp16 = const()[name = tensor<string, []>("denom_5_epsilon_0_to_fp16"), val = tensor<fp16, []>(0x1p-24)];
            tensor<fp16, [2, 1, 1, 4096]> denom_5_cast = rsqrt(epsilon = denom_5_epsilon_0_to_fp16, x = var_611_cast);
            tensor<fp16, [2, 320, 1, 4096]> out_5_cast = mul(x = zero_mean_5_cast, y = denom_5_cast);
            tensor<fp16, [1, 320, 1, 1]> var_615_to_fp16 = const()[name = tensor<string, []>("op_615_to_fp16"), val = tensor<fp16, [1, 320, 1, 1]>(BLOBFILE(path = tensor<string, []>("@model_path/weights/weight.bin"), offset = tensor<uint64, []>(11064128)))];
            tensor<fp16, [2, 320, 1, 4096]> var_616_cast = add(x = out_5_cast, y = var_615_to_fp16);
            tensor<fp16, [1, 320, 1, 1]> var_618_to_fp16 = const()[name = tensor<string, []>("op_618_to_fp16"), val = tensor<fp16, [1, 320, 1, 1]>(BLOBFILE(path = tensor<string, []>("@model_path/weights/weight.bin"), offset = tensor<uint64, []>(11064832)))];
            tensor<fp16, [2, 320, 1, 4096]> input_29_cast = mul(x = var_616_cast, y = var_618_to_fp16);
            tensor<int32, [2]> var_626 = const()[name = tensor<string, []>("op_626"), val = tensor<int32, [2]>([1, 1])];
            tensor<int32, [2]> var_628 = const()[name = tensor<string, []>("op_628"), val = tensor<int32, [2]>([1, 1])];
            tensor<string, []> var_630_pad_type_0 = const()[name = tensor<string, []>("op_630_pad_type_0"), val = tensor<string, []>("custom")];
            tensor<int32, [4]> var_630_pad_0 = const()[name = tensor<string, []>("op_630_pad_0"), val = tensor<int32, [4]>([0, 0, 0, 0])];
            tensor<fp16, [2560, 320, 1, 1]> down_blocks_0_attentions_0_transformer_blocks_0_ff_net_0_proj_weight_to_fp16 = const()[name = tensor<string, []>("down_blocks_0_attentions_0_transformer_blocks_0_ff_net_0_proj_weight_to_fp16"), val = tensor<fp16, [2560, 320, 1, 1]>(BLOBFILE(path = tensor<string, []>("@model_path/weights/weight.bin"), offset = tensor<uint64, []>(11065536)))];
            tensor<fp16, [2560]> down_blocks_0_attentions_0_transformer_blocks_0_ff_net_0_proj_bias_to_fp16 = const()[name = tensor<string, []>("down_blocks_0_attentions_0_transformer_blocks_0_ff_net_0_proj_bias_to_fp16"), val = tensor<fp16, [2560]>(BLOBFILE(path = tensor<string, []>("@model_path/weights/weight.bin"), offset = tensor<uint64, []>(12704000)))];
            tensor<fp16, [2, 2560, 1, 4096]> var_630_cast = conv(bias = down_blocks_0_attentions_0_transformer_blocks_0_ff_net_0_proj_bias_to_fp16, dilations = var_628, groups = var_115, pad = var_630_pad_0, pad_type = var_630_pad_type_0, strides = var_626, weight = down_blocks_0_attentions_0_transformer_blocks_0_ff_net_0_proj_weight_to_fp16, x = input_29_cast);
            tensor<int32, [2]> var_631_split_sizes_0 = const()[name = tensor<string, []>("op_631_split_sizes_0"), val = tensor<int32, [2]>([1280, 1280])];
            tensor<int32, []> var_631_axis_0 = const()[name = tensor<string, []>("op_631_axis_0"), val = tensor<int32, []>(1)];
            tensor<fp16, [2, 1280, 1, 4096]> var_631_cast_0, tensor<fp16, [2, 1280, 1, 4096]> var_631_cast_1 = split(axis = var_631_axis_0, split_sizes = var_631_split_sizes_0, x = var_630_cast);
            tensor<string, []> var_633_mode_0 = const()[name = tensor<string, []>("op_633_mode_0"), val = tensor<string, []>("EXACT")];
            tensor<fp16, [2, 1280, 1, 4096]> var_633_cast = gelu(mode = var_633_mode_0, x = var_631_cast_1);
            tensor<fp16, [2, 1280, 1, 4096]> input_31_cast = mul(x = var_631_cast_0, y = var_633_cast);
            tensor<int32, [2]> var_637 = const()[name = tensor<string, []>("op_637"), val = tensor<int32, [2]>([1, 1])];
            tensor<int32, [2]> var_639 = const()[name = tensor<string, []>("op_639"), val = tensor<int32, [2]>([1, 1])];
            tensor<string, []> var_641_pad_type_0 = const()[name = tensor<string, []>("op_641_pad_type_0"), val = tensor<string, []>("custom")];
            tensor<int32, [4]> var_641_pad_0 = const()[name = tensor<string, []>("op_641_pad_0"), val = tensor<int32, [4]>([0, 0, 0, 0])];
            tensor<fp16, [320, 1280, 1, 1]> down_blocks_0_attentions_0_transformer_blocks_0_ff_net_2_weight_to_fp16 = const()[name = tensor<string, []>("down_blocks_0_attentions_0_transformer_blocks_0_ff_net_2_weight_to_fp16"), val = tensor<fp16, [320, 1280, 1, 1]>(BLOBFILE(path = tensor<string, []>("@model_path/weights/weight.bin"), offset = tensor<uint64, []>(12709184)))];
            tensor<fp16, [320]> down_blocks_0_attentions_0_transformer_blocks_0_ff_net_2_bias_to_fp16 = const()[name = tensor<string, []>("down_blocks_0_attentions_0_transformer_blocks_0_ff_net_2_bias_to_fp16"), val = tensor<fp16, [320]>(BLOBFILE(path = tensor<string, []>("@model_path/weights/weight.bin"), offset = tensor<uint64, []>(13528448)))];
            tensor<fp16, [2, 320, 1, 4096]> var_641_cast = conv(bias = down_blocks_0_attentions_0_transformer_blocks_0_ff_net_2_bias_to_fp16, dilations = var_639, groups = var_115, pad = var_641_pad_0, pad_type = var_641_pad_type_0, strides = var_637, weight = down_blocks_0_attentions_0_transformer_blocks_0_ff_net_2_weight_to_fp16, x = input_31_cast);
            tensor<fp16, [2, 320, 1, 4096]> hidden_states_15_cast = add(x = var_641_cast, y = inputs_5_cast);
            tensor<int32, [4]> var_643 = const()[name = tensor<string, []>("op_643"), val = tensor<int32, [4]>([2, 320, 64, 64])];
            tensor<fp16, [2, 320, 64, 64]> input_33_cast = reshape(shape = var_643, x = hidden_states_15_cast);
            tensor<int32, [2]> var_647 = const()[name = tensor<string, []>("op_647"), val = tensor<int32, [2]>([1, 1])];
            tensor<int32, [2]> var_649 = const()[name = tensor<string, []>("op_649"), val = tensor<int32, [2]>([1, 1])];
            tensor<string, []> hidden_states_17_pad_type_0 = const()[name = tensor<string, []>("hidden_states_17_pad_type_0"), val = tensor<string, []>("custom")];
            tensor<int32, [4]> hidden_states_17_pad_0 = const()[name = tensor<string, []>("hidden_states_17_pad_0"), val = tensor<int32, [4]>([0, 0, 0, 0])];
            tensor<fp16, [320, 320, 1, 1]> down_blocks_0_attentions_0_proj_out_weight_to_fp16 = const()[name = tensor<string, []>("down_blocks_0_attentions_0_proj_out_weight_to_fp16"), val = tensor<fp16, [320, 320, 1, 1]>(BLOBFILE(path = tensor<string, []>("@model_path/weights/weight.bin"), offset = tensor<uint64, []>(13529152)))];
            tensor<fp16, [320]> down_blocks_0_attentions_0_proj_out_bias_to_fp16 = const()[name = tensor<string, []>("down_blocks_0_attentions_0_proj_out_bias_to_fp16"), val = tensor<fp16, [320]>(BLOBFILE(path = tensor<string, []>("@model_path/weights/weight.bin"), offset = tensor<uint64, []>(13734016)))];
            tensor<fp16, [2, 320, 64, 64]> hidden_states_17_cast = conv(bias = down_blocks_0_attentions_0_proj_out_bias_to_fp16, dilations = var_649, groups = var_115, pad = hidden_states_17_pad_0, pad_type = hidden_states_17_pad_type_0, strides = var_647, weight = down_blocks_0_attentions_0_proj_out_weight_to_fp16, x = input_33_cast);
            tensor<fp16, [2, 320, 64, 64]> input_35_cast_1 = add(x = hidden_states_17_cast, y = hidden_states_5_cast);
            tensor<int32, [5]> reshape_12_shape_0 = const()[name = tensor<string, []>("reshape_12_shape_0"), val = tensor<int32, [5]>([2, 32, 10, 64, 64])];
            tensor<fp16, [2, 32, 10, 64, 64]> reshape_12_cast = reshape(shape = reshape_12_shape_0, x = input_35_cast_1);
            tensor<int32, [3]> reduce_mean_9_axes_0 = const()[name = tensor<string, []>("reduce_mean_9_axes_0"), val = tensor<int32, [3]>([2, 3, 4])];
            tensor<bool, []> reduce_mean_9_keep_dims_0 = const()[name = tensor<string, []>("reduce_mean_9_keep_dims_0"), val = tensor<bool, []>(true)];
            tensor<fp16, [2, 32, 1, 1, 1]> reduce_mean_9_cast = reduce_mean(axes = reduce_mean_9_axes_0, keep_dims = reduce_mean_9_keep_dims_0, x = reshape_12_cast);
            tensor<fp16, [2, 32, 10, 64, 64]> sub_6_cast = sub(x = reshape_12_cast, y = reduce_mean_9_cast);
            tensor<fp16, [2, 32, 10, 64, 64]> square_3_cast = square(x = sub_6_cast);
            tensor<int32, [3]> reduce_mean_11_axes_0 = const()[name = tensor<string, []>("reduce_mean_11_axes_0"), val = tensor<int32, [3]>([2, 3, 4])];
            tensor<bool, []> reduce_mean_11_keep_dims_0 = const()[name = tensor<string, []>("reduce_mean_11_keep_dims_0"), val = tensor<bool, []>(true)];
            tensor<fp16, [2, 32, 1, 1, 1]> reduce_mean_11_cast = reduce_mean(axes = reduce_mean_11_axes_0, keep_dims = reduce_mean_11_keep_dims_0, x = square_3_cast);
            tensor<fp16, []> add_6_y_0_to_fp16 = const()[name = tensor<string, []>("add_6_y_0_to_fp16"), val = tensor<fp16, []>(0x1.5p-17)];
            tensor<fp16, [2, 32, 1, 1, 1]> add_6_cast = add(x = reduce_mean_11_cast, y = add_6_y_0_to_fp16);
            tensor<fp16, [2, 32, 1, 1, 1]> sqrt_3_cast = sqrt(x = add_6_cast);
            tensor<fp16, [2, 32, 10, 64, 64]> real_div_3_cast = real_div(x = sub_6_cast, y = sqrt_3_cast);
            tensor<int32, [4]> reshape_13_shape_0 = const()[name = tensor<string, []>("reshape_13_shape_0"), val = tensor<int32, [4]>([2, 320, 64, 64])];
            tensor<fp16, [2, 320, 64, 64]> reshape_13_cast = reshape(shape = reshape_13_shape_0, x = real_div_3_cast);
            tensor<fp16, [320]> add_7_mean_0_to_fp16 = const()[name = tensor<string, []>("add_7_mean_0_to_fp16"), val = tensor<fp16, [320]>(BLOBFILE(path = tensor<string, []>("@model_path/weights/weight.bin"), offset = tensor<uint64, []>(13734720)))];
            tensor<fp16, [320]> add_7_variance_0_to_fp16 = const()[name = tensor<string, []>("add_7_variance_0_to_fp16"), val = tensor<fp16, [320]>(BLOBFILE(path = tensor<string, []>("@model_path/weights/weight.bin"), offset = tensor<uint64, []>(13735424)))];
            tensor<fp16, [320]> add_7_gamma_0_to_fp16 = const()[name = tensor<string, []>("add_7_gamma_0_to_fp16"), val = tensor<fp16, [320]>(BLOBFILE(path = tensor<string, []>("@model_path/weights/weight.bin"), offset = tensor<uint64, []>(13736128)))];
            tensor<fp16, [320]> add_7_beta_0_to_fp16 = const()[name = tensor<string, []>("add_7_beta_0_to_fp16"), val = tensor<fp16, [320]>(BLOBFILE(path = tensor<string, []>("@model_path/weights/weight.bin"), offset = tensor<uint64, []>(13736832)))];
            tensor<fp16, []> add_7_epsilon_0_to_fp16 = const()[name = tensor<string, []>("add_7_epsilon_0_to_fp16"), val = tensor<fp16, []>(0x1.5p-17)];
            tensor<fp16, [2, 320, 64, 64]> add_7_cast = batch_norm(beta = add_7_beta_0_to_fp16, epsilon = add_7_epsilon_0_to_fp16, gamma = add_7_gamma_0_to_fp16, mean = add_7_mean_0_to_fp16, variance = add_7_variance_0_to_fp16, x = reshape_13_cast);
            tensor<fp16, [2, 320, 64, 64]> input_39_cast = silu(x = add_7_cast);
            tensor<int32, [2]> var_664 = const()[name = tensor<string, []>("op_664"), val = tensor<int32, [2]>([1, 1])];
            tensor<int32, [2]> var_666 = const()[name = tensor<string, []>("op_666"), val = tensor<int32, [2]>([1, 1])];
            tensor<string, []> hidden_states_19_pad_type_0 = const()[name = tensor<string, []>("hidden_states_19_pad_type_0"), val = tensor<string, []>("custom")];
            tensor<int32, [4]> hidden_states_19_pad_0 = const()[name = tensor<string, []>("hidden_states_19_pad_0"), val = tensor<int32, [4]>([1, 1, 1, 1])];
            tensor<fp16, [320, 320, 3, 3]> down_blocks_0_resnets_1_conv1_weight_to_fp16 = const()[name = tensor<string, []>("down_blocks_0_resnets_1_conv1_weight_to_fp16"), val = tensor<fp16, [320, 320, 3, 3]>(BLOBFILE(path = tensor<string, []>("@model_path/weights/weight.bin"), offset = tensor<uint64, []>(13737536)))];
            tensor<fp16, [320]> down_blocks_0_resnets_1_conv1_bias_to_fp16 = const()[name = tensor<string, []>("down_blocks_0_resnets_1_conv1_bias_to_fp16"), val = tensor<fp16, [320]>(BLOBFILE(path = tensor<string, []>("@model_path/weights/weight.bin"), offset = tensor<uint64, []>(15580800)))];
            tensor<fp16, [2, 320, 64, 64]> hidden_states_19_cast = conv(bias = down_blocks_0_resnets_1_conv1_bias_to_fp16, dilations = var_666, groups = var_115, pad = hidden_states_19_pad_0, pad_type = hidden_states_19_pad_type_0, strides = var_664, weight = down_blocks_0_resnets_1_conv1_weight_to_fp16, x = input_39_cast);
            tensor<int32, [2]> var_672 = const()[name = tensor<string, []>("op_672"), val = tensor<int32, [2]>([1, 1])];
            tensor<int32, [2]> var_674 = const()[name = tensor<string, []>("op_674"), val = tensor<int32, [2]>([1, 1])];
            tensor<string, []> temb_3_pad_type_0 = const()[name = tensor<string, []>("temb_3_pad_type_0"), val = tensor<string, []>("custom")];
            tensor<int32, [4]> temb_3_pad_0 = const()[name = tensor<string, []>("temb_3_pad_0"), val = tensor<int32, [4]>([0, 0, 0, 0])];
            tensor<fp16, [320, 1280, 1, 1]> down_blocks_0_resnets_1_time_emb_proj_weight_to_fp16 = const()[name = tensor<string, []>("down_blocks_0_resnets_1_time_emb_proj_weight_to_fp16"), val = tensor<fp16, [320, 1280, 1, 1]>(BLOBFILE(path = tensor<string, []>("@model_path/weights/weight.bin"), offset = tensor<uint64, []>(15581504)))];
            tensor<fp16, [320]> down_blocks_0_resnets_1_time_emb_proj_bias_to_fp16 = const()[name = tensor<string, []>("down_blocks_0_resnets_1_time_emb_proj_bias_to_fp16"), val = tensor<fp16, [320]>(BLOBFILE(path = tensor<string, []>("@model_path/weights/weight.bin"), offset = tensor<uint64, []>(16400768)))];
            tensor<fp16, [2, 320, 1, 1]> temb_3_cast = conv(bias = down_blocks_0_resnets_1_time_emb_proj_bias_to_fp16, dilations = var_674, groups = var_115, pad = temb_3_pad_0, pad_type = temb_3_pad_type_0, strides = var_672, weight = down_blocks_0_resnets_1_time_emb_proj_weight_to_fp16, x = input_15_cast_1);
            tensor<fp16, [2, 320, 64, 64]> input_43_cast = add(x = hidden_states_19_cast, y = temb_3_cast);
            tensor<int32, [5]> reshape_16_shape_0 = const()[name = tensor<string, []>("reshape_16_shape_0"), val = tensor<int32, [5]>([2, 32, 10, 64, 64])];
            tensor<fp16, [2, 32, 10, 64, 64]> reshape_16_cast = reshape(shape = reshape_16_shape_0, x = input_43_cast);
            tensor<int32, [3]> reduce_mean_12_axes_0 = const()[name = tensor<string, []>("reduce_mean_12_axes_0"), val = tensor<int32, [3]>([2, 3, 4])];
            tensor<bool, []> reduce_mean_12_keep_dims_0 = const()[name = tensor<string, []>("reduce_mean_12_keep_dims_0"), val = tensor<bool, []>(true)];
            tensor<fp16, [2, 32, 1, 1, 1]> reduce_mean_12_cast = reduce_mean(axes = reduce_mean_12_axes_0, keep_dims = reduce_mean_12_keep_dims_0, x = reshape_16_cast);
            tensor<fp16, [2, 32, 10, 64, 64]> sub_8_cast = sub(x = reshape_16_cast, y = reduce_mean_12_cast);
            tensor<fp16, [2, 32, 10, 64, 64]> square_4_cast = square(x = sub_8_cast);
            tensor<int32, [3]> reduce_mean_14_axes_0 = const()[name = tensor<string, []>("reduce_mean_14_axes_0"), val = tensor<int32, [3]>([2, 3, 4])];
            tensor<bool, []> reduce_mean_14_keep_dims_0 = const()[name = tensor<string, []>("reduce_mean_14_keep_dims_0"), val = tensor<bool, []>(true)];
            tensor<fp16, [2, 32, 1, 1, 1]> reduce_mean_14_cast = reduce_mean(axes = reduce_mean_14_axes_0, keep_dims = reduce_mean_14_keep_dims_0, x = square_4_cast);
            tensor<fp16, []> add_8_y_0_to_fp16 = const()[name = tensor<string, []>("add_8_y_0_to_fp16"), val = tensor<fp16, []>(0x1.5p-17)];
            tensor<fp16, [2, 32, 1, 1, 1]> add_8_cast = add(x = reduce_mean_14_cast, y = add_8_y_0_to_fp16);
            tensor<fp16, [2, 32, 1, 1, 1]> sqrt_4_cast = sqrt(x = add_8_cast);
            tensor<fp16, [2, 32, 10, 64, 64]> real_div_4_cast = real_div(x = sub_8_cast, y = sqrt_4_cast);
            tensor<int32, [4]> reshape_17_shape_0 = const()[name = tensor<string, []>("reshape_17_shape_0"), val = tensor<int32, [4]>([2, 320, 64, 64])];
            tensor<fp16, [2, 320, 64, 64]> reshape_17_cast = reshape(shape = reshape_17_shape_0, x = real_div_4_cast);
            tensor<fp16, [320]> add_9_mean_0_to_fp16 = const()[name = tensor<string, []>("add_9_mean_0_to_fp16"), val = tensor<fp16, [320]>(BLOBFILE(path = tensor<string, []>("@model_path/weights/weight.bin"), offset = tensor<uint64, []>(16401472)))];
            tensor<fp16, [320]> add_9_variance_0_to_fp16 = const()[name = tensor<string, []>("add_9_variance_0_to_fp16"), val = tensor<fp16, [320]>(BLOBFILE(path = tensor<string, []>("@model_path/weights/weight.bin"), offset = tensor<uint64, []>(16402176)))];
            tensor<fp16, [320]> add_9_gamma_0_to_fp16 = const()[name = tensor<string, []>("add_9_gamma_0_to_fp16"), val = tensor<fp16, [320]>(BLOBFILE(path = tensor<string, []>("@model_path/weights/weight.bin"), offset = tensor<uint64, []>(16402880)))];
            tensor<fp16, [320]> add_9_beta_0_to_fp16 = const()[name = tensor<string, []>("add_9_beta_0_to_fp16"), val = tensor<fp16, [320]>(BLOBFILE(path = tensor<string, []>("@model_path/weights/weight.bin"), offset = tensor<uint64, []>(16403584)))];
            tensor<fp16, []> add_9_epsilon_0_to_fp16 = const()[name = tensor<string, []>("add_9_epsilon_0_to_fp16"), val = tensor<fp16, []>(0x1.5p-17)];
            tensor<fp16, [2, 320, 64, 64]> add_9_cast = batch_norm(beta = add_9_beta_0_to_fp16, epsilon = add_9_epsilon_0_to_fp16, gamma = add_9_gamma_0_to_fp16, mean = add_9_mean_0_to_fp16, variance = add_9_variance_0_to_fp16, x = reshape_17_cast);
            tensor<fp16, [2, 320, 64, 64]> input_47_cast = silu(x = add_9_cast);
            tensor<int32, [2]> var_684 = const()[name = tensor<string, []>("op_684"), val = tensor<int32, [2]>([1, 1])];
            tensor<int32, [2]> var_686 = const()[name = tensor<string, []>("op_686"), val = tensor<int32, [2]>([1, 1])];
            tensor<string, []> hidden_states_21_pad_type_0 = const()[name = tensor<string, []>("hidden_states_21_pad_type_0"), val = tensor<string, []>("custom")];
            tensor<int32, [4]> hidden_states_21_pad_0 = const()[name = tensor<string, []>("hidden_states_21_pad_0"), val = tensor<int32, [4]>([1, 1, 1, 1])];
            tensor<fp16, [320, 320, 3, 3]> down_blocks_0_resnets_1_conv2_weight_to_fp16 = const()[name = tensor<string, []>("down_blocks_0_resnets_1_conv2_weight_to_fp16"), val = tensor<fp16, [320, 320, 3, 3]>(BLOBFILE(path = tensor<string, []>("@model_path/weights/weight.bin"), offset = tensor<uint64, []>(16404288)))];
            tensor<fp16, [320]> down_blocks_0_resnets_1_conv2_bias_to_fp16 = const()[name = tensor<string, []>("down_blocks_0_resnets_1_conv2_bias_to_fp16"), val = tensor<fp16, [320]>(BLOBFILE(path = tensor<string, []>("@model_path/weights/weight.bin"), offset = tensor<uint64, []>(18247552)))];
            tensor<fp16, [2, 320, 64, 64]> hidden_states_21_cast = conv(bias = down_blocks_0_resnets_1_conv2_bias_to_fp16, dilations = var_686, groups = var_115, pad = hidden_states_21_pad_0, pad_type = hidden_states_21_pad_type_0, strides = var_684, weight = down_blocks_0_resnets_1_conv2_weight_to_fp16, x = input_47_cast);
            tensor<fp16, [2, 320, 64, 64]> hidden_states_23_cast = add(x = input_35_cast_1, y = hidden_states_21_cast);
            tensor<int32, [5]> reshape_20_shape_0 = const()[name = tensor<string, []>("reshape_20_shape_0"), val = tensor<int32, [5]>([2, 32, 10, 64, 64])];
            tensor<fp16, [2, 32, 10, 64, 64]> reshape_20_cast = reshape(shape = reshape_20_shape_0, x = hidden_states_23_cast);
            tensor<int32, [3]> reduce_mean_15_axes_0 = const()[name = tensor<string, []>("reduce_mean_15_axes_0"), val = tensor<int32, [3]>([2, 3, 4])];
            tensor<bool, []> reduce_mean_15_keep_dims_0 = const()[name = tensor<string, []>("reduce_mean_15_keep_dims_0"), val = tensor<bool, []>(true)];
            tensor<fp16, [2, 32, 1, 1, 1]> reduce_mean_15_cast = reduce_mean(axes = reduce_mean_15_axes_0, keep_dims = reduce_mean_15_keep_dims_0, x = reshape_20_cast);
            tensor<fp16, [2, 32, 10, 64, 64]> sub_10_cast = sub(x = reshape_20_cast, y = reduce_mean_15_cast);
            tensor<fp16, [2, 32, 10, 64, 64]> square_5_cast = square(x = sub_10_cast);
            tensor<int32, [3]> reduce_mean_17_axes_0 = const()[name = tensor<string, []>("reduce_mean_17_axes_0"), val = tensor<int32, [3]>([2, 3, 4])];
            tensor<bool, []> reduce_mean_17_keep_dims_0 = const()[name = tensor<string, []>("reduce_mean_17_keep_dims_0"), val = tensor<bool, []>(true)];
            tensor<fp16, [2, 32, 1, 1, 1]> reduce_mean_17_cast = reduce_mean(axes = reduce_mean_17_axes_0, keep_dims = reduce_mean_17_keep_dims_0, x = square_5_cast);
            tensor<fp16, []> add_10_y_0_to_fp16 = const()[name = tensor<string, []>("add_10_y_0_to_fp16"), val = tensor<fp16, []>(0x1.1p-20)];
            tensor<fp16, [2, 32, 1, 1, 1]> add_10_cast = add(x = reduce_mean_17_cast, y = add_10_y_0_to_fp16);
            tensor<fp16, [2, 32, 1, 1, 1]> sqrt_5_cast = sqrt(x = add_10_cast);
            tensor<fp16, [2, 32, 10, 64, 64]> real_div_5_cast = real_div(x = sub_10_cast, y = sqrt_5_cast);
            tensor<int32, [4]> reshape_21_shape_0 = const()[name = tensor<string, []>("reshape_21_shape_0"), val = tensor<int32, [4]>([2, 320, 64, 64])];
            tensor<fp16, [2, 320, 64, 64]> reshape_21_cast = reshape(shape = reshape_21_shape_0, x = real_div_5_cast);
            tensor<fp16, [320]> add_11_mean_0_to_fp16 = const()[name = tensor<string, []>("add_11_mean_0_to_fp16"), val = tensor<fp16, [320]>(BLOBFILE(path = tensor<string, []>("@model_path/weights/weight.bin"), offset = tensor<uint64, []>(18248256)))];
            tensor<fp16, [320]> add_11_variance_0_to_fp16 = const()[name = tensor<string, []>("add_11_variance_0_to_fp16"), val = tensor<fp16, [320]>(BLOBFILE(path = tensor<string, []>("@model_path/weights/weight.bin"), offset = tensor<uint64, []>(18248960)))];
            tensor<fp16, [320]> add_11_gamma_0_to_fp16 = const()[name = tensor<string, []>("add_11_gamma_0_to_fp16"), val = tensor<fp16, [320]>(BLOBFILE(path = tensor<string, []>("@model_path/weights/weight.bin"), offset = tensor<uint64, []>(18249664)))];
            tensor<fp16, [320]> add_11_beta_0_to_fp16 = const()[name = tensor<string, []>("add_11_beta_0_to_fp16"), val = tensor<fp16, [320]>(BLOBFILE(path = tensor<string, []>("@model_path/weights/weight.bin"), offset = tensor<uint64, []>(18250368)))];
            tensor<fp16, []> add_11_epsilon_0_to_fp16 = const()[name = tensor<string, []>("add_11_epsilon_0_to_fp16"), val = tensor<fp16, []>(0x1.5p-17)];
            tensor<fp16, [2, 320, 64, 64]> add_11_cast = batch_norm(beta = add_11_beta_0_to_fp16, epsilon = add_11_epsilon_0_to_fp16, gamma = add_11_gamma_0_to_fp16, mean = add_11_mean_0_to_fp16, variance = add_11_variance_0_to_fp16, x = reshape_21_cast);
            tensor<int32, [2]> var_706 = const()[name = tensor<string, []>("op_706"), val = tensor<int32, [2]>([1, 1])];
            tensor<int32, [2]> var_708 = const()[name = tensor<string, []>("op_708"), val = tensor<int32, [2]>([1, 1])];
            tensor<string, []> hidden_states_25_pad_type_0 = const()[name = tensor<string, []>("hidden_states_25_pad_type_0"), val = tensor<string, []>("custom")];
            tensor<int32, [4]> hidden_states_25_pad_0 = const()[name = tensor<string, []>("hidden_states_25_pad_0"), val = tensor<int32, [4]>([0, 0, 0, 0])];
            tensor<fp16, [320, 320, 1, 1]> down_blocks_0_attentions_1_proj_in_weight_to_fp16 = const()[name = tensor<string, []>("down_blocks_0_attentions_1_proj_in_weight_to_fp16"), val = tensor<fp16, [320, 320, 1, 1]>(BLOBFILE(path = tensor<string, []>("@model_path/weights/weight.bin"), offset = tensor<uint64, []>(18251072)))];
            tensor<fp16, [320]> down_blocks_0_attentions_1_proj_in_bias_to_fp16 = const()[name = tensor<string, []>("down_blocks_0_attentions_1_proj_in_bias_to_fp16"), val = tensor<fp16, [320]>(BLOBFILE(path = tensor<string, []>("@model_path/weights/weight.bin"), offset = tensor<uint64, []>(18455936)))];
            tensor<fp16, [2, 320, 64, 64]> hidden_states_25_cast = conv(bias = down_blocks_0_attentions_1_proj_in_bias_to_fp16, dilations = var_708, groups = var_115, pad = hidden_states_25_pad_0, pad_type = hidden_states_25_pad_type_0, strides = var_706, weight = down_blocks_0_attentions_1_proj_in_weight_to_fp16, x = add_11_cast);
            tensor<int32, [4]> var_713 = const()[name = tensor<string, []>("op_713"), val = tensor<int32, [4]>([2, 320, 1, 4096])];
            tensor<fp16, [2, 320, 1, 4096]> inputs_7_cast = reshape(shape = var_713, x = hidden_states_25_cast);
            tensor<int32, [1]> var_723 = const()[name = tensor<string, []>("op_723"), val = tensor<int32, [1]>([1])];
            tensor<fp16, [2, 1, 1, 4096]> channels_mean_7_cast = reduce_mean(axes = var_723, keep_dims = var_110, x = inputs_7_cast);
            tensor<fp16, [2, 320, 1, 4096]> zero_mean_7_cast = sub(x = inputs_7_cast, y = channels_mean_7_cast);
            tensor<fp16, [2, 320, 1, 4096]> zero_mean_sq_7_cast = mul(x = zero_mean_7_cast, y = zero_mean_7_cast);
            tensor<int32, [1]> var_727 = const()[name = tensor<string, []>("op_727"), val = tensor<int32, [1]>([1])];
            tensor<fp16, [2, 1, 1, 4096]> var_728_cast = reduce_mean(axes = var_727, keep_dims = var_110, x = zero_mean_sq_7_cast);
            tensor<fp16, []> var_729_to_fp16 = const()[name = tensor<string, []>("op_729_to_fp16"), val = tensor<fp16, []>(0x1.5p-17)];
            tensor<fp16, [2, 1, 1, 4096]> var_730_cast = add(x = var_728_cast, y = var_729_to_fp16);
            tensor<fp16, []> denom_7_epsilon_0_to_fp16 = const()[name = tensor<string, []>("denom_7_epsilon_0_to_fp16"), val = tensor<fp16, []>(0x1p-24)];
            tensor<fp16, [2, 1, 1, 4096]> denom_7_cast = rsqrt(epsilon = denom_7_epsilon_0_to_fp16, x = var_730_cast);
            tensor<fp16, [2, 320, 1, 4096]> out_7_cast = mul(x = zero_mean_7_cast, y = denom_7_cast);
            tensor<fp16, [1, 320, 1, 1]> var_734_to_fp16 = const()[name = tensor<string, []>("op_734_to_fp16"), val = tensor<fp16, [1, 320, 1, 1]>(BLOBFILE(path = tensor<string, []>("@model_path/weights/weight.bin"), offset = tensor<uint64, []>(18456640)))];
            tensor<fp16, [2, 320, 1, 4096]> var_735_cast = add(x = out_7_cast, y = var_734_to_fp16);
            tensor<fp16, [1, 320, 1, 1]> var_737_to_fp16 = const()[name = tensor<string, []>("op_737_to_fp16"), val = tensor<fp16, [1, 320, 1, 1]>(BLOBFILE(path = tensor<string, []>("@model_path/weights/weight.bin"), offset = tensor<uint64, []>(18457344)))];
            tensor<fp16, [2, 320, 1, 4096]> hidden_states_27_cast = mul(x = var_735_cast, y = var_737_to_fp16);
            tensor<int32, [2]> var_744 = const()[name = tensor<string, []>("op_744"), val = tensor<int32, [2]>([1, 1])];
            tensor<int32, [2]> var_746 = const()[name = tensor<string, []>("op_746"), val = tensor<int32, [2]>([1, 1])];
            tensor<string, []> q_5_pad_type_0 = const()[name = tensor<string, []>("q_5_pad_type_0"), val = tensor<string, []>("custom")];
            tensor<int32, [4]> q_5_pad_0 = const()[name = tensor<string, []>("q_5_pad_0"), val = tensor<int32, [4]>([0, 0, 0, 0])];
            tensor<fp16, [320, 320, 1, 1]> down_blocks_0_attentions_1_transformer_blocks_0_attn1_to_q_weight_to_fp16 = const()[name = tensor<string, []>("down_blocks_0_attentions_1_transformer_blocks_0_attn1_to_q_weight_to_fp16"), val = tensor<fp16, [320, 320, 1, 1]>(BLOBFILE(path = tensor<string, []>("@model_path/weights/weight.bin"), offset = tensor<uint64, []>(18458048)))];
            tensor<fp16, [2, 320, 1, 4096]> q_5_cast = conv(dilations = var_746, groups = var_115, pad = q_5_pad_0, pad_type = q_5_pad_type_0, strides = var_744, weight = down_blocks_0_attentions_1_transformer_blocks_0_attn1_to_q_weight_to_fp16, x = hidden_states_27_cast);
            tensor<int32, [2]> var_750 = const()[name = tensor<string, []>("op_750"), val = tensor<int32, [2]>([1, 1])];
            tensor<int32, [2]> var_752 = const()[name = tensor<string, []>("op_752"), val = tensor<int32, [2]>([1, 1])];
            tensor<string, []> k_9_pad_type_0 = const()[name = tensor<string, []>("k_9_pad_type_0"), val = tensor<string, []>("custom")];
            tensor<int32, [4]> k_9_pad_0 = const()[name = tensor<string, []>("k_9_pad_0"), val = tensor<int32, [4]>([0, 0, 0, 0])];
            tensor<fp16, [320, 320, 1, 1]> down_blocks_0_attentions_1_transformer_blocks_0_attn1_to_k_weight_to_fp16 = const()[name = tensor<string, []>("down_blocks_0_attentions_1_transformer_blocks_0_attn1_to_k_weight_to_fp16"), val = tensor<fp16, [320, 320, 1, 1]>(BLOBFILE(path = tensor<string, []>("@model_path/weights/weight.bin"), offset = tensor<uint64, []>(18662912)))];
            tensor<fp16, [2, 320, 1, 4096]> k_9_cast = conv(dilations = var_752, groups = var_115, pad = k_9_pad_0, pad_type = k_9_pad_type_0, strides = var_750, weight = down_blocks_0_attentions_1_transformer_blocks_0_attn1_to_k_weight_to_fp16, x = hidden_states_27_cast);
            tensor<int32, [2]> var_756 = const()[name = tensor<string, []>("op_756"), val = tensor<int32, [2]>([1, 1])];
            tensor<int32, [2]> var_758 = const()[name = tensor<string, []>("op_758"), val = tensor<int32, [2]>([1, 1])];
            tensor<string, []> v_5_pad_type_0 = const()[name = tensor<string, []>("v_5_pad_type_0"), val = tensor<string, []>("custom")];
            tensor<int32, [4]> v_5_pad_0 = const()[name = tensor<string, []>("v_5_pad_0"), val = tensor<int32, [4]>([0, 0, 0, 0])];
            tensor<fp16, [320, 320, 1, 1]> down_blocks_0_attentions_1_transformer_blocks_0_attn1_to_v_weight_to_fp16 = const()[name = tensor<string, []>("down_blocks_0_attentions_1_transformer_blocks_0_attn1_to_v_weight_to_fp16"), val = tensor<fp16, [320, 320, 1, 1]>(BLOBFILE(path = tensor<string, []>("@model_path/weights/weight.bin"), offset = tensor<uint64, []>(18867776)))];
            tensor<fp16, [2, 320, 1, 4096]> v_5_cast = conv(dilations = var_758, groups = var_115, pad = v_5_pad_0, pad_type = v_5_pad_type_0, strides = var_756, weight = down_blocks_0_attentions_1_transformer_blocks_0_attn1_to_v_weight_to_fp16, x = hidden_states_27_cast);
            tensor<int32, [4]> var_762_begin_0 = const()[name = tensor<string, []>("op_762_begin_0"), val = tensor<int32, [4]>([0, 0, 0, 0])];
            tensor<int32, [4]> var_762_end_0 = const()[name = tensor<string, []>("op_762_end_0"), val = tensor<int32, [4]>([2, 40, 1, 4096])];
            tensor<bool, [4]> var_762_end_mask_0 = const()[name = tensor<string, []>("op_762_end_mask_0"), val = tensor<bool, [4]>([true, false, true, true])];
            tensor<fp16, [2, 40, 1, 4096]> var_762_cast = slice_by_index(begin = var_762_begin_0, end = var_762_end_0, end_mask = var_762_end_mask_0, x = q_5_cast);
            tensor<int32, [4]> var_766_begin_0 = const()[name = tensor<string, []>("op_766_begin_0"), val = tensor<int32, [4]>([0, 40, 0, 0])];
            tensor<int32, [4]> var_766_end_0 = const()[name = tensor<string, []>("op_766_end_0"), val = tensor<int32, [4]>([2, 80, 1, 4096])];
            tensor<bool, [4]> var_766_end_mask_0 = const()[name = tensor<string, []>("op_766_end_mask_0"), val = tensor<bool, [4]>([true, false, true, true])];
            tensor<fp16, [2, 40, 1, 4096]> var_766_cast = slice_by_index(begin = var_766_begin_0, end = var_766_end_0, end_mask = var_766_end_mask_0, x = q_5_cast);
            tensor<int32, [4]> var_770_begin_0 = const()[name = tensor<string, []>("op_770_begin_0"), val = tensor<int32, [4]>([0, 80, 0, 0])];
            tensor<int32, [4]> var_770_end_0 = const()[name = tensor<string, []>("op_770_end_0"), val = tensor<int32, [4]>([2, 120, 1, 4096])];
            tensor<bool, [4]> var_770_end_mask_0 = const()[name = tensor<string, []>("op_770_end_mask_0"), val = tensor<bool, [4]>([true, false, true, true])];
            tensor<fp16, [2, 40, 1, 4096]> var_770_cast = slice_by_index(begin = var_770_begin_0, end = var_770_end_0, end_mask = var_770_end_mask_0, x = q_5_cast);
            tensor<int32, [4]> var_774_begin_0 = const()[name = tensor<string, []>("op_774_begin_0"), val = tensor<int32, [4]>([0, 120, 0, 0])];
            tensor<int32, [4]> var_774_end_0 = const()[name = tensor<string, []>("op_774_end_0"), val = tensor<int32, [4]>([2, 160, 1, 4096])];
            tensor<bool, [4]> var_774_end_mask_0 = const()[name = tensor<string, []>("op_774_end_mask_0"), val = tensor<bool, [4]>([true, false, true, true])];
            tensor<fp16, [2, 40, 1, 4096]> var_774_cast = slice_by_index(begin = var_774_begin_0, end = var_774_end_0, end_mask = var_774_end_mask_0, x = q_5_cast);
            tensor<int32, [4]> var_778_begin_0 = const()[name = tensor<string, []>("op_778_begin_0"), val = tensor<int32, [4]>([0, 160, 0, 0])];
            tensor<int32, [4]> var_778_end_0 = const()[name = tensor<string, []>("op_778_end_0"), val = tensor<int32, [4]>([2, 200, 1, 4096])];
            tensor<bool, [4]> var_778_end_mask_0 = const()[name = tensor<string, []>("op_778_end_mask_0"), val = tensor<bool, [4]>([true, false, true, true])];
            tensor<fp16, [2, 40, 1, 4096]> var_778_cast = slice_by_index(begin = var_778_begin_0, end = var_778_end_0, end_mask = var_778_end_mask_0, x = q_5_cast);
            tensor<int32, [4]> var_782_begin_0 = const()[name = tensor<string, []>("op_782_begin_0"), val = tensor<int32, [4]>([0, 200, 0, 0])];
            tensor<int32, [4]> var_782_end_0 = const()[name = tensor<string, []>("op_782_end_0"), val = tensor<int32, [4]>([2, 240, 1, 4096])];
            tensor<bool, [4]> var_782_end_mask_0 = const()[name = tensor<string, []>("op_782_end_mask_0"), val = tensor<bool, [4]>([true, false, true, true])];
            tensor<fp16, [2, 40, 1, 4096]> var_782_cast = slice_by_index(begin = var_782_begin_0, end = var_782_end_0, end_mask = var_782_end_mask_0, x = q_5_cast);
            tensor<int32, [4]> var_786_begin_0 = const()[name = tensor<string, []>("op_786_begin_0"), val = tensor<int32, [4]>([0, 240, 0, 0])];
            tensor<int32, [4]> var_786_end_0 = const()[name = tensor<string, []>("op_786_end_0"), val = tensor<int32, [4]>([2, 280, 1, 4096])];
            tensor<bool, [4]> var_786_end_mask_0 = const()[name = tensor<string, []>("op_786_end_mask_0"), val = tensor<bool, [4]>([true, false, true, true])];
            tensor<fp16, [2, 40, 1, 4096]> var_786_cast = slice_by_index(begin = var_786_begin_0, end = var_786_end_0, end_mask = var_786_end_mask_0, x = q_5_cast);
            tensor<int32, [4]> var_790_begin_0 = const()[name = tensor<string, []>("op_790_begin_0"), val = tensor<int32, [4]>([0, 280, 0, 0])];
            tensor<int32, [4]> var_790_end_0 = const()[name = tensor<string, []>("op_790_end_0"), val = tensor<int32, [4]>([2, 320, 1, 4096])];
            tensor<bool, [4]> var_790_end_mask_0 = const()[name = tensor<string, []>("op_790_end_mask_0"), val = tensor<bool, [4]>([true, false, true, true])];
            tensor<fp16, [2, 40, 1, 4096]> var_790_cast = slice_by_index(begin = var_790_begin_0, end = var_790_end_0, end_mask = var_790_end_mask_0, x = q_5_cast);
            tensor<int32, [4]> k_11_perm_0 = const()[name = tensor<string, []>("k_11_perm_0"), val = tensor<int32, [4]>([0, 3, 2, 1])];
            tensor<int32, [4]> var_797_begin_0 = const()[name = tensor<string, []>("op_797_begin_0"), val = tensor<int32, [4]>([0, 0, 0, 0])];
            tensor<int32, [4]> var_797_end_0 = const()[name = tensor<string, []>("op_797_end_0"), val = tensor<int32, [4]>([2, 4096, 1, 40])];
            tensor<bool, [4]> var_797_end_mask_0 = const()[name = tensor<string, []>("op_797_end_mask_0"), val = tensor<bool, [4]>([true, true, true, false])];
            tensor<fp16, [2, 4096, 1, 320]> transpose_75 = transpose(perm = k_11_perm_0, x = k_9_cast);
            tensor<fp16, [2, 4096, 1, 40]> var_797_cast = slice_by_index(begin = var_797_begin_0, end = var_797_end_0, end_mask = var_797_end_mask_0, x = transpose_75);
            tensor<int32, [4]> var_801_begin_0 = const()[name = tensor<string, []>("op_801_begin_0"), val = tensor<int32, [4]>([0, 0, 0, 40])];
            tensor<int32, [4]> var_801_end_0 = const()[name = tensor<string, []>("op_801_end_0"), val = tensor<int32, [4]>([2, 4096, 1, 80])];
            tensor<bool, [4]> var_801_end_mask_0 = const()[name = tensor<string, []>("op_801_end_mask_0"), val = tensor<bool, [4]>([true, true, true, false])];
            tensor<fp16, [2, 4096, 1, 40]> var_801_cast = slice_by_index(begin = var_801_begin_0, end = var_801_end_0, end_mask = var_801_end_mask_0, x = transpose_75);
            tensor<int32, [4]> var_805_begin_0 = const()[name = tensor<string, []>("op_805_begin_0"), val = tensor<int32, [4]>([0, 0, 0, 80])];
            tensor<int32, [4]> var_805_end_0 = const()[name = tensor<string, []>("op_805_end_0"), val = tensor<int32, [4]>([2, 4096, 1, 120])];
            tensor<bool, [4]> var_805_end_mask_0 = const()[name = tensor<string, []>("op_805_end_mask_0"), val = tensor<bool, [4]>([true, true, true, false])];
            tensor<fp16, [2, 4096, 1, 40]> var_805_cast = slice_by_index(begin = var_805_begin_0, end = var_805_end_0, end_mask = var_805_end_mask_0, x = transpose_75);
            tensor<int32, [4]> var_809_begin_0 = const()[name = tensor<string, []>("op_809_begin_0"), val = tensor<int32, [4]>([0, 0, 0, 120])];
            tensor<int32, [4]> var_809_end_0 = const()[name = tensor<string, []>("op_809_end_0"), val = tensor<int32, [4]>([2, 4096, 1, 160])];
            tensor<bool, [4]> var_809_end_mask_0 = const()[name = tensor<string, []>("op_809_end_mask_0"), val = tensor<bool, [4]>([true, true, true, false])];
            tensor<fp16, [2, 4096, 1, 40]> var_809_cast = slice_by_index(begin = var_809_begin_0, end = var_809_end_0, end_mask = var_809_end_mask_0, x = transpose_75);
            tensor<int32, [4]> var_813_begin_0 = const()[name = tensor<string, []>("op_813_begin_0"), val = tensor<int32, [4]>([0, 0, 0, 160])];
            tensor<int32, [4]> var_813_end_0 = const()[name = tensor<string, []>("op_813_end_0"), val = tensor<int32, [4]>([2, 4096, 1, 200])];
            tensor<bool, [4]> var_813_end_mask_0 = const()[name = tensor<string, []>("op_813_end_mask_0"), val = tensor<bool, [4]>([true, true, true, false])];
            tensor<fp16, [2, 4096, 1, 40]> var_813_cast = slice_by_index(begin = var_813_begin_0, end = var_813_end_0, end_mask = var_813_end_mask_0, x = transpose_75);
            tensor<int32, [4]> var_817_begin_0 = const()[name = tensor<string, []>("op_817_begin_0"), val = tensor<int32, [4]>([0, 0, 0, 200])];
            tensor<int32, [4]> var_817_end_0 = const()[name = tensor<string, []>("op_817_end_0"), val = tensor<int32, [4]>([2, 4096, 1, 240])];
            tensor<bool, [4]> var_817_end_mask_0 = const()[name = tensor<string, []>("op_817_end_mask_0"), val = tensor<bool, [4]>([true, true, true, false])];
            tensor<fp16, [2, 4096, 1, 40]> var_817_cast = slice_by_index(begin = var_817_begin_0, end = var_817_end_0, end_mask = var_817_end_mask_0, x = transpose_75);
            tensor<int32, [4]> var_821_begin_0 = const()[name = tensor<string, []>("op_821_begin_0"), val = tensor<int32, [4]>([0, 0, 0, 240])];
            tensor<int32, [4]> var_821_end_0 = const()[name = tensor<string, []>("op_821_end_0"), val = tensor<int32, [4]>([2, 4096, 1, 280])];
            tensor<bool, [4]> var_821_end_mask_0 = const()[name = tensor<string, []>("op_821_end_mask_0"), val = tensor<bool, [4]>([true, true, true, false])];
            tensor<fp16, [2, 4096, 1, 40]> var_821_cast = slice_by_index(begin = var_821_begin_0, end = var_821_end_0, end_mask = var_821_end_mask_0, x = transpose_75);
            tensor<int32, [4]> var_825_begin_0 = const()[name = tensor<string, []>("op_825_begin_0"), val = tensor<int32, [4]>([0, 0, 0, 280])];
            tensor<int32, [4]> var_825_end_0 = const()[name = tensor<string, []>("op_825_end_0"), val = tensor<int32, [4]>([2, 4096, 1, 320])];
            tensor<bool, [4]> var_825_end_mask_0 = const()[name = tensor<string, []>("op_825_end_mask_0"), val = tensor<bool, [4]>([true, true, true, false])];
            tensor<fp16, [2, 4096, 1, 40]> var_825_cast = slice_by_index(begin = var_825_begin_0, end = var_825_end_0, end_mask = var_825_end_mask_0, x = transpose_75);
            tensor<int32, [4]> var_827_begin_0 = const()[name = tensor<string, []>("op_827_begin_0"), val = tensor<int32, [4]>([0, 0, 0, 0])];
            tensor<int32, [4]> var_827_end_0 = const()[name = tensor<string, []>("op_827_end_0"), val = tensor<int32, [4]>([2, 40, 1, 4096])];
            tensor<bool, [4]> var_827_end_mask_0 = const()[name = tensor<string, []>("op_827_end_mask_0"), val = tensor<bool, [4]>([true, false, true, true])];
            tensor<fp16, [2, 40, 1, 4096]> var_827_cast = slice_by_index(begin = var_827_begin_0, end = var_827_end_0, end_mask = var_827_end_mask_0, x = v_5_cast);
            tensor<int32, [4]> var_831_begin_0 = const()[name = tensor<string, []>("op_831_begin_0"), val = tensor<int32, [4]>([0, 40, 0, 0])];
            tensor<int32, [4]> var_831_end_0 = const()[name = tensor<string, []>("op_831_end_0"), val = tensor<int32, [4]>([2, 80, 1, 4096])];
            tensor<bool, [4]> var_831_end_mask_0 = const()[name = tensor<string, []>("op_831_end_mask_0"), val = tensor<bool, [4]>([true, false, true, true])];
            tensor<fp16, [2, 40, 1, 4096]> var_831_cast = slice_by_index(begin = var_831_begin_0, end = var_831_end_0, end_mask = var_831_end_mask_0, x = v_5_cast);
            tensor<int32, [4]> var_835_begin_0 = const()[name = tensor<string, []>("op_835_begin_0"), val = tensor<int32, [4]>([0, 80, 0, 0])];
            tensor<int32, [4]> var_835_end_0 = const()[name = tensor<string, []>("op_835_end_0"), val = tensor<int32, [4]>([2, 120, 1, 4096])];
            tensor<bool, [4]> var_835_end_mask_0 = const()[name = tensor<string, []>("op_835_end_mask_0"), val = tensor<bool, [4]>([true, false, true, true])];
            tensor<fp16, [2, 40, 1, 4096]> var_835_cast = slice_by_index(begin = var_835_begin_0, end = var_835_end_0, end_mask = var_835_end_mask_0, x = v_5_cast);
            tensor<int32, [4]> var_839_begin_0 = const()[name = tensor<string, []>("op_839_begin_0"), val = tensor<int32, [4]>([0, 120, 0, 0])];
            tensor<int32, [4]> var_839_end_0 = const()[name = tensor<string, []>("op_839_end_0"), val = tensor<int32, [4]>([2, 160, 1, 4096])];
            tensor<bool, [4]> var_839_end_mask_0 = const()[name = tensor<string, []>("op_839_end_mask_0"), val = tensor<bool, [4]>([true, false, true, true])];
            tensor<fp16, [2, 40, 1, 4096]> var_839_cast = slice_by_index(begin = var_839_begin_0, end = var_839_end_0, end_mask = var_839_end_mask_0, x = v_5_cast);
            tensor<int32, [4]> var_843_begin_0 = const()[name = tensor<string, []>("op_843_begin_0"), val = tensor<int32, [4]>([0, 160, 0, 0])];
            tensor<int32, [4]> var_843_end_0 = const()[name = tensor<string, []>("op_843_end_0"), val = tensor<int32, [4]>([2, 200, 1, 4096])];
            tensor<bool, [4]> var_843_end_mask_0 = const()[name = tensor<string, []>("op_843_end_mask_0"), val = tensor<bool, [4]>([true, false, true, true])];
            tensor<fp16, [2, 40, 1, 4096]> var_843_cast = slice_by_index(begin = var_843_begin_0, end = var_843_end_0, end_mask = var_843_end_mask_0, x = v_5_cast);
            tensor<int32, [4]> var_847_begin_0 = const()[name = tensor<string, []>("op_847_begin_0"), val = tensor<int32, [4]>([0, 200, 0, 0])];
            tensor<int32, [4]> var_847_end_0 = const()[name = tensor<string, []>("op_847_end_0"), val = tensor<int32, [4]>([2, 240, 1, 4096])];
            tensor<bool, [4]> var_847_end_mask_0 = const()[name = tensor<string, []>("op_847_end_mask_0"), val = tensor<bool, [4]>([true, false, true, true])];
            tensor<fp16, [2, 40, 1, 4096]> var_847_cast = slice_by_index(begin = var_847_begin_0, end = var_847_end_0, end_mask = var_847_end_mask_0, x = v_5_cast);
            tensor<int32, [4]> var_851_begin_0 = const()[name = tensor<string, []>("op_851_begin_0"), val = tensor<int32, [4]>([0, 240, 0, 0])];
            tensor<int32, [4]> var_851_end_0 = const()[name = tensor<string, []>("op_851_end_0"), val = tensor<int32, [4]>([2, 280, 1, 4096])];
            tensor<bool, [4]> var_851_end_mask_0 = const()[name = tensor<string, []>("op_851_end_mask_0"), val = tensor<bool, [4]>([true, false, true, true])];
            tensor<fp16, [2, 40, 1, 4096]> var_851_cast = slice_by_index(begin = var_851_begin_0, end = var_851_end_0, end_mask = var_851_end_mask_0, x = v_5_cast);
            tensor<int32, [4]> var_855_begin_0 = const()[name = tensor<string, []>("op_855_begin_0"), val = tensor<int32, [4]>([0, 280, 0, 0])];
            tensor<int32, [4]> var_855_end_0 = const()[name = tensor<string, []>("op_855_end_0"), val = tensor<int32, [4]>([2, 320, 1, 4096])];
            tensor<bool, [4]> var_855_end_mask_0 = const()[name = tensor<string, []>("op_855_end_mask_0"), val = tensor<bool, [4]>([true, false, true, true])];
            tensor<fp16, [2, 40, 1, 4096]> var_855_cast = slice_by_index(begin = var_855_begin_0, end = var_855_end_0, end_mask = var_855_end_mask_0, x = v_5_cast);
            tensor<string, []> var_859_equation_0 = const()[name = tensor<string, []>("op_859_equation_0"), val = tensor<string, []>("bkhc,bchq->bkhq")];
            tensor<fp16, [2, 4096, 1, 4096]> var_859_cast = einsum(equation = var_859_equation_0, values = (var_797_cast, var_762_cast));
            tensor<fp16, []> var_860_to_fp16 = const()[name = tensor<string, []>("op_860_to_fp16"), val = tensor<fp16, []>(0x1.43cp-3)];
            tensor<fp16, [2, 4096, 1, 4096]> aw_33_cast = mul(x = var_859_cast, y = var_860_to_fp16);
            tensor<string, []> var_863_equation_0 = const()[name = tensor<string, []>("op_863_equation_0"), val = tensor<string, []>("bkhc,bchq->bkhq")];
            tensor<fp16, [2, 4096, 1, 4096]> var_863_cast = einsum(equation = var_863_equation_0, values = (var_801_cast, var_766_cast));
            tensor<fp16, []> var_864_to_fp16 = const()[name = tensor<string, []>("op_864_to_fp16"), val = tensor<fp16, []>(0x1.43cp-3)];
            tensor<fp16, [2, 4096, 1, 4096]> aw_35_cast = mul(x = var_863_cast, y = var_864_to_fp16);
            tensor<string, []> var_867_equation_0 = const()[name = tensor<string, []>("op_867_equation_0"), val = tensor<string, []>("bkhc,bchq->bkhq")];
            tensor<fp16, [2, 4096, 1, 4096]> var_867_cast = einsum(equation = var_867_equation_0, values = (var_805_cast, var_770_cast));
            tensor<fp16, []> var_868_to_fp16 = const()[name = tensor<string, []>("op_868_to_fp16"), val = tensor<fp16, []>(0x1.43cp-3)];
            tensor<fp16, [2, 4096, 1, 4096]> aw_37_cast = mul(x = var_867_cast, y = var_868_to_fp16);
            tensor<string, []> var_871_equation_0 = const()[name = tensor<string, []>("op_871_equation_0"), val = tensor<string, []>("bkhc,bchq->bkhq")];
            tensor<fp16, [2, 4096, 1, 4096]> var_871_cast = einsum(equation = var_871_equation_0, values = (var_809_cast, var_774_cast));
            tensor<fp16, []> var_872_to_fp16 = const()[name = tensor<string, []>("op_872_to_fp16"), val = tensor<fp16, []>(0x1.43cp-3)];
            tensor<fp16, [2, 4096, 1, 4096]> aw_39_cast = mul(x = var_871_cast, y = var_872_to_fp16);
            tensor<string, []> var_875_equation_0 = const()[name = tensor<string, []>("op_875_equation_0"), val = tensor<string, []>("bkhc,bchq->bkhq")];
            tensor<fp16, [2, 4096, 1, 4096]> var_875_cast = einsum(equation = var_875_equation_0, values = (var_813_cast, var_778_cast));
            tensor<fp16, []> var_876_to_fp16 = const()[name = tensor<string, []>("op_876_to_fp16"), val = tensor<fp16, []>(0x1.43cp-3)];
            tensor<fp16, [2, 4096, 1, 4096]> aw_41_cast = mul(x = var_875_cast, y = var_876_to_fp16);
            tensor<string, []> var_879_equation_0 = const()[name = tensor<string, []>("op_879_equation_0"), val = tensor<string, []>("bkhc,bchq->bkhq")];
            tensor<fp16, [2, 4096, 1, 4096]> var_879_cast = einsum(equation = var_879_equation_0, values = (var_817_cast, var_782_cast));
            tensor<fp16, []> var_880_to_fp16 = const()[name = tensor<string, []>("op_880_to_fp16"), val = tensor<fp16, []>(0x1.43cp-3)];
            tensor<fp16, [2, 4096, 1, 4096]> aw_43_cast = mul(x = var_879_cast, y = var_880_to_fp16);
            tensor<string, []> var_883_equation_0 = const()[name = tensor<string, []>("op_883_equation_0"), val = tensor<string, []>("bkhc,bchq->bkhq")];
            tensor<fp16, [2, 4096, 1, 4096]> var_883_cast = einsum(equation = var_883_equation_0, values = (var_821_cast, var_786_cast));
            tensor<fp16, []> var_884_to_fp16 = const()[name = tensor<string, []>("op_884_to_fp16"), val = tensor<fp16, []>(0x1.43cp-3)];
            tensor<fp16, [2, 4096, 1, 4096]> aw_45_cast = mul(x = var_883_cast, y = var_884_to_fp16);
            tensor<string, []> var_887_equation_0 = const()[name = tensor<string, []>("op_887_equation_0"), val = tensor<string, []>("bkhc,bchq->bkhq")];
            tensor<fp16, [2, 4096, 1, 4096]> var_887_cast = einsum(equation = var_887_equation_0, values = (var_825_cast, var_790_cast));
            tensor<fp16, []> var_888_to_fp16 = const()[name = tensor<string, []>("op_888_to_fp16"), val = tensor<fp16, []>(0x1.43cp-3)];
            tensor<fp16, [2, 4096, 1, 4096]> aw_47_cast = mul(x = var_887_cast, y = var_888_to_fp16);
            tensor<fp16, [2, 4096, 1, 4096]> var_890_cast = softmax(axis = var_115, x = aw_33_cast);
            tensor<fp16, [2, 4096, 1, 4096]> var_891_cast = softmax(axis = var_115, x = aw_35_cast);
            tensor<fp16, [2, 4096, 1, 4096]> var_892_cast = softmax(axis = var_115, x = aw_37_cast);
            tensor<fp16, [2, 4096, 1, 4096]> var_893_cast = softmax(axis = var_115, x = aw_39_cast);
            tensor<fp16, [2, 4096, 1, 4096]> var_894_cast = softmax(axis = var_115, x = aw_41_cast);
            tensor<fp16, [2, 4096, 1, 4096]> var_895_cast = softmax(axis = var_115, x = aw_43_cast);
            tensor<fp16, [2, 4096, 1, 4096]> var_896_cast = softmax(axis = var_115, x = aw_45_cast);
            tensor<fp16, [2, 4096, 1, 4096]> var_897_cast = softmax(axis = var_115, x = aw_47_cast);
            tensor<string, []> var_899_equation_0 = const()[name = tensor<string, []>("op_899_equation_0"), val = tensor<string, []>("bchk,bkhq->bchq")];
            tensor<fp16, [2, 40, 1, 4096]> var_899_cast = einsum(equation = var_899_equation_0, values = (var_827_cast, var_890_cast));
            tensor<string, []> var_901_equation_0 = const()[name = tensor<string, []>("op_901_equation_0"), val = tensor<string, []>("bchk,bkhq->bchq")];
            tensor<fp16, [2, 40, 1, 4096]> var_901_cast = einsum(equation = var_901_equation_0, values = (var_831_cast, var_891_cast));
            tensor<string, []> var_903_equation_0 = const()[name = tensor<string, []>("op_903_equation_0"), val = tensor<string, []>("bchk,bkhq->bchq")];
            tensor<fp16, [2, 40, 1, 4096]> var_903_cast = einsum(equation = var_903_equation_0, values = (var_835_cast, var_892_cast));
            tensor<string, []> var_905_equation_0 = const()[name = tensor<string, []>("op_905_equation_0"), val = tensor<string, []>("bchk,bkhq->bchq")];
            tensor<fp16, [2, 40, 1, 4096]> var_905_cast = einsum(equation = var_905_equation_0, values = (var_839_cast, var_893_cast));
            tensor<string, []> var_907_equation_0 = const()[name = tensor<string, []>("op_907_equation_0"), val = tensor<string, []>("bchk,bkhq->bchq")];
            tensor<fp16, [2, 40, 1, 4096]> var_907_cast = einsum(equation = var_907_equation_0, values = (var_843_cast, var_894_cast));
            tensor<string, []> var_909_equation_0 = const()[name = tensor<string, []>("op_909_equation_0"), val = tensor<string, []>("bchk,bkhq->bchq")];
            tensor<fp16, [2, 40, 1, 4096]> var_909_cast = einsum(equation = var_909_equation_0, values = (var_847_cast, var_895_cast));
            tensor<string, []> var_911_equation_0 = const()[name = tensor<string, []>("op_911_equation_0"), val = tensor<string, []>("bchk,bkhq->bchq")];
            tensor<fp16, [2, 40, 1, 4096]> var_911_cast = einsum(equation = var_911_equation_0, values = (var_851_cast, var_896_cast));
            tensor<string, []> var_913_equation_0 = const()[name = tensor<string, []>("op_913_equation_0"), val = tensor<string, []>("bchk,bkhq->bchq")];
            tensor<fp16, [2, 40, 1, 4096]> var_913_cast = einsum(equation = var_913_equation_0, values = (var_855_cast, var_897_cast));
            tensor<bool, []> input_51_interleave_0 = const()[name = tensor<string, []>("input_51_interleave_0"), val = tensor<bool, []>(false)];
            tensor<fp16, [2, 320, 1, 4096]> input_51_cast = concat(axis = var_115, interleave = input_51_interleave_0, values = (var_899_cast, var_901_cast, var_903_cast, var_905_cast, var_907_cast, var_909_cast, var_911_cast, var_913_cast));
            tensor<int32, [2]> var_919 = const()[name = tensor<string, []>("op_919"), val = tensor<int32, [2]>([1, 1])];
            tensor<int32, [2]> var_921 = const()[name = tensor<string, []>("op_921"), val = tensor<int32, [2]>([1, 1])];
            tensor<string, []> var_923_pad_type_0 = const()[name = tensor<string, []>("op_923_pad_type_0"), val = tensor<string, []>("custom")];
            tensor<int32, [4]> var_923_pad_0 = const()[name = tensor<string, []>("op_923_pad_0"), val = tensor<int32, [4]>([0, 0, 0, 0])];
            tensor<fp16, [320, 320, 1, 1]> down_blocks_0_attentions_1_transformer_blocks_0_attn1_to_out_0_weight_to_fp16 = const()[name = tensor<string, []>("down_blocks_0_attentions_1_transformer_blocks_0_attn1_to_out_0_weight_to_fp16"), val = tensor<fp16, [320, 320, 1, 1]>(BLOBFILE(path = tensor<string, []>("@model_path/weights/weight.bin"), offset = tensor<uint64, []>(19072640)))];
            tensor<fp16, [320]> down_blocks_0_attentions_1_transformer_blocks_0_attn1_to_out_0_bias_to_fp16 = const()[name = tensor<string, []>("down_blocks_0_attentions_1_transformer_blocks_0_attn1_to_out_0_bias_to_fp16"), val = tensor<fp16, [320]>(BLOBFILE(path = tensor<string, []>("@model_path/weights/weight.bin"), offset = tensor<uint64, []>(19277504)))];
            tensor<fp16, [2, 320, 1, 4096]> var_923_cast = conv(bias = down_blocks_0_attentions_1_transformer_blocks_0_attn1_to_out_0_bias_to_fp16, dilations = var_921, groups = var_115, pad = var_923_pad_0, pad_type = var_923_pad_type_0, strides = var_919, weight = down_blocks_0_attentions_1_transformer_blocks_0_attn1_to_out_0_weight_to_fp16, x = input_51_cast);
            tensor<fp16, [2, 320, 1, 4096]> inputs_9_cast = add(x = var_923_cast, y = inputs_7_cast);
            tensor<int32, [1]> var_927 = const()[name = tensor<string, []>("op_927"), val = tensor<int32, [1]>([1])];
            tensor<fp16, [2, 1, 1, 4096]> channels_mean_9_cast = reduce_mean(axes = var_927, keep_dims = var_110, x = inputs_9_cast);
            tensor<fp16, [2, 320, 1, 4096]> zero_mean_9_cast = sub(x = inputs_9_cast, y = channels_mean_9_cast);
            tensor<fp16, [2, 320, 1, 4096]> zero_mean_sq_9_cast = mul(x = zero_mean_9_cast, y = zero_mean_9_cast);
            tensor<int32, [1]> var_931 = const()[name = tensor<string, []>("op_931"), val = tensor<int32, [1]>([1])];
            tensor<fp16, [2, 1, 1, 4096]> var_932_cast = reduce_mean(axes = var_931, keep_dims = var_110, x = zero_mean_sq_9_cast);
            tensor<fp16, []> var_933_to_fp16 = const()[name = tensor<string, []>("op_933_to_fp16"), val = tensor<fp16, []>(0x1.5p-17)];
            tensor<fp16, [2, 1, 1, 4096]> var_934_cast = add(x = var_932_cast, y = var_933_to_fp16);
            tensor<fp16, []> denom_9_epsilon_0_to_fp16 = const()[name = tensor<string, []>("denom_9_epsilon_0_to_fp16"), val = tensor<fp16, []>(0x1p-24)];
            tensor<fp16, [2, 1, 1, 4096]> denom_9_cast = rsqrt(epsilon = denom_9_epsilon_0_to_fp16, x = var_934_cast);
            tensor<fp16, [2, 320, 1, 4096]> out_9_cast = mul(x = zero_mean_9_cast, y = denom_9_cast);
            tensor<fp16, [1, 320, 1, 1]> var_938_to_fp16 = const()[name = tensor<string, []>("op_938_to_fp16"), val = tensor<fp16, [1, 320, 1, 1]>(BLOBFILE(path = tensor<string, []>("@model_path/weights/weight.bin"), offset = tensor<uint64, []>(19278208)))];
            tensor<fp16, [2, 320, 1, 4096]> var_939_cast = add(x = out_9_cast, y = var_938_to_fp16);
            tensor<fp16, [1, 320, 1, 1]> var_941_to_fp16 = const()[name = tensor<string, []>("op_941_to_fp16"), val = tensor<fp16, [1, 320, 1, 1]>(BLOBFILE(path = tensor<string, []>("@model_path/weights/weight.bin"), offset = tensor<uint64, []>(19278912)))];
            tensor<fp16, [2, 320, 1, 4096]> hidden_states_29_cast = mul(x = var_939_cast, y = var_941_to_fp16);
            tensor<int32, [2]> var_948 = const()[name = tensor<string, []>("op_948"), val = tensor<int32, [2]>([1, 1])];
            tensor<int32, [2]> var_950 = const()[name = tensor<string, []>("op_950"), val = tensor<int32, [2]>([1, 1])];
            tensor<string, []> q_7_pad_type_0 = const()[name = tensor<string, []>("q_7_pad_type_0"), val = tensor<string, []>("custom")];
            tensor<int32, [4]> q_7_pad_0 = const()[name = tensor<string, []>("q_7_pad_0"), val = tensor<int32, [4]>([0, 0, 0, 0])];
            tensor<fp16, [320, 320, 1, 1]> down_blocks_0_attentions_1_transformer_blocks_0_attn2_to_q_weight_to_fp16 = const()[name = tensor<string, []>("down_blocks_0_attentions_1_transformer_blocks_0_attn2_to_q_weight_to_fp16"), val = tensor<fp16, [320, 320, 1, 1]>(BLOBFILE(path = tensor<string, []>("@model_path/weights/weight.bin"), offset = tensor<uint64, []>(19279616)))];
            tensor<fp16, [2, 320, 1, 4096]> q_7_cast = conv(dilations = var_950, groups = var_115, pad = q_7_pad_0, pad_type = q_7_pad_type_0, strides = var_948, weight = down_blocks_0_attentions_1_transformer_blocks_0_attn2_to_q_weight_to_fp16, x = hidden_states_29_cast);
            tensor<int32, [2]> var_954 = const()[name = tensor<string, []>("op_954"), val = tensor<int32, [2]>([1, 1])];
            tensor<int32, [2]> var_956 = const()[name = tensor<string, []>("op_956"), val = tensor<int32, [2]>([1, 1])];
            tensor<string, []> k_13_pad_type_0 = const()[name = tensor<string, []>("k_13_pad_type_0"), val = tensor<string, []>("custom")];
            tensor<int32, [4]> k_13_pad_0 = const()[name = tensor<string, []>("k_13_pad_0"), val = tensor<int32, [4]>([0, 0, 0, 0])];
            tensor<fp16, [320, 768, 1, 1]> down_blocks_0_attentions_1_transformer_blocks_0_attn2_to_k_weight_to_fp16 = const()[name = tensor<string, []>("down_blocks_0_attentions_1_transformer_blocks_0_attn2_to_k_weight_to_fp16"), val = tensor<fp16, [320, 768, 1, 1]>(BLOBFILE(path = tensor<string, []>("@model_path/weights/weight.bin"), offset = tensor<uint64, []>(19484480)))];
            tensor<fp16, [2, 320, 1, 77]> k_13_cast = conv(dilations = var_956, groups = var_115, pad = k_13_pad_0, pad_type = k_13_pad_type_0, strides = var_954, weight = down_blocks_0_attentions_1_transformer_blocks_0_attn2_to_k_weight_to_fp16, x = encoder_hidden_states);
            tensor<int32, [2]> var_960 = const()[name = tensor<string, []>("op_960"), val = tensor<int32, [2]>([1, 1])];
            tensor<int32, [2]> var_962 = const()[name = tensor<string, []>("op_962"), val = tensor<int32, [2]>([1, 1])];
            tensor<string, []> v_7_pad_type_0 = const()[name = tensor<string, []>("v_7_pad_type_0"), val = tensor<string, []>("custom")];
            tensor<int32, [4]> v_7_pad_0 = const()[name = tensor<string, []>("v_7_pad_0"), val = tensor<int32, [4]>([0, 0, 0, 0])];
            tensor<fp16, [320, 768, 1, 1]> down_blocks_0_attentions_1_transformer_blocks_0_attn2_to_v_weight_to_fp16 = const()[name = tensor<string, []>("down_blocks_0_attentions_1_transformer_blocks_0_attn2_to_v_weight_to_fp16"), val = tensor<fp16, [320, 768, 1, 1]>(BLOBFILE(path = tensor<string, []>("@model_path/weights/weight.bin"), offset = tensor<uint64, []>(19976064)))];
            tensor<fp16, [2, 320, 1, 77]> v_7_cast = conv(dilations = var_962, groups = var_115, pad = v_7_pad_0, pad_type = v_7_pad_type_0, strides = var_960, weight = down_blocks_0_attentions_1_transformer_blocks_0_attn2_to_v_weight_to_fp16, x = encoder_hidden_states);
            tensor<int32, [4]> var_966_begin_0 = const()[name = tensor<string, []>("op_966_begin_0"), val = tensor<int32, [4]>([0, 0, 0, 0])];
            tensor<int32, [4]> var_966_end_0 = const()[name = tensor<string, []>("op_966_end_0"), val = tensor<int32, [4]>([2, 40, 1, 4096])];
            tensor<bool, [4]> var_966_end_mask_0 = const()[name = tensor<string, []>("op_966_end_mask_0"), val = tensor<bool, [4]>([true, false, true, true])];
            tensor<fp16, [2, 40, 1, 4096]> var_966_cast = slice_by_index(begin = var_966_begin_0, end = var_966_end_0, end_mask = var_966_end_mask_0, x = q_7_cast);
            tensor<int32, [4]> var_970_begin_0 = const()[name = tensor<string, []>("op_970_begin_0"), val = tensor<int32, [4]>([0, 40, 0, 0])];
            tensor<int32, [4]> var_970_end_0 = const()[name = tensor<string, []>("op_970_end_0"), val = tensor<int32, [4]>([2, 80, 1, 4096])];
            tensor<bool, [4]> var_970_end_mask_0 = const()[name = tensor<string, []>("op_970_end_mask_0"), val = tensor<bool, [4]>([true, false, true, true])];
            tensor<fp16, [2, 40, 1, 4096]> var_970_cast = slice_by_index(begin = var_970_begin_0, end = var_970_end_0, end_mask = var_970_end_mask_0, x = q_7_cast);
            tensor<int32, [4]> var_974_begin_0 = const()[name = tensor<string, []>("op_974_begin_0"), val = tensor<int32, [4]>([0, 80, 0, 0])];
            tensor<int32, [4]> var_974_end_0 = const()[name = tensor<string, []>("op_974_end_0"), val = tensor<int32, [4]>([2, 120, 1, 4096])];
            tensor<bool, [4]> var_974_end_mask_0 = const()[name = tensor<string, []>("op_974_end_mask_0"), val = tensor<bool, [4]>([true, false, true, true])];
            tensor<fp16, [2, 40, 1, 4096]> var_974_cast = slice_by_index(begin = var_974_begin_0, end = var_974_end_0, end_mask = var_974_end_mask_0, x = q_7_cast);
            tensor<int32, [4]> var_978_begin_0 = const()[name = tensor<string, []>("op_978_begin_0"), val = tensor<int32, [4]>([0, 120, 0, 0])];
            tensor<int32, [4]> var_978_end_0 = const()[name = tensor<string, []>("op_978_end_0"), val = tensor<int32, [4]>([2, 160, 1, 4096])];
            tensor<bool, [4]> var_978_end_mask_0 = const()[name = tensor<string, []>("op_978_end_mask_0"), val = tensor<bool, [4]>([true, false, true, true])];
            tensor<fp16, [2, 40, 1, 4096]> var_978_cast = slice_by_index(begin = var_978_begin_0, end = var_978_end_0, end_mask = var_978_end_mask_0, x = q_7_cast);
            tensor<int32, [4]> var_982_begin_0 = const()[name = tensor<string, []>("op_982_begin_0"), val = tensor<int32, [4]>([0, 160, 0, 0])];
            tensor<int32, [4]> var_982_end_0 = const()[name = tensor<string, []>("op_982_end_0"), val = tensor<int32, [4]>([2, 200, 1, 4096])];
            tensor<bool, [4]> var_982_end_mask_0 = const()[name = tensor<string, []>("op_982_end_mask_0"), val = tensor<bool, [4]>([true, false, true, true])];
            tensor<fp16, [2, 40, 1, 4096]> var_982_cast = slice_by_index(begin = var_982_begin_0, end = var_982_end_0, end_mask = var_982_end_mask_0, x = q_7_cast);
            tensor<int32, [4]> var_986_begin_0 = const()[name = tensor<string, []>("op_986_begin_0"), val = tensor<int32, [4]>([0, 200, 0, 0])];
            tensor<int32, [4]> var_986_end_0 = const()[name = tensor<string, []>("op_986_end_0"), val = tensor<int32, [4]>([2, 240, 1, 4096])];
            tensor<bool, [4]> var_986_end_mask_0 = const()[name = tensor<string, []>("op_986_end_mask_0"), val = tensor<bool, [4]>([true, false, true, true])];
…
            tensor<fp16, [2, 1280, 1, 64]> zero_mean_sq_41_cast = mul(x = zero_mean_41_cast, y = zero_mean_41_cast);
            tensor<int32, [1]> var_4001 = const()[name = tensor<string, []>("op_4001"), val = tensor<int32, [1]>([1])];
            tensor<fp16, [2, 1, 1, 64]> var_4002_cast = reduce_mean(axes = var_4001, keep_dims = var_3507, x = zero_mean_sq_41_cast);
            tensor<fp16, []> var_4003_to_fp16 = const()[name = tensor<string, []>("op_4003_to_fp16"), val = tensor<fp16, []>(0x1.5p-17)];
            tensor<fp16, [2, 1, 1, 64]> var_4004_cast = add(x = var_4002_cast, y = var_4003_to_fp16);
            tensor<fp16, []> denom_41_epsilon_0_to_fp16 = const()[name = tensor<string, []>("denom_41_epsilon_0_to_fp16"), val = tensor<fp16, []>(0x1p-24)];
            tensor<fp16, [2, 1, 1, 64]> denom_41_cast = rsqrt(epsilon = denom_41_epsilon_0_to_fp16, x = var_4004_cast);
            tensor<fp16, [2, 1280, 1, 64]> out_41_cast = mul(x = zero_mean_41_cast, y = denom_41_cast);
            tensor<fp16, [1, 1280, 1, 1]> var_4008_to_fp16 = const()[name = tensor<string, []>("op_4008_to_fp16"), val = tensor<fp16, [1, 1280, 1, 1]>(BLOBFILE(path = tensor<string, []>("@model_path/weights/weight.bin"), offset = tensor<uint64, []>(592627008)))];
            tensor<fp16, [2, 1280, 1, 64]> var_4009_cast = add(x = out_41_cast, y = var_4008_to_fp16);
            tensor<fp16, [1, 1280, 1, 1]> var_4011_to_fp16 = const()[name = tensor<string, []>("op_4011_to_fp16"), val = tensor<fp16, [1, 1280, 1, 1]>(BLOBFILE(path = tensor<string, []>("@model_path/weights/weight.bin"), offset = tensor<uint64, []>(592629632)))];
            tensor<fp16, [2, 1280, 1, 64]> input_219_cast = mul(x = var_4009_cast, y = var_4011_to_fp16);
            tensor<int32, [2]> var_4019 = const()[name = tensor<string, []>("op_4019"), val = tensor<int32, [2]>([1, 1])];
            tensor<int32, [2]> var_4021 = const()[name = tensor<string, []>("op_4021"), val = tensor<int32, [2]>([1, 1])];
            tensor<string, []> var_4023_pad_type_0 = const()[name = tensor<string, []>("op_4023_pad_type_0"), val = tensor<string, []>("custom")];
            tensor<int32, [4]> var_4023_pad_0 = const()[name = tensor<string, []>("op_4023_pad_0"), val = tensor<int32, [4]>([0, 0, 0, 0])];
            tensor<fp16, [10240, 1280, 1, 1]> mid_block_attentions_0_transformer_blocks_0_ff_net_0_proj_weight_to_fp16 = const()[name = tensor<string, []>("mid_block_attentions_0_transformer_blocks_0_ff_net_0_proj_weight_to_fp16"), val = tensor<fp16, [10240, 1280, 1, 1]>(BLOBFILE(path = tensor<string, []>("@model_path/weights/weight.bin"), offset = tensor<uint64, []>(592632256)))];
            tensor<fp16, [10240]> mid_block_attentions_0_transformer_blocks_0_ff_net_0_proj_bias_to_fp16 = const()[name = tensor<string, []>("mid_block_attentions_0_transformer_blocks_0_ff_net_0_proj_bias_to_fp16"), val = tensor<fp16, [10240]>(BLOBFILE(path = tensor<string, []>("@model_path/weights/weight.bin"), offset = tensor<uint64, []>(618846720)))];
            tensor<fp16, [2, 10240, 1, 64]> var_4023_cast = conv(bias = mid_block_attentions_0_transformer_blocks_0_ff_net_0_proj_bias_to_fp16, dilations = var_4021, groups = var_3512, pad = var_4023_pad_0, pad_type = var_4023_pad_type_0, strides = var_4019, weight = mid_block_attentions_0_transformer_blocks_0_ff_net_0_proj_weight_to_fp16, x = input_219_cast);
            tensor<int32, [2]> var_4024_split_sizes_0 = const()[name = tensor<string, []>("op_4024_split_sizes_0"), val = tensor<int32, [2]>([5120, 5120])];
            tensor<int32, []> var_4024_axis_0 = const()[name = tensor<string, []>("op_4024_axis_0"), val = tensor<int32, []>(1)];
            tensor<fp16, [2, 5120, 1, 64]> var_4024_cast_0, tensor<fp16, [2, 5120, 1, 64]> var_4024_cast_1 = split(axis = var_4024_axis_0, split_sizes = var_4024_split_sizes_0, x = var_4023_cast);
            tensor<string, []> var_4026_mode_0 = const()[name = tensor<string, []>("op_4026_mode_0"), val = tensor<string, []>("EXACT")];
            tensor<fp16, [2, 5120, 1, 64]> var_4026_cast = gelu(mode = var_4026_mode_0, x = var_4024_cast_1);
            tensor<fp16, [2, 5120, 1, 64]> input_221_cast = mul(x = var_4024_cast_0, y = var_4026_cast);
            tensor<int32, [2]> var_4030 = const()[name = tensor<string, []>("op_4030"), val = tensor<int32, [2]>([1, 1])];
            tensor<int32, [2]> var_4032 = const()[name = tensor<string, []>("op_4032"), val = tensor<int32, [2]>([1, 1])];
            tensor<string, []> var_4034_pad_type_0 = const()[name = tensor<string, []>("op_4034_pad_type_0"), val = tensor<string, []>("custom")];
            tensor<int32, [4]> var_4034_pad_0 = const()[name = tensor<string, []>("op_4034_pad_0"), val = tensor<int32, [4]>([0, 0, 0, 0])];
            tensor<fp16, [1280, 5120, 1, 1]> mid_block_attentions_0_transformer_blocks_0_ff_net_2_weight_to_fp16 = const()[name = tensor<string, []>("mid_block_attentions_0_transformer_blocks_0_ff_net_2_weight_to_fp16"), val = tensor<fp16, [1280, 5120, 1, 1]>(BLOBFILE(path = tensor<string, []>("@model_path/weights/weight.bin"), offset = tensor<uint64, []>(618867264)))];
            tensor<fp16, [1280]> mid_block_attentions_0_transformer_blocks_0_ff_net_2_bias_to_fp16 = const()[name = tensor<string, []>("mid_block_attentions_0_transformer_blocks_0_ff_net_2_bias_to_fp16"), val = tensor<fp16, [1280]>(BLOBFILE(path = tensor<string, []>("@model_path/weights/weight.bin"), offset = tensor<uint64, []>(631974528)))];
            tensor<fp16, [2, 1280, 1, 64]> var_4034_cast = conv(bias = mid_block_attentions_0_transformer_blocks_0_ff_net_2_bias_to_fp16, dilations = var_4032, groups = var_3512, pad = var_4034_pad_0, pad_type = var_4034_pad_type_0, strides = var_4030, weight = mid_block_attentions_0_transformer_blocks_0_ff_net_2_weight_to_fp16, x = input_221_cast);
            tensor<fp16, [2, 1280, 1, 64]> hidden_states_131_cast = add(x = var_4034_cast, y = inputs_41_cast);
            tensor<int32, [4]> var_4036 = const()[name = tensor<string, []>("op_4036"), val = tensor<int32, [4]>([2, 1280, 8, 8])];
            tensor<fp16, [2, 1280, 8, 8]> input_223_cast = reshape(shape = var_4036, x = hidden_states_131_cast);
            tensor<int32, [2]> var_4040 = const()[name = tensor<string, []>("op_4040"), val = tensor<int32, [2]>([1, 1])];
            tensor<int32, [2]> var_4042 = const()[name = tensor<string, []>("op_4042"), val = tensor<int32, [2]>([1, 1])];
            tensor<string, []> hidden_states_133_pad_type_0 = const()[name = tensor<string, []>("hidden_states_133_pad_type_0"), val = tensor<string, []>("custom")];
            tensor<int32, [4]> hidden_states_133_pad_0 = const()[name = tensor<string, []>("hidden_states_133_pad_0"), val = tensor<int32, [4]>([0, 0, 0, 0])];
            tensor<fp16, [1280, 1280, 1, 1]> mid_block_attentions_0_proj_out_weight_to_fp16 = const()[name = tensor<string, []>("mid_block_attentions_0_proj_out_weight_to_fp16"), val = tensor<fp16, [1280, 1280, 1, 1]>(BLOBFILE(path = tensor<string, []>("@model_path/weights/weight.bin"), offset = tensor<uint64, []>(631977152)))];
            tensor<fp16, [1280]> mid_block_attentions_0_proj_out_bias_to_fp16 = const()[name = tensor<string, []>("mid_block_attentions_0_proj_out_bias_to_fp16"), val = tensor<fp16, [1280]>(BLOBFILE(path = tensor<string, []>("@model_path/weights/weight.bin"), offset = tensor<uint64, []>(635254016)))];
            tensor<fp16, [2, 1280, 8, 8]> hidden_states_133_cast = conv(bias = mid_block_attentions_0_proj_out_bias_to_fp16, dilations = var_4042, groups = var_3512, pad = hidden_states_133_pad_0, pad_type = hidden_states_133_pad_type_0, strides = var_4040, weight = mid_block_attentions_0_proj_out_weight_to_fp16, x = input_223_cast);
            tensor<fp16, [2, 1280, 8, 8]> input_225_cast = add(x = hidden_states_133_cast, y = hidden_states_121_cast);
            tensor<int32, [5]> reshape_100_shape_0 = const()[name = tensor<string, []>("reshape_100_shape_0"), val = tensor<int32, [5]>([2, 32, 40, 8, 8])];
            tensor<fp16, [2, 32, 40, 8, 8]> reshape_100_cast = reshape(shape = reshape_100_shape_0, x = input_225_cast);
            tensor<int32, [3]> reduce_mean_75_axes_0 = const()[name = tensor<string, []>("reduce_mean_75_axes_0"), val = tensor<int32, [3]>([2, 3, 4])];
            tensor<bool, []> reduce_mean_75_keep_dims_0 = const()[name = tensor<string, []>("reduce_mean_75_keep_dims_0"), val = tensor<bool, []>(true)];
            tensor<fp16, [2, 32, 1, 1, 1]> reduce_mean_75_cast = reduce_mean(axes = reduce_mean_75_axes_0, keep_dims = reduce_mean_75_keep_dims_0, x = reshape_100_cast);
            tensor<fp16, [2, 32, 40, 8, 8]> sub_50_cast = sub(x = reshape_100_cast, y = reduce_mean_75_cast);
            tensor<fp16, [2, 32, 40, 8, 8]> square_25_cast = square(x = sub_50_cast);
            tensor<int32, [3]> reduce_mean_77_axes_0 = const()[name = tensor<string, []>("reduce_mean_77_axes_0"), val = tensor<int32, [3]>([2, 3, 4])];
            tensor<bool, []> reduce_mean_77_keep_dims_0 = const()[name = tensor<string, []>("reduce_mean_77_keep_dims_0"), val = tensor<bool, []>(true)];
            tensor<fp16, [2, 32, 1, 1, 1]> reduce_mean_77_cast = reduce_mean(axes = reduce_mean_77_axes_0, keep_dims = reduce_mean_77_keep_dims_0, x = square_25_cast);
            tensor<fp16, []> add_50_y_0_to_fp16 = const()[name = tensor<string, []>("add_50_y_0_to_fp16"), val = tensor<fp16, []>(0x1.5p-17)];
            tensor<fp16, [2, 32, 1, 1, 1]> add_50_cast = add(x = reduce_mean_77_cast, y = add_50_y_0_to_fp16);
            tensor<fp16, [2, 32, 1, 1, 1]> sqrt_25_cast = sqrt(x = add_50_cast);
            tensor<fp16, [2, 32, 40, 8, 8]> real_div_25_cast = real_div(x = sub_50_cast, y = sqrt_25_cast);
            tensor<int32, [4]> reshape_101_shape_0 = const()[name = tensor<string, []>("reshape_101_shape_0"), val = tensor<int32, [4]>([2, 1280, 8, 8])];
            tensor<fp16, [2, 1280, 8, 8]> reshape_101_cast = reshape(shape = reshape_101_shape_0, x = real_div_25_cast);
            tensor<fp16, [1280]> add_51_mean_0_to_fp16 = const()[name = tensor<string, []>("add_51_mean_0_to_fp16"), val = tensor<fp16, [1280]>(BLOBFILE(path = tensor<string, []>("@model_path/weights/weight.bin"), offset = tensor<uint64, []>(635256640)))];
            tensor<fp16, [1280]> add_51_variance_0_to_fp16 = const()[name = tensor<string, []>("add_51_variance_0_to_fp16"), val = tensor<fp16, [1280]>(BLOBFILE(path = tensor<string, []>("@model_path/weights/weight.bin"), offset = tensor<uint64, []>(635259264)))];
            tensor<fp16, [1280]> add_51_gamma_0_to_fp16 = const()[name = tensor<string, []>("add_51_gamma_0_to_fp16"), val = tensor<fp16, [1280]>(BLOBFILE(path = tensor<string, []>("@model_path/weights/weight.bin"), offset = tensor<uint64, []>(635261888)))];
            tensor<fp16, [1280]> add_51_beta_0_to_fp16 = const()[name = tensor<string, []>("add_51_beta_0_to_fp16"), val = tensor<fp16, [1280]>(BLOBFILE(path = tensor<string, []>("@model_path/weights/weight.bin"), offset = tensor<uint64, []>(635264512)))];
            tensor<fp16, []> add_51_epsilon_0_to_fp16 = const()[name = tensor<string, []>("add_51_epsilon_0_to_fp16"), val = tensor<fp16, []>(0x1.5p-17)];
            tensor<fp16, [2, 1280, 8, 8]> add_51_cast = batch_norm(beta = add_51_beta_0_to_fp16, epsilon = add_51_epsilon_0_to_fp16, gamma = add_51_gamma_0_to_fp16, mean = add_51_mean_0_to_fp16, variance = add_51_variance_0_to_fp16, x = reshape_101_cast);
            tensor<fp16, [2, 1280, 8, 8]> input_229_cast = silu(x = add_51_cast);
            tensor<int32, [2]> var_4057 = const()[name = tensor<string, []>("op_4057"), val = tensor<int32, [2]>([1, 1])];
            tensor<int32, [2]> var_4059 = const()[name = tensor<string, []>("op_4059"), val = tensor<int32, [2]>([1, 1])];
            tensor<string, []> hidden_states_135_pad_type_0 = const()[name = tensor<string, []>("hidden_states_135_pad_type_0"), val = tensor<string, []>("custom")];
            tensor<int32, [4]> hidden_states_135_pad_0 = const()[name = tensor<string, []>("hidden_states_135_pad_0"), val = tensor<int32, [4]>([1, 1, 1, 1])];
            tensor<fp16, [1280, 1280, 3, 3]> mid_block_resnets_1_conv1_weight_to_fp16 = const()[name = tensor<string, []>("mid_block_resnets_1_conv1_weight_to_fp16"), val = tensor<fp16, [1280, 1280, 3, 3]>(BLOBFILE(path = tensor<string, []>("@model_path/weights/weight.bin"), offset = tensor<uint64, []>(635267136)))];
            tensor<fp16, [1280]> mid_block_resnets_1_conv1_bias_to_fp16 = const()[name = tensor<string, []>("mid_block_resnets_1_conv1_bias_to_fp16"), val = tensor<fp16, [1280]>(BLOBFILE(path = tensor<string, []>("@model_path/weights/weight.bin"), offset = tensor<uint64, []>(664758400)))];
            tensor<fp16, [2, 1280, 8, 8]> hidden_states_135_cast = conv(bias = mid_block_resnets_1_conv1_bias_to_fp16, dilations = var_4059, groups = var_3512, pad = hidden_states_135_pad_0, pad_type = hidden_states_135_pad_type_0, strides = var_4057, weight = mid_block_resnets_1_conv1_weight_to_fp16, x = input_229_cast);
            tensor<int32, [2]> var_4065 = const()[name = tensor<string, []>("op_4065"), val = tensor<int32, [2]>([1, 1])];
            tensor<int32, [2]> var_4067 = const()[name = tensor<string, []>("op_4067"), val = tensor<int32, [2]>([1, 1])];
            tensor<string, []> temb_19_pad_type_0 = const()[name = tensor<string, []>("temb_19_pad_type_0"), val = tensor<string, []>("custom")];
            tensor<int32, [4]> temb_19_pad_0 = const()[name = tensor<string, []>("temb_19_pad_0"), val = tensor<int32, [4]>([0, 0, 0, 0])];
            tensor<fp16, [1280, 1280, 1, 1]> mid_block_resnets_1_time_emb_proj_weight_to_fp16 = const()[name = tensor<string, []>("mid_block_resnets_1_time_emb_proj_weight_to_fp16"), val = tensor<fp16, [1280, 1280, 1, 1]>(BLOBFILE(path = tensor<string, []>("@model_path/weights/weight.bin"), offset = tensor<uint64, []>(664761024)))];
            tensor<fp16, [1280]> mid_block_resnets_1_time_emb_proj_bias_to_fp16 = const()[name = tensor<string, []>("mid_block_resnets_1_time_emb_proj_bias_to_fp16"), val = tensor<fp16, [1280]>(BLOBFILE(path = tensor<string, []>("@model_path/weights/weight.bin"), offset = tensor<uint64, []>(668037888)))];
            tensor<fp16, [2, 1280, 1, 1]> temb_19_cast = conv(bias = mid_block_resnets_1_time_emb_proj_bias_to_fp16, dilations = var_4067, groups = var_3512, pad = temb_19_pad_0, pad_type = temb_19_pad_type_0, strides = var_4065, weight = mid_block_resnets_1_time_emb_proj_weight_to_fp16, x = input_15_cast_1);
            tensor<fp16, [2, 1280, 8, 8]> input_233_cast = add(x = hidden_states_135_cast, y = temb_19_cast);
            tensor<int32, [5]> reshape_104_shape_0 = const()[name = tensor<string, []>("reshape_104_shape_0"), val = tensor<int32, [5]>([2, 32, 40, 8, 8])];
            tensor<fp16, [2, 32, 40, 8, 8]> reshape_104_cast = reshape(shape = reshape_104_shape_0, x = input_233_cast);
            tensor<int32, [3]> reduce_mean_78_axes_0 = const()[name = tensor<string, []>("reduce_mean_78_axes_0"), val = tensor<int32, [3]>([2, 3, 4])];
            tensor<bool, []> reduce_mean_78_keep_dims_0 = const()[name = tensor<string, []>("reduce_mean_78_keep_dims_0"), val = tensor<bool, []>(true)];
            tensor<fp16, [2, 32, 1, 1, 1]> reduce_mean_78_cast = reduce_mean(axes = reduce_mean_78_axes_0, keep_dims = reduce_mean_78_keep_dims_0, x = reshape_104_cast);
            tensor<fp16, [2, 32, 40, 8, 8]> sub_52_cast = sub(x = reshape_104_cast, y = reduce_mean_78_cast);
            tensor<fp16, [2, 32, 40, 8, 8]> square_26_cast = square(x = sub_52_cast);
            tensor<int32, [3]> reduce_mean_80_axes_0 = const()[name = tensor<string, []>("reduce_mean_80_axes_0"), val = tensor<int32, [3]>([2, 3, 4])];
            tensor<bool, []> reduce_mean_80_keep_dims_0 = const()[name = tensor<string, []>("reduce_mean_80_keep_dims_0"), val = tensor<bool, []>(true)];
            tensor<fp16, [2, 32, 1, 1, 1]> reduce_mean_80_cast = reduce_mean(axes = reduce_mean_80_axes_0, keep_dims = reduce_mean_80_keep_dims_0, x = square_26_cast);
            tensor<fp16, []> add_52_y_0_to_fp16 = const()[name = tensor<string, []>("add_52_y_0_to_fp16"), val = tensor<fp16, []>(0x1.5p-17)];
            tensor<fp16, [2, 32, 1, 1, 1]> add_52_cast = add(x = reduce_mean_80_cast, y = add_52_y_0_to_fp16);
            tensor<fp16, [2, 32, 1, 1, 1]> sqrt_26_cast = sqrt(x = add_52_cast);
            tensor<fp16, [2, 32, 40, 8, 8]> real_div_26_cast = real_div(x = sub_52_cast, y = sqrt_26_cast);
            tensor<int32, [4]> reshape_105_shape_0 = const()[name = tensor<string, []>("reshape_105_shape_0"), val = tensor<int32, [4]>([2, 1280, 8, 8])];
            tensor<fp16, [2, 1280, 8, 8]> reshape_105_cast = reshape(shape = reshape_105_shape_0, x = real_div_26_cast);
            tensor<fp16, [1280]> add_53_mean_0_to_fp16 = const()[name = tensor<string, []>("add_53_mean_0_to_fp16"), val = tensor<fp16, [1280]>(BLOBFILE(path = tensor<string, []>("@model_path/weights/weight.bin"), offset = tensor<uint64, []>(668040512)))];
            tensor<fp16, [1280]> add_53_variance_0_to_fp16 = const()[name = tensor<string, []>("add_53_variance_0_to_fp16"), val = tensor<fp16, [1280]>(BLOBFILE(path = tensor<string, []>("@model_path/weights/weight.bin"), offset = tensor<uint64, []>(668043136)))];
            tensor<fp16, [1280]> add_53_gamma_0_to_fp16 = const()[name = tensor<string, []>("add_53_gamma_0_to_fp16"), val = tensor<fp16, [1280]>(BLOBFILE(path = tensor<string, []>("@model_path/weights/weight.bin"), offset = tensor<uint64, []>(668045760)))];
            tensor<fp16, [1280]> add_53_beta_0_to_fp16 = const()[name = tensor<string, []>("add_53_beta_0_to_fp16"), val = tensor<fp16, [1280]>(BLOBFILE(path = tensor<string, []>("@model_path/weights/weight.bin"), offset = tensor<uint64, []>(668048384)))];
            tensor<fp16, []> add_53_epsilon_0_to_fp16 = const()[name = tensor<string, []>("add_53_epsilon_0_to_fp16"), val = tensor<fp16, []>(0x1.5p-17)];
            tensor<fp16, [2, 1280, 8, 8]> add_53_cast = batch_norm(beta = add_53_beta_0_to_fp16, epsilon = add_53_epsilon_0_to_fp16, gamma = add_53_gamma_0_to_fp16, mean = add_53_mean_0_to_fp16, variance = add_53_variance_0_to_fp16, x = reshape_105_cast);
            tensor<fp16, [2, 1280, 8, 8]> input_237_cast = silu(x = add_53_cast);
            tensor<int32, [2]> var_4077 = const()[name = tensor<string, []>("op_4077"), val = tensor<int32, [2]>([1, 1])];
            tensor<int32, [2]> var_4079 = const()[name = tensor<string, []>("op_4079"), val = tensor<int32, [2]>([1, 1])];
            tensor<string, []> hidden_states_137_pad_type_0 = const()[name = tensor<string, []>("hidden_states_137_pad_type_0"), val = tensor<string, []>("custom")];
            tensor<int32, [4]> hidden_states_137_pad_0 = const()[name = tensor<string, []>("hidden_states_137_pad_0"), val = tensor<int32, [4]>([1, 1, 1, 1])];
            tensor<fp16, [1280, 1280, 3, 3]> mid_block_resnets_1_conv2_weight_to_fp16 = const()[name = tensor<string, []>("mid_block_resnets_1_conv2_weight_to_fp16"), val = tensor<fp16, [1280, 1280, 3, 3]>(BLOBFILE(path = tensor<string, []>("@model_path/weights/weight.bin"), offset = tensor<uint64, []>(668051008)))];
            tensor<fp16, [1280]> mid_block_resnets_1_conv2_bias_to_fp16 = const()[name = tensor<string, []>("mid_block_resnets_1_conv2_bias_to_fp16"), val = tensor<fp16, [1280]>(BLOBFILE(path = tensor<string, []>("@model_path/weights/weight.bin"), offset = tensor<uint64, []>(697542272)))];
            tensor<fp16, [2, 1280, 8, 8]> hidden_states_137_cast = conv(bias = mid_block_resnets_1_conv2_bias_to_fp16, dilations = var_4079, groups = var_3512, pad = hidden_states_137_pad_0, pad_type = hidden_states_137_pad_type_0, strides = var_4077, weight = mid_block_resnets_1_conv2_weight_to_fp16, x = input_237_cast);
            tensor<fp16, [2, 1280, 8, 8]> hidden_states_139_cast = add(x = input_225_cast, y = hidden_states_137_cast);
            tensor<int32, []> var_4090 = const()[name = tensor<string, []>("op_4090"), val = tensor<int32, []>(1)];
            tensor<bool, []> input_239_interleave_0 = const()[name = tensor<string, []>("input_239_interleave_0"), val = tensor<bool, []>(false)];
            tensor<fp16, [2, 2560, 8, 8]> input_239_cast = concat(axis = var_4090, interleave = input_239_interleave_0, values = (hidden_states_139_cast, input_199_cast));
            tensor<int32, [5]> reshape_108_shape_0 = const()[name = tensor<string, []>("reshape_108_shape_0"), val = tensor<int32, [5]>([2, 32, 80, 8, 8])];
            tensor<fp16, [2, 32, 80, 8, 8]> reshape_108_cast = reshape(shape = reshape_108_shape_0, x = input_239_cast);
            tensor<int32, [3]> reduce_mean_81_axes_0 = const()[name = tensor<string, []>("reduce_mean_81_axes_0"), val = tensor<int32, [3]>([2, 3, 4])];
            tensor<bool, []> reduce_mean_81_keep_dims_0 = const()[name = tensor<string, []>("reduce_mean_81_keep_dims_0"), val = tensor<bool, []>(true)];
            tensor<fp16, [2, 32, 1, 1, 1]> reduce_mean_81_cast = reduce_mean(axes = reduce_mean_81_axes_0, keep_dims = reduce_mean_81_keep_dims_0, x = reshape_108_cast);
            tensor<fp16, [2, 32, 80, 8, 8]> sub_54_cast = sub(x = reshape_108_cast, y = reduce_mean_81_cast);
            tensor<fp16, [2, 32, 80, 8, 8]> square_27_cast = square(x = sub_54_cast);
            tensor<int32, [3]> reduce_mean_83_axes_0 = const()[name = tensor<string, []>("reduce_mean_83_axes_0"), val = tensor<int32, [3]>([2, 3, 4])];
            tensor<bool, []> reduce_mean_83_keep_dims_0 = const()[name = tensor<string, []>("reduce_mean_83_keep_dims_0"), val = tensor<bool, []>(true)];
            tensor<fp16, [2, 32, 1, 1, 1]> reduce_mean_83_cast = reduce_mean(axes = reduce_mean_83_axes_0, keep_dims = reduce_mean_83_keep_dims_0, x = square_27_cast);
            tensor<fp16, []> add_54_y_0_to_fp16 = const()[name = tensor<string, []>("add_54_y_0_to_fp16"), val = tensor<fp16, []>(0x1.5p-17)];
            tensor<fp16, [2, 32, 1, 1, 1]> add_54_cast = add(x = reduce_mean_83_cast, y = add_54_y_0_to_fp16);
            tensor<fp16, [2, 32, 1, 1, 1]> sqrt_27_cast = sqrt(x = add_54_cast);
            tensor<fp16, [2, 32, 80, 8, 8]> real_div_27_cast = real_div(x = sub_54_cast, y = sqrt_27_cast);
            tensor<int32, [4]> reshape_109_shape_0 = const()[name = tensor<string, []>("reshape_109_shape_0"), val = tensor<int32, [4]>([2, 2560, 8, 8])];
            tensor<fp16, [2, 2560, 8, 8]> reshape_109_cast = reshape(shape = reshape_109_shape_0, x = real_div_27_cast);
            tensor<fp16, [2560]> add_55_mean_0_to_fp16 = const()[name = tensor<string, []>("add_55_mean_0_to_fp16"), val = tensor<fp16, [2560]>(BLOBFILE(path = tensor<string, []>("@model_path/weights/weight.bin"), offset = tensor<uint64, []>(697544896)))];
            tensor<fp16, [2560]> add_55_variance_0_to_fp16 = const()[name = tensor<string, []>("add_55_variance_0_to_fp16"), val = tensor<fp16, [2560]>(BLOBFILE(path = tensor<string, []>("@model_path/weights/weight.bin"), offset = tensor<uint64, []>(697550080)))];
            tensor<fp16, [2560]> add_55_gamma_0_to_fp16 = const()[name = tensor<string, []>("add_55_gamma_0_to_fp16"), val = tensor<fp16, [2560]>(BLOBFILE(path = tensor<string, []>("@model_path/weights/weight.bin"), offset = tensor<uint64, []>(697555264)))];
            tensor<fp16, [2560]> add_55_beta_0_to_fp16 = const()[name = tensor<string, []>("add_55_beta_0_to_fp16"), val = tensor<fp16, [2560]>(BLOBFILE(path = tensor<string, []>("@model_path/weights/weight.bin"), offset = tensor<uint64, []>(697560448)))];
            tensor<fp16, []> add_55_epsilon_0_to_fp16 = const()[name = tensor<string, []>("add_55_epsilon_0_to_fp16"), val = tensor<fp16, []>(0x1.5p-17)];
            tensor<fp16, [2, 2560, 8, 8]> add_55_cast = batch_norm(beta = add_55_beta_0_to_fp16, epsilon = add_55_epsilon_0_to_fp16, gamma = add_55_gamma_0_to_fp16, mean = add_55_mean_0_to_fp16, variance = add_55_variance_0_to_fp16, x = reshape_109_cast);
            tensor<fp16, [2, 2560, 8, 8]> input_243_cast = silu(x = add_55_cast);
            tensor<int32, [2]> var_4113 = const()[name = tensor<string, []>("op_4113"), val = tensor<int32, [2]>([1, 1])];
            tensor<int32, [2]> var_4115 = const()[name = tensor<string, []>("op_4115"), val = tensor<int32, [2]>([1, 1])];
            tensor<string, []> hidden_states_141_pad_type_0 = const()[name = tensor<string, []>("hidden_states_141_pad_type_0"), val = tensor<string, []>("custom")];
            tensor<int32, [4]> hidden_states_141_pad_0 = const()[name = tensor<string, []>("hidden_states_141_pad_0"), val = tensor<int32, [4]>([1, 1, 1, 1])];
            tensor<fp16, [1280, 2560, 3, 3]> up_blocks_0_resnets_0_conv1_weight_to_fp16 = const()[name = tensor<string, []>("up_blocks_0_resnets_0_conv1_weight_to_fp16"), val = tensor<fp16, [1280, 2560, 3, 3]>(BLOBFILE(path = tensor<string, []>("@model_path/weights/weight.bin"), offset = tensor<uint64, []>(697565632)))];
            tensor<fp16, [1280]> up_blocks_0_resnets_0_conv1_bias_to_fp16 = const()[name = tensor<string, []>("up_blocks_0_resnets_0_conv1_bias_to_fp16"), val = tensor<fp16, [1280]>(BLOBFILE(path = tensor<string, []>("@model_path/weights/weight.bin"), offset = tensor<uint64, []>(756548096)))];
            tensor<fp16, [2, 1280, 8, 8]> hidden_states_141_cast = conv(bias = up_blocks_0_resnets_0_conv1_bias_to_fp16, dilations = var_4115, groups = var_4090, pad = hidden_states_141_pad_0, pad_type = hidden_states_141_pad_type_0, strides = var_4113, weight = up_blocks_0_resnets_0_conv1_weight_to_fp16, x = input_243_cast);
            tensor<int32, [2]> var_4121 = const()[name = tensor<string, []>("op_4121"), val = tensor<int32, [2]>([1, 1])];
            tensor<int32, [2]> var_4123 = const()[name = tensor<string, []>("op_4123"), val = tensor<int32, [2]>([1, 1])];
            tensor<string, []> temb_21_pad_type_0 = const()[name = tensor<string, []>("temb_21_pad_type_0"), val = tensor<string, []>("custom")];
            tensor<int32, [4]> temb_21_pad_0 = const()[name = tensor<string, []>("temb_21_pad_0"), val = tensor<int32, [4]>([0, 0, 0, 0])];
            tensor<fp16, [1280, 1280, 1, 1]> up_blocks_0_resnets_0_time_emb_proj_weight_to_fp16 = const()[name = tensor<string, []>("up_blocks_0_resnets_0_time_emb_proj_weight_to_fp16"), val = tensor<fp16, [1280, 1280, 1, 1]>(BLOBFILE(path = tensor<string, []>("@model_path/weights/weight.bin"), offset = tensor<uint64, []>(756550720)))];
            tensor<fp16, [1280]> up_blocks_0_resnets_0_time_emb_proj_bias_to_fp16 = const()[name = tensor<string, []>("up_blocks_0_resnets_0_time_emb_proj_bias_to_fp16"), val = tensor<fp16, [1280]>(BLOBFILE(path = tensor<string, []>("@model_path/weights/weight.bin"), offset = tensor<uint64, []>(759827584)))];
            tensor<fp16, [2, 1280, 1, 1]> temb_21_cast = conv(bias = up_blocks_0_resnets_0_time_emb_proj_bias_to_fp16, dilations = var_4123, groups = var_4090, pad = temb_21_pad_0, pad_type = temb_21_pad_type_0, strides = var_4121, weight = up_blocks_0_resnets_0_time_emb_proj_weight_to_fp16, x = input_15_cast_1);
            tensor<fp16, [2, 1280, 8, 8]> input_247_cast = add(x = hidden_states_141_cast, y = temb_21_cast);
            tensor<int32, [5]> reshape_112_shape_0 = const()[name = tensor<string, []>("reshape_112_shape_0"), val = tensor<int32, [5]>([2, 32, 40, 8, 8])];
            tensor<fp16, [2, 32, 40, 8, 8]> reshape_112_cast = reshape(shape = reshape_112_shape_0, x = input_247_cast);
            tensor<int32, [3]> reduce_mean_84_axes_0 = const()[name = tensor<string, []>("reduce_mean_84_axes_0"), val = tensor<int32, [3]>([2, 3, 4])];
            tensor<bool, []> reduce_mean_84_keep_dims_0 = const()[name = tensor<string, []>("reduce_mean_84_keep_dims_0"), val = tensor<bool, []>(true)];
            tensor<fp16, [2, 32, 1, 1, 1]> reduce_mean_84_cast = reduce_mean(axes = reduce_mean_84_axes_0, keep_dims = reduce_mean_84_keep_dims_0, x = reshape_112_cast);
            tensor<fp16, [2, 32, 40, 8, 8]> sub_56_cast = sub(x = reshape_112_cast, y = reduce_mean_84_cast);
            tensor<fp16, [2, 32, 40, 8, 8]> square_28_cast = square(x = sub_56_cast);
            tensor<int32, [3]> reduce_mean_86_axes_0 = const()[name = tensor<string, []>("reduce_mean_86_axes_0"), val = tensor<int32, [3]>([2, 3, 4])];
            tensor<bool, []> reduce_mean_86_keep_dims_0 = const()[name = tensor<string, []>("reduce_mean_86_keep_dims_0"), val = tensor<bool, []>(true)];
            tensor<fp16, [2, 32, 1, 1, 1]> reduce_mean_86_cast = reduce_mean(axes = reduce_mean_86_axes_0, keep_dims = reduce_mean_86_keep_dims_0, x = square_28_cast);
            tensor<fp16, []> add_56_y_0_to_fp16 = const()[name = tensor<string, []>("add_56_y_0_to_fp16"), val = tensor<fp16, []>(0x1.5p-17)];
            tensor<fp16, [2, 32, 1, 1, 1]> add_56_cast = add(x = reduce_mean_86_cast, y = add_56_y_0_to_fp16);
            tensor<fp16, [2, 32, 1, 1, 1]> sqrt_28_cast = sqrt(x = add_56_cast);
            tensor<fp16, [2, 32, 40, 8, 8]> real_div_28_cast = real_div(x = sub_56_cast, y = sqrt_28_cast);
            tensor<int32, [4]> reshape_113_shape_0 = const()[name = tensor<string, []>("reshape_113_shape_0"), val = tensor<int32, [4]>([2, 1280, 8, 8])];
            tensor<fp16, [2, 1280, 8, 8]> reshape_113_cast = reshape(shape = reshape_113_shape_0, x = real_div_28_cast);
            tensor<fp16, [1280]> add_57_mean_0_to_fp16 = const()[name = tensor<string, []>("add_57_mean_0_to_fp16"), val = tensor<fp16, [1280]>(BLOBFILE(path = tensor<string, []>("@model_path/weights/weight.bin"), offset = tensor<uint64, []>(759830208)))];
            tensor<fp16, [1280]> add_57_variance_0_to_fp16 = const()[name = tensor<string, []>("add_57_variance_0_to_fp16"), val = tensor<fp16, [1280]>(BLOBFILE(path = tensor<string, []>("@model_path/weights/weight.bin"), offset = tensor<uint64, []>(759832832)))];
            tensor<fp16, [1280]> add_57_gamma_0_to_fp16 = const()[name = tensor<string, []>("add_57_gamma_0_to_fp16"), val = tensor<fp16, [1280]>(BLOBFILE(path = tensor<string, []>("@model_path/weights/weight.bin"), offset = tensor<uint64, []>(759835456)))];
            tensor<fp16, [1280]> add_57_beta_0_to_fp16 = const()[name = tensor<string, []>("add_57_beta_0_to_fp16"), val = tensor<fp16, [1280]>(BLOBFILE(path = tensor<string, []>("@model_path/weights/weight.bin"), offset = tensor<uint64, []>(759838080)))];
            tensor<fp16, []> add_57_epsilon_0_to_fp16 = const()[name = tensor<string, []>("add_57_epsilon_0_to_fp16"), val = tensor<fp16, []>(0x1.5p-17)];
            tensor<fp16, [2, 1280, 8, 8]> add_57_cast = batch_norm(beta = add_57_beta_0_to_fp16, epsilon = add_57_epsilon_0_to_fp16, gamma = add_57_gamma_0_to_fp16, mean = add_57_mean_0_to_fp16, variance = add_57_variance_0_to_fp16, x = reshape_113_cast);
            tensor<fp16, [2, 1280, 8, 8]> input_251_cast = silu(x = add_57_cast);
            tensor<int32, [2]> var_4133 = const()[name = tensor<string, []>("op_4133"), val = tensor<int32, [2]>([1, 1])];
            tensor<int32, [2]> var_4135 = const()[name = tensor<string, []>("op_4135"), val = tensor<int32, [2]>([1, 1])];
            tensor<string, []> hidden_states_143_pad_type_0 = const()[name = tensor<string, []>("hidden_states_143_pad_type_0"), val = tensor<string, []>("custom")];
            tensor<int32, [4]> hidden_states_143_pad_0 = const()[name = tensor<string, []>("hidden_states_143_pad_0"), val = tensor<int32, [4]>([1, 1, 1, 1])];
            tensor<fp16, [1280, 1280, 3, 3]> up_blocks_0_resnets_0_conv2_weight_to_fp16 = const()[name = tensor<string, []>("up_blocks_0_resnets_0_conv2_weight_to_fp16"), val = tensor<fp16, [1280, 1280, 3, 3]>(BLOBFILE(path = tensor<string, []>("@model_path/weights/weight.bin"), offset = tensor<uint64, []>(759840704)))];
            tensor<fp16, [1280]> up_blocks_0_resnets_0_conv2_bias_to_fp16 = const()[name = tensor<string, []>("up_blocks_0_resnets_0_conv2_bias_to_fp16"), val = tensor<fp16, [1280]>(BLOBFILE(path = tensor<string, []>("@model_path/weights/weight.bin"), offset = tensor<uint64, []>(789331968)))];
            tensor<fp16, [2, 1280, 8, 8]> hidden_states_143_cast = conv(bias = up_blocks_0_resnets_0_conv2_bias_to_fp16, dilations = var_4135, groups = var_4090, pad = hidden_states_143_pad_0, pad_type = hidden_states_143_pad_type_0, strides = var_4133, weight = up_blocks_0_resnets_0_conv2_weight_to_fp16, x = input_251_cast);
            tensor<int32, [2]> var_4140 = const()[name = tensor<string, []>("op_4140"), val = tensor<int32, [2]>([1, 1])];
            tensor<int32, [2]> var_4142 = const()[name = tensor<string, []>("op_4142"), val = tensor<int32, [2]>([1, 1])];
            tensor<string, []> x_5_pad_type_0 = const()[name = tensor<string, []>("x_5_pad_type_0"), val = tensor<string, []>("custom")];
            tensor<int32, [4]> x_5_pad_0 = const()[name = tensor<string, []>("x_5_pad_0"), val = tensor<int32, [4]>([0, 0, 0, 0])];
            tensor<fp16, [1280, 2560, 1, 1]> up_blocks_0_resnets_0_conv_shortcut_weight_to_fp16 = const()[name = tensor<string, []>("up_blocks_0_resnets_0_conv_shortcut_weight_to_fp16"), val = tensor<fp16, [1280, 2560, 1, 1]>(BLOBFILE(path = tensor<string, []>("@model_path/weights/weight.bin"), offset = tensor<uint64, []>(789334592)))];
            tensor<fp16, [1280]> up_blocks_0_resnets_0_conv_shortcut_bias_to_fp16 = const()[name = tensor<string, []>("up_blocks_0_resnets_0_conv_shortcut_bias_to_fp16"), val = tensor<fp16, [1280]>(BLOBFILE(path = tensor<string, []>("@model_path/weights/weight.bin"), offset = tensor<uint64, []>(795888256)))];
            tensor<fp16, [2, 1280, 8, 8]> x_5_cast = conv(bias = up_blocks_0_resnets_0_conv_shortcut_bias_to_fp16, dilations = var_4142, groups = var_4090, pad = x_5_pad_0, pad_type = x_5_pad_type_0, strides = var_4140, weight = up_blocks_0_resnets_0_conv_shortcut_weight_to_fp16, x = input_239_cast);
            tensor<fp16, [2, 1280, 8, 8]> hidden_states_145_cast = add(x = x_5_cast, y = hidden_states_143_cast);
            tensor<bool, []> input_253_interleave_0 = const()[name = tensor<string, []>("input_253_interleave_0"), val = tensor<bool, []>(false)];
            tensor<fp16, [2, 2560, 8, 8]> input_253_cast_1 = concat(axis = var_4090, interleave = input_253_interleave_0, values = (hidden_states_145_cast, input_185_cast));
            tensor<int32, [5]> reshape_116_shape_0 = const()[name = tensor<string, []>("reshape_116_shape_0"), val = tensor<int32, [5]>([2, 32, 80, 8, 8])];
            tensor<fp16, [2, 32, 80, 8, 8]> reshape_116_cast = reshape(shape = reshape_116_shape_0, x = input_253_cast_1);
            tensor<int32, [3]> reduce_mean_87_axes_0 = const()[name = tensor<string, []>("reduce_mean_87_axes_0"), val = tensor<int32, [3]>([2, 3, 4])];
            tensor<bool, []> reduce_mean_87_keep_dims_0 = const()[name = tensor<string, []>("reduce_mean_87_keep_dims_0"), val = tensor<bool, []>(true)];
            tensor<fp16, [2, 32, 1, 1, 1]> reduce_mean_87_cast = reduce_mean(axes = reduce_mean_87_axes_0, keep_dims = reduce_mean_87_keep_dims_0, x = reshape_116_cast);
            tensor<fp16, [2, 32, 80, 8, 8]> sub_58_cast = sub(x = reshape_116_cast, y = reduce_mean_87_cast);
            tensor<fp16, [2, 32, 80, 8, 8]> square_29_cast = square(x = sub_58_cast);
            tensor<int32, [3]> reduce_mean_89_axes_0 = const()[name = tensor<string, []>("reduce_mean_89_axes_0"), val = tensor<int32, [3]>([2, 3, 4])];
            tensor<bool, []> reduce_mean_89_keep_dims_0 = const()[name = tensor<string, []>("reduce_mean_89_keep_dims_0"), val = tensor<bool, []>(true)];
            tensor<fp16, [2, 32, 1, 1, 1]> reduce_mean_89_cast = reduce_mean(axes = reduce_mean_89_axes_0, keep_dims = reduce_mean_89_keep_dims_0, x = square_29_cast);
            tensor<fp16, []> add_58_y_0_to_fp16 = const()[name = tensor<string, []>("add_58_y_0_to_fp16"), val = tensor<fp16, []>(0x1.5p-17)];
            tensor<fp16, [2, 32, 1, 1, 1]> add_58_cast = add(x = reduce_mean_89_cast, y = add_58_y_0_to_fp16);
            tensor<fp16, [2, 32, 1, 1, 1]> sqrt_29_cast = sqrt(x = add_58_cast);
            tensor<fp16, [2, 32, 80, 8, 8]> real_div_29_cast = real_div(x = sub_58_cast, y = sqrt_29_cast);
            tensor<int32, [4]> reshape_117_shape_0 = const()[name = tensor<string, []>("reshape_117_shape_0"), val = tensor<int32, [4]>([2, 2560, 8, 8])];
            tensor<fp16, [2, 2560, 8, 8]> reshape_117_cast = reshape(shape = reshape_117_shape_0, x = real_div_29_cast);
            tensor<fp16, [2560]> add_59_mean_0_to_fp16 = const()[name = tensor<string, []>("add_59_mean_0_to_fp16"), val = tensor<fp16, [2560]>(BLOBFILE(path = tensor<string, []>("@model_path/weights/weight.bin"), offset = tensor<uint64, []>(795890880)))];
            tensor<fp16, [2560]> add_59_variance_0_to_fp16 = const()[name = tensor<string, []>("add_59_variance_0_to_fp16"), val = tensor<fp16, [2560]>(BLOBFILE(path = tensor<string, []>("@model_path/weights/weight.bin"), offset = tensor<uint64, []>(795896064)))];
            tensor<fp16, [2560]> add_59_gamma_0_to_fp16 = const()[name = tensor<string, []>("add_59_gamma_0_to_fp16"), val = tensor<fp16, [2560]>(BLOBFILE(path = tensor<string, []>("@model_path/weights/weight.bin"), offset = tensor<uint64, []>(795901248)))];
            tensor<fp16, [2560]> add_59_beta_0_to_fp16 = const()[name = tensor<string, []>("add_59_beta_0_to_fp16"), val = tensor<fp16, [2560]>(BLOBFILE(path = tensor<string, []>("@model_path/weights/weight.bin"), offset = tensor<uint64, []>(795906432)))];
            tensor<fp16, []> add_59_epsilon_0_to_fp16 = const()[name = tensor<string, []>("add_59_epsilon_0_to_fp16"), val = tensor<fp16, []>(0x1.5p-17)];
            tensor<fp16, [2, 2560, 8, 8]> add_59_cast = batch_norm(beta = add_59_beta_0_to_fp16, epsilon = add_59_epsilon_0_to_fp16, gamma = add_59_gamma_0_to_fp16, mean = add_59_mean_0_to_fp16, variance = add_59_variance_0_to_fp16, x = reshape_117_cast);
            tensor<fp16, [2, 2560, 8, 8]> input_257_cast = silu(x = add_59_cast);
            tensor<int32, [2]> var_4160 = const()[name = tensor<string, []>("op_4160"), val = tensor<int32, [2]>([1, 1])];
            tensor<int32, [2]> var_4162 = const()[name = tensor<string, []>("op_4162"), val = tensor<int32, [2]>([1, 1])];
            tensor<string, []> hidden_states_147_pad_type_0 = const()[name = tensor<string, []>("hidden_states_147_pad_type_0"), val = tensor<string, []>("custom")];
            tensor<int32, [4]> hidden_states_147_pad_0 = const()[name = tensor<string, []>("hidden_states_147_pad_0"), val = tensor<int32, [4]>([1, 1, 1, 1])];
            tensor<fp16, [1280, 2560, 3, 3]> up_blocks_0_resnets_1_conv1_weight_to_fp16 = const()[name = tensor<string, []>("up_blocks_0_resnets_1_conv1_weight_to_fp16"), val = tensor<fp16, [1280, 2560, 3, 3]>(BLOBFILE(path = tensor<string, []>("@model_path/weights/weight.bin"), offset = tensor<uint64, []>(795911616)))];
            tensor<fp16, [1280]> up_blocks_0_resnets_1_conv1_bias_to_fp16 = const()[name = tensor<string, []>("up_blocks_0_resnets_1_conv1_bias_to_fp16"), val = tensor<fp16, [1280]>(BLOBFILE(path = tensor<string, []>("@model_path/weights/weight.bin"), offset = tensor<uint64, []>(854894080)))];
            tensor<fp16, [2, 1280, 8, 8]> hidden_states_147_cast = conv(bias = up_blocks_0_resnets_1_conv1_bias_to_fp16, dilations = var_4162, groups = var_4090, pad = hidden_states_147_pad_0, pad_type = hidden_states_147_pad_type_0, strides = var_4160, weight = up_blocks_0_resnets_1_conv1_weight_to_fp16, x = input_257_cast);
            tensor<int32, [2]> var_4168 = const()[name = tensor<string, []>("op_4168"), val = tensor<int32, [2]>([1, 1])];
            tensor<int32, [2]> var_4170 = const()[name = tensor<string, []>("op_4170"), val = tensor<int32, [2]>([1, 1])];
            tensor<string, []> temb_23_pad_type_0 = const()[name = tensor<string, []>("temb_23_pad_type_0"), val = tensor<string, []>("custom")];
            tensor<int32, [4]> temb_23_pad_0 = const()[name = tensor<string, []>("temb_23_pad_0"), val = tensor<int32, [4]>([0, 0, 0, 0])];
            tensor<fp16, [1280, 1280, 1, 1]> up_blocks_0_resnets_1_time_emb_proj_weight_to_fp16 = const()[name = tensor<string, []>("up_blocks_0_resnets_1_time_emb_proj_weight_to_fp16"), val = tensor<fp16, [1280, 1280, 1, 1]>(BLOBFILE(path = tensor<string, []>("@model_path/weights/weight.bin"), offset = tensor<uint64, []>(854896704)))];
            tensor<fp16, [1280]> up_blocks_0_resnets_1_time_emb_proj_bias_to_fp16 = const()[name = tensor<string, []>("up_blocks_0_resnets_1_time_emb_proj_bias_to_fp16"), val = tensor<fp16, [1280]>(BLOBFILE(path = tensor<string, []>("@model_path/weights/weight.bin"), offset = tensor<uint64, []>(858173568)))];
            tensor<fp16, [2, 1280, 1, 1]> temb_23_cast = conv(bias = up_blocks_0_resnets_1_time_emb_proj_bias_to_fp16, dilations = var_4170, groups = var_4090, pad = temb_23_pad_0, pad_type = temb_23_pad_type_0, strides = var_4168, weight = up_blocks_0_resnets_1_time_emb_proj_weight_to_fp16, x = input_15_cast_1);
            tensor<fp16, [2, 1280, 8, 8]> input_261_cast = add(x = hidden_states_147_cast, y = temb_23_cast);
            tensor<int32, [5]> reshape_120_shape_0 = const()[name = tensor<string, []>("reshape_120_shape_0"), val = tensor<int32, [5]>([2, 32, 40, 8, 8])];
            tensor<fp16, [2, 32, 40, 8, 8]> reshape_120_cast = reshape(shape = reshape_120_shape_0, x = input_261_cast);
            tensor<int32, [3]> reduce_mean_90_axes_0 = const()[name = tensor<string, []>("reduce_mean_90_axes_0"), val = tensor<int32, [3]>([2, 3, 4])];
            tensor<bool, []> reduce_mean_90_keep_dims_0 = const()[name = tensor<string, []>("reduce_mean_90_keep_dims_0"), val = tensor<bool, []>(true)];
            tensor<fp16, [2, 32, 1, 1, 1]> reduce_mean_90_cast = reduce_mean(axes = reduce_mean_90_axes_0, keep_dims = reduce_mean_90_keep_dims_0, x = reshape_120_cast);
            tensor<fp16, [2, 32, 40, 8, 8]> sub_60_cast = sub(x = reshape_120_cast, y = reduce_mean_90_cast);
            tensor<fp16, [2, 32, 40, 8, 8]> square_30_cast = square(x = sub_60_cast);
            tensor<int32, [3]> reduce_mean_92_axes_0 = const()[name = tensor<string, []>("reduce_mean_92_axes_0"), val = tensor<int32, [3]>([2, 3, 4])];
            tensor<bool, []> reduce_mean_92_keep_dims_0 = const()[name = tensor<string, []>("reduce_mean_92_keep_dims_0"), val = tensor<bool, []>(true)];
            tensor<fp16, [2, 32, 1, 1, 1]> reduce_mean_92_cast = reduce_mean(axes = reduce_mean_92_axes_0, keep_dims = reduce_mean_92_keep_dims_0, x = square_30_cast);
            tensor<fp16, []> add_60_y_0_to_fp16 = const()[name = tensor<string, []>("add_60_y_0_to_fp16"), val = tensor<fp16, []>(0x1.5p-17)];
            tensor<fp16, [2, 32, 1, 1, 1]> add_60_cast = add(x = reduce_mean_92_cast, y = add_60_y_0_to_fp16);
            tensor<fp16, [2, 32, 1, 1, 1]> sqrt_30_cast = sqrt(x = add_60_cast);
            tensor<fp16, [2, 32, 40, 8, 8]> real_div_30_cast = real_div(x = sub_60_cast, y = sqrt_30_cast);
            tensor<int32, [4]> reshape_121_shape_0 = const()[name = tensor<string, []>("reshape_121_shape_0"), val = tensor<int32, [4]>([2, 1280, 8, 8])];
            tensor<fp16, [2, 1280, 8, 8]> reshape_121_cast = reshape(shape = reshape_121_shape_0, x = real_div_30_cast);
            tensor<fp16, [1280]> add_61_mean_0_to_fp16 = const()[name = tensor<string, []>("add_61_mean_0_to_fp16"), val = tensor<fp16, [1280]>(BLOBFILE(path = tensor<string, []>("@model_path/weights/weight.bin"), offset = tensor<uint64, []>(858176192)))];
            tensor<fp16, [1280]> add_61_variance_0_to_fp16 = const()[name = tensor<string, []>("add_61_variance_0_to_fp16"), val = tensor<fp16, [1280]>(BLOBFILE(path = tensor<string, []>("@model_path/weights/weight.bin"), offset = tensor<uint64, []>(858178816)))];
            tensor<fp16, [1280]> add_61_gamma_0_to_fp16 = const()[name = tensor<string, []>("add_61_gamma_0_to_fp16"), val = tensor<fp16, [1280]>(BLOBFILE(path = tensor<string, []>("@model_path/weights/weight.bin"), offset = tensor<uint64, []>(858181440)))];
            tensor<fp16, [1280]> add_61_beta_0_to_fp16 = const()[name = tensor<string, []>("add_61_beta_0_to_fp16"), val = tensor<fp16, [1280]>(BLOBFILE(path = tensor<string, []>("@model_path/weights/weight.bin"), offset = tensor<uint64, []>(858184064)))];
            tensor<fp16, []> add_61_epsilon_0_to_fp16 = const()[name = tensor<string, []>("add_61_epsilon_0_to_fp16"), val = tensor<fp16, []>(0x1.5p-17)];
            tensor<fp16, [2, 1280, 8, 8]> add_61_cast = batch_norm(beta = add_61_beta_0_to_fp16, epsilon = add_61_epsilon_0_to_fp16, gamma = add_61_gamma_0_to_fp16, mean = add_61_mean_0_to_fp16, variance = add_61_variance_0_to_fp16, x = reshape_121_cast);
            tensor<fp16, [2, 1280, 8, 8]> input_265_cast = silu(x = add_61_cast);
            tensor<int32, [2]> var_4180 = const()[name = tensor<string, []>("op_4180"), val = tensor<int32, [2]>([1, 1])];
            tensor<int32, [2]> var_4182 = const()[name = tensor<string, []>("op_4182"), val = tensor<int32, [2]>([1, 1])];
            tensor<string, []> hidden_states_149_pad_type_0 = const()[name = tensor<string, []>("hidden_states_149_pad_type_0"), val = tensor<string, []>("custom")];
            tensor<int32, [4]> hidden_states_149_pad_0 = const()[name = tensor<string, []>("hidden_states_149_pad_0"), val = tensor<int32, [4]>([1, 1, 1, 1])];
            tensor<fp16, [1280, 1280, 3, 3]> up_blocks_0_resnets_1_conv2_weight_to_fp16 = const()[name = tensor<string, []>("up_blocks_0_resnets_1_conv2_weight_to_fp16"), val = tensor<fp16, [1280, 1280, 3, 3]>(BLOBFILE(path = tensor<string, []>("@model_path/weights/weight.bin"), offset = tensor<uint64, []>(858186688)))];
            tensor<fp16, [1280]> up_blocks_0_resnets_1_conv2_bias_to_fp16 = const()[name = tensor<string, []>("up_blocks_0_resnets_1_conv2_bias_to_fp16"), val = tensor<fp16, [1280]>(BLOBFILE(path = tensor<string, []>("@model_path/weights/weight.bin"), offset = tensor<uint64, []>(887677952)))];
            tensor<fp16, [2, 1280, 8, 8]> hidden_states_149_cast_1 = conv(bias = up_blocks_0_resnets_1_conv2_bias_to_fp16, dilations = var_4182, groups = var_4090, pad = hidden_states_149_pad_0, pad_type = hidden_states_149_pad_type_0, strides = var_4180, weight = up_blocks_0_resnets_1_conv2_weight_to_fp16, x = input_265_cast);
            tensor<string, []> input_169_cast_dtype_0 = const()[name = tensor<string, []>("input_169_cast_dtype_0"), val = tensor<string, []>("fp32")];
            tensor<string, []> input_253_cast_dtype_0 = const()[name = tensor<string, []>("input_253_cast_dtype_0"), val = tensor<string, []>("fp32")];
            tensor<string, []> input_89_cast_dtype_0 = const()[name = tensor<string, []>("input_89_cast_dtype_0"), val = tensor<string, []>("fp32")];
            tensor<string, []> input_171_cast_dtype_0 = const()[name = tensor<string, []>("input_171_cast_dtype_0"), val = tensor<string, []>("fp32")];
            tensor<string, []> input_143_cast_dtype_0 = const()[name = tensor<string, []>("input_143_cast_dtype_0"), val = tensor<string, []>("fp32")];
            tensor<string, []> input_35_cast_dtype_0 = const()[name = tensor<string, []>("input_35_cast_dtype_0"), val = tensor<string, []>("fp32")];
            tensor<string, []> input_61_cast_dtype_0 = const()[name = tensor<string, []>("input_61_cast_dtype_0"), val = tensor<string, []>("fp32")];
            tensor<string, []> input_7_cast_dtype_0 = const()[name = tensor<string, []>("input_7_cast_dtype_0"), val = tensor<string, []>("fp32")];
            tensor<string, []> input_63_cast_dtype_0 = const()[name = tensor<string, []>("input_63_cast_dtype_0"), val = tensor<string, []>("fp32")];
            tensor<string, []> input_115_cast_dtype_0 = const()[name = tensor<string, []>("input_115_cast_dtype_0"), val = tensor<string, []>("fp32")];
            tensor<string, []> input_117_cast_dtype_0 = const()[name = tensor<string, []>("input_117_cast_dtype_0"), val = tensor<string, []>("fp32")];
            tensor<string, []> hidden_states_149_cast_dtype_0 = const()[name = tensor<string, []>("hidden_states_149_cast_dtype_0"), val = tensor<string, []>("fp32")];
            tensor<string, []> input_15_cast_dtype_0 = const()[name = tensor<string, []>("input_15_cast_dtype_0"), val = tensor<string, []>("fp32")];
            tensor<fp32, [2, 1280, 1, 1]> input_15_cast = cast(dtype = input_15_cast_dtype_0, x = input_15_cast_1);
            tensor<fp32, [2, 1280, 8, 8]> hidden_states_149_cast = cast(dtype = hidden_states_149_cast_dtype_0, x = hidden_states_149_cast_1);
            tensor<fp32, [2, 640, 16, 16]> input_117_cast = cast(dtype = input_117_cast_dtype_0, x = input_117_cast_1);
            tensor<fp32, [2, 640, 32, 32]> input_115_cast = cast(dtype = input_115_cast_dtype_0, x = input_115_cast_1);
            tensor<fp32, [2, 320, 32, 32]> input_63_cast = cast(dtype = input_63_cast_dtype_0, x = input_63_cast_1);
            tensor<fp32, [2, 320, 64, 64]> input_7_cast = cast(dtype = input_7_cast_dtype_0, x = input_7_cast_1);
            tensor<fp32, [2, 320, 64, 64]> input_61_cast = cast(dtype = input_61_cast_dtype_0, x = input_61_cast_1);
            tensor<fp32, [2, 320, 64, 64]> input_35_cast = cast(dtype = input_35_cast_dtype_0, x = input_35_cast_1);
            tensor<fp32, [2, 1280, 16, 16]> input_143_cast = cast(dtype = input_143_cast_dtype_0, x = input_143_cast_1);
            tensor<fp32, [2, 1280, 8, 8]> input_171_cast = cast(dtype = input_171_cast_dtype_0, x = input_171_cast_1);
            tensor<fp32, [2, 640, 32, 32]> input_89_cast = cast(dtype = input_89_cast_dtype_0, x = input_89_cast_1);
            tensor<fp32, [2, 2560, 8, 8]> input_253_cast = cast(dtype = input_253_cast_dtype_0, x = input_253_cast_1);
            tensor<fp32, [2, 1280, 16, 16]> input_169_cast = cast(dtype = input_169_cast_dtype_0, x = input_169_cast_1);
        } -> (input_169_cast, input_253_cast, input_89_cast, input_171_cast, input_143_cast, input_35_cast, input_61_cast, input_7_cast, input_63_cast, input_115_cast, input_117_cast, hidden_states_149_cast, input_15_cast);
}