program(1.0)
[buildInfo = dict<tensor<string, []>, tensor<string, []>>({{"coremlc-component-MIL", "4.28.4"}, {"coremlc-version", "1429.0.0"}})]
{
    func main<ios16>(tensor<fp16, [2, 768, 1, 77]> encoder_hidden_states, tensor<fp32, [2, 1280, 8, 8]> hidden_states_149_cast, tensor<fp32, [2, 640, 32, 32]> input_115_cast, tensor<fp32, [2, 640, 16, 16]> input_117_cast, tensor<fp32, [2, 1280, 16, 16]> input_143_cast, tensor<fp32, [2, 1280, 1, 1]> input_15_cast, tensor<fp32, [2, 1280, 16, 16]> input_169_cast, tensor<fp32, [2, 1280, 8, 8]> input_171_cast, tensor<fp32, [2, 2560, 8, 8]> input_253_cast, tensor<fp32, [2, 320, 64, 64]> input_35_cast, tensor<fp32, [2, 320, 64, 64]> input_61_cast, tensor<fp32, [2, 320, 32, 32]> input_63_cast, tensor<fp32, [2, 320, 64, 64]> input_7_cast, tensor<fp32, [2, 640, 32, 32]> input_89_cast) {
            tensor<string, []> cast_13_dtype_0 = const()[name = tensor<string, []>("cast_13_dtype_0"), val = tensor<string, []>("fp16")];
            tensor<string, []> cast_2_dtype_0 = const()[name = tensor<string, []>("cast_2_dtype_0"), val = tensor<string, []>("fp16")];
            tensor<string, []> cast_12_dtype_0 = const()[name = tensor<string, []>("cast_12_dtype_0"), val = tensor<string, []>("fp16")];
            tensor<string, []> cast_3_dtype_0 = const()[name = tensor<string, []>("cast_3_dtype_0"), val = tensor<string, []>("fp16")];
            tensor<string, []> cast_6_dtype_0 = const()[name = tensor<string, []>("cast_6_dtype_0"), val = tensor<string, []>("fp16")];
            tensor<string, []> cast_8_dtype_0 = const()[name = tensor<string, []>("cast_8_dtype_0"), val = tensor<string, []>("fp16")];
            tensor<string, []> cast_4_dtype_0 = const()[name = tensor<string, []>("cast_4_dtype_0"), val = tensor<string, []>("fp16")];
            tensor<string, []> cast_9_dtype_0 = const()[name = tensor<string, []>("cast_9_dtype_0"), val = tensor<string, []>("fp16")];
            tensor<string, []> cast_14_dtype_0 = const()[name = tensor<string, []>("cast_14_dtype_0"), val = tensor<string, []>("fp16")];
            tensor<string, []> cast_7_dtype_0 = const()[name = tensor<string, []>("cast_7_dtype_0"), val = tensor<string, []>("fp16")];
            tensor<string, []> cast_10_dtype_0 = const()[name = tensor<string, []>("cast_10_dtype_0"), val = tensor<string, []>("fp16")];
            tensor<int32, []> var_4090 = const()[name = tensor<string, []>("op_4090"), val = tensor<int32, []>(1)];
            tensor<string, []> cast_11_dtype_0 = const()[name = tensor<string, []>("cast_11_dtype_0"), val = tensor<string, []>("fp16")];
            tensor<string, []> cast_5_dtype_0 = const()[name = tensor<string, []>("cast_5_dtype_0"), val = tensor<string, []>("fp16")];
            tensor<int32, [2]> var_4187 = const()[name = tensor<string, []>("op_4187"), val = tensor<int32, [2]>([1, 1])];
            tensor<int32, [2]> var_4189 = const()[name = tensor<string, []>("op_4189"), val = tensor<int32, [2]>([1, 1])];
            tensor<string, []> x_7_pad_type_0 = const()[name = tensor<string, []>("x_7_pad_type_0"), val = tensor<string, []>("custom")];
            tensor<int32, [4]> x_7_pad_0 = const()[name = tensor<string, []>("x_7_pad_0"), val = tensor<int32, [4]>([0, 0, 0, 0])];
            tensor<fp16, [1280, 2560, 1, 1]> up_blocks_0_resnets_1_conv_shortcut_weight_to_fp16 = const()[name = tensor<string, []>("up_blocks_0_resnets_1_conv_shortcut_weight_to_fp16"), val = tensor<fp16, [1280, 2560, 1, 1]>(BLOBFILE(path = tensor<string, []>("@model_path/weights/weight.bin"), offset = tensor<uint64, []>(64)))];
            tensor<fp16, [1280]> up_blocks_0_resnets_1_conv_shortcut_bias_to_fp16 = const()[name = tensor<string, []>("up_blocks_0_resnets_1_conv_shortcut_bias_to_fp16"), val = tensor<fp16, [1280]>(BLOBFILE(path = tensor<string, []>("@model_path/weights/weight.bin"), offset = tensor<uint64, []>(6553728)))];
            tensor<fp16, [2, 2560, 8, 8]> cast_2 = cast(dtype = cast_11_dtype_0, x = input_253_cast);
            tensor<fp16, [2, 1280, 8, 8]> x_7_cast = conv(bias = up_blocks_0_resnets_1_conv_shortcut_bias_to_fp16, dilations = var_4189, groups = var_4090, pad = x_7_pad_0, pad_type = x_7_pad_type_0, strides = var_4187, weight = up_blocks_0_resnets_1_conv_shortcut_weight_to_fp16, x = cast_2);
            tensor<fp16, [2, 1280, 8, 8]> cast_1 = cast(dtype = cast_5_dtype_0, x = hidden_states_149_cast);
            tensor<fp16, [2, 1280, 8, 8]> hidden_states_151_cast = add(x = x_7_cast, y = cast_1);
            tensor<bool, []> input_267_interleave_0 = const()[name = tensor<string, []>("input_267_interleave_0"), val = tensor<bool, []>(false)];
            tensor<fp16, [2, 1280, 8, 8]> cast_3 = cast(dtype = cast_10_dtype_0, x = input_171_cast);
            tensor<fp16, [2, 2560, 8, 8]> input_267_cast = concat(axis = var_4090, interleave = input_267_interleave_0, values = (hidden_states_151_cast, cast_3));
            tensor<int32, [5]> reshape_124_shape_0 = const()[name = tensor<string, []>("reshape_124_shape_0"), val = tensor<int32, [5]>([2, 32, 80, 8, 8])];
            tensor<fp16, [2, 32, 80, 8, 8]> reshape_124_cast = reshape(shape = reshape_124_shape_0, x = input_267_cast);
            tensor<int32, [3]> reduce_mean_93_axes_0 = const()[name = tensor<string, []>("reduce_mean_93_axes_0"), val = tensor<int32, [3]>([2, 3, 4])];
            tensor<bool, []> reduce_mean_93_keep_dims_0 = const()[name = tensor<string, []>("reduce_mean_93_keep_dims_0"), val = tensor<bool, []>(true)];
            tensor<fp16, [2, 32, 1, 1, 1]> reduce_mean_93_cast = reduce_mean(axes = reduce_mean_93_axes_0, keep_dims = reduce_mean_93_keep_dims_0, x = reshape_124_cast);
            tensor<fp16, [2, 32, 80, 8, 8]> sub_62_cast = sub(x = reshape_124_cast, y = reduce_mean_93_cast);
            tensor<fp16, [2, 32, 80, 8, 8]> square_31_cast = square(x = sub_62_cast);
            tensor<int32, [3]> reduce_mean_95_axes_0 = const()[name = tensor<string, []>("reduce_mean_95_axes_0"), val = tensor<int32, [3]>([2, 3, 4])];
            tensor<bool, []> reduce_mean_95_keep_dims_0 = const()[name = tensor<string, []>("reduce_mean_95_keep_dims_0"), val = tensor<bool, []>(true)];
            tensor<fp16, [2, 32, 1, 1, 1]> reduce_mean_95_cast = reduce_mean(axes = reduce_mean_95_axes_0, keep_dims = reduce_mean_95_keep_dims_0, x = square_31_cast);
            tensor<fp16, []> add_62_y_0_to_fp16 = const()[name = tensor<string, []>("add_62_y_0_to_fp16"), val = tensor<fp16, []>(0x1.5p-17)];
            tensor<fp16, [2, 32, 1, 1, 1]> add_62_cast = add(x = reduce_mean_95_cast, y = add_62_y_0_to_fp16);
            tensor<fp16, [2, 32, 1, 1, 1]> sqrt_31_cast = sqrt(x = add_62_cast);
            tensor<fp16, [2, 32, 80, 8, 8]> real_div_31_cast = real_div(x = sub_62_cast, y = sqrt_31_cast);
            tensor<int32, [4]> reshape_125_shape_0 = const()[name = tensor<string, []>("reshape_125_shape_0"), val = tensor<int32, [4]>([2, 2560, 8, 8])];
            tensor<fp16, [2, 2560, 8, 8]> reshape_125_cast = reshape(shape = reshape_125_shape_0, x = real_div_31_cast);
            tensor<fp16, [2560]> add_63_mean_0_to_fp16 = const()[name = tensor<string, []>("add_63_mean_0_to_fp16"), val = tensor<fp16, [2560]>(BLOBFILE(path = tensor<string, []>("@model_path/weights/weight.bin"), offset = tensor<uint64, []>(6556352)))];
            tensor<fp16, [2560]> add_63_variance_0_to_fp16 = const()[name = tensor<string, []>("add_63_variance_0_to_fp16"), val = tensor<fp16, [2560]>(BLOBFILE(path = tensor<string, []>("@model_path/weights/weight.bin"), offset = tensor<uint64, []>(6561536)))];
            tensor<fp16, [2560]> add_63_gamma_0_to_fp16 = const()[name = tensor<string, []>("add_63_gamma_0_to_fp16"), val = tensor<fp16, [2560]>(BLOBFILE(path = tensor<string, []>("@model_path/weights/weight.bin"), offset = tensor<uint64, []>(6566720)))];
            tensor<fp16, [2560]> add_63_beta_0_to_fp16 = const()[name = tensor<string, []>("add_63_beta_0_to_fp16"), val = tensor<fp16, [2560]>(BLOBFILE(path = tensor<string, []>("@model_path/weights/weight.bin"), offset = tensor<uint64, []>(6571904)))];
            tensor<fp16, []> add_63_epsilon_0_to_fp16 = const()[name = tensor<string, []>("add_63_epsilon_0_to_fp16"), val = tensor<fp16, []>(0x1.5p-17)];
            tensor<fp16, [2, 2560, 8, 8]> add_63_cast = batch_norm(beta = add_63_beta_0_to_fp16, epsilon = add_63_epsilon_0_to_fp16, gamma = add_63_gamma_0_to_fp16, mean = add_63_mean_0_to_fp16, variance = add_63_variance_0_to_fp16, x = reshape_125_cast);
            tensor<fp16, [2, 2560, 8, 8]> input_271_cast = silu(x = add_63_cast);
            tensor<int32, [2]> var_4207 = const()[name = tensor<string, []>("op_4207"), val = tensor<int32, [2]>([1, 1])];
            tensor<int32, [2]> var_4209 = const()[name = tensor<string, []>("op_4209"), val = tensor<int32, [2]>([1, 1])];
            tensor<string, []> hidden_states_153_pad_type_0 = const()[name = tensor<string, []>("hidden_states_153_pad_type_0"), val = tensor<string, []>("custom")];
            tensor<int32, [4]> hidden_states_153_pad_0 = const()[name = tensor<string, []>("hidden_states_153_pad_0"), val = tensor<int32, [4]>([1, 1, 1, 1])];
            tensor<fp16, [1280, 2560, 3, 3]> up_blocks_0_resnets_2_conv1_weight_to_fp16 = const()[name = tensor<string, []>("up_blocks_0_resnets_2_conv1_weight_to_fp16"), val = tensor<fp16, [1280, 2560, 3, 3]>(BLOBFILE(path = tensor<string, []>("@model_path/weights/weight.bin"), offset = tensor<uint64, []>(6577088)))];
            tensor<fp16, [1280]> up_blocks_0_resnets_2_conv1_bias_to_fp16 = const()[name = tensor<string, []>("up_blocks_0_resnets_2_conv1_bias_to_fp16"), val = tensor<fp16, [1280]>(BLOBFILE(path = tensor<string, []>("@model_path/weights/weight.bin"), offset = tensor<uint64, []>(65559552)))];
            tensor<fp16, [2, 1280, 8, 8]> hidden_states_153_cast = conv(bias = up_blocks_0_resnets_2_conv1_bias_to_fp16, dilations = var_4209, groups = var_4090, pad = hidden_states_153_pad_0, pad_type = hidden_states_153_pad_type_0, strides = var_4207, weight = up_blocks_0_resnets_2_conv1_weight_to_fp16, x = input_271_cast);
            tensor<int32, [2]> var_4215 = const()[name = tensor<string, []>("op_4215"), val = tensor<int32, [2]>([1, 1])];
            tensor<int32, [2]> var_4217 = const()[name = tensor<string, []>("op_4217"), val = tensor<int32, [2]>([1, 1])];
            tensor<string, []> temb_25_pad_type_0 = const()[name = tensor<string, []>("temb_25_pad_type_0"), val = tensor<string, []>("custom")];
            tensor<int32, [4]> temb_25_pad_0 = const()[name = tensor<string, []>("temb_25_pad_0"), val = tensor<int32, [4]>([0, 0, 0, 0])];
            tensor<fp16, [1280, 1280, 1, 1]> up_blocks_0_resnets_2_time_emb_proj_weight_to_fp16 = const()[name = tensor<string, []>("up_blocks_0_resnets_2_time_emb_proj_weight_to_fp16"), val = tensor<fp16, [1280, 1280, 1, 1]>(BLOBFILE(path = tensor<string, []>("@model_path/weights/weight.bin"), offset = tensor<uint64, []>(65562176)))];
            tensor<fp16, [1280]> up_blocks_0_resnets_2_time_emb_proj_bias_to_fp16 = const()[name = tensor<string, []>("up_blocks_0_resnets_2_time_emb_proj_bias_to_fp16"), val = tensor<fp16, [1280]>(BLOBFILE(path = tensor<string, []>("@model_path/weights/weight.bin"), offset = tensor<uint64, []>(68839040)))];
            tensor<fp16, [2, 1280, 1, 1]> cast_12 = cast(dtype = cast_2_dtype_0, x = input_15_cast);
            tensor<fp16, [2, 1280, 1, 1]> temb_25_cast = conv(bias = up_blocks_0_resnets_2_time_emb_proj_bias_to_fp16, dilations = var_4217, groups = var_4090, pad = temb_25_pad_0, pad_type = temb_25_pad_type_0, strides = var_4215, weight = up_blocks_0_resnets_2_time_emb_proj_weight_to_fp16, x = cast_12);
            tensor<fp16, [2, 1280, 8, 8]> input_275_cast = add(x = hidden_states_153_cast, y = temb_25_cast);
            tensor<int32, [5]> reshape_128_shape_0 = const()[name = tensor<string, []>("reshape_128_shape_0"), val = tensor<int32, [5]>([2, 32, 40, 8, 8])];
            tensor<fp16, [2, 32, 40, 8, 8]> reshape_128_cast = reshape(shape = reshape_128_shape_0, x = input_275_cast);
            tensor<int32, [3]> reduce_mean_96_axes_0 = const()[name = tensor<string, []>("reduce_mean_96_axes_0"), val = tensor<int32, [3]>([2, 3, 4])];
            tensor<bool, []> reduce_mean_96_keep_dims_0 = const()[name = tensor<string, []>("reduce_mean_96_keep_dims_0"), val = tensor<bool, []>(true)];
            tensor<fp16, [2, 32, 1, 1, 1]> reduce_mean_96_cast = reduce_mean(axes = reduce_mean_96_axes_0, keep_dims = reduce_mean_96_keep_dims_0, x = reshape_128_cast);
            tensor<fp16, [2, 32, 40, 8, 8]> sub_64_cast = sub(x = reshape_128_cast, y = reduce_mean_96_cast);
            tensor<fp16, [2, 32, 40, 8, 8]> square_32_cast = square(x = sub_64_cast);
            tensor<int32, [3]> reduce_mean_98_axes_0 = const()[name = tensor<string, []>("reduce_mean_98_axes_0"), val = tensor<int32, [3]>([2, 3, 4])];
            tensor<bool, []> reduce_mean_98_keep_dims_0 = const()[name = tensor<string, []>("reduce_mean_98_keep_dims_0"), val = tensor<bool, []>(true)];
            tensor<fp16, [2, 32, 1, 1, 1]> reduce_mean_98_cast = reduce_mean(axes = reduce_mean_98_axes_0, keep_dims = reduce_mean_98_keep_dims_0, x = square_32_cast);
            tensor<fp16, []> add_64_y_0_to_fp16 = const()[name = tensor<string, []>("add_64_y_0_to_fp16"), val = tensor<fp16, []>(0x1.5p-17)];
            tensor<fp16, [2, 32, 1, 1, 1]> add_64_cast = add(x = reduce_mean_98_cast, y = add_64_y_0_to_fp16);
            tensor<fp16, [2, 32, 1, 1, 1]> sqrt_32_cast = sqrt(x = add_64_cast);
            tensor<fp16, [2, 32, 40, 8, 8]> real_div_32_cast = real_div(x = sub_64_cast, y = sqrt_32_cast);
            tensor<int32, [4]> reshape_129_shape_0 = const()[name = tensor<string, []>("reshape_129_shape_0"), val = tensor<int32, [4]>([2, 1280, 8, 8])];
            tensor<fp16, [2, 1280, 8, 8]> reshape_129_cast = reshape(shape = reshape_129_shape_0, x = real_div_32_cast);
            tensor<fp16, [1280]> add_65_mean_0_to_fp16 = const()[name = tensor<string, []>("add_65_mean_0_to_fp16"), val = tensor<fp16, [1280]>(BLOBFILE(path = tensor<string, []>("@model_path/weights/weight.bin"), offset = tensor<uint64, []>(68841664)))];
            tensor<fp16, [1280]> add_65_variance_0_to_fp16 = const()[name = tensor<string, []>("add_65_variance_0_to_fp16"), val = tensor<fp16, [1280]>(BLOBFILE(path = tensor<string, []>("@model_path/weights/weight.bin"), offset = tensor<uint64, []>(68844288)))];
            tensor<fp16, [1280]> add_65_gamma_0_to_fp16 = const()[name = tensor<string, []>("add_65_gamma_0_to_fp16"), val = tensor<fp16, [1280]>(BLOBFILE(path = tensor<string, []>("@model_path/weights/weight.bin"), offset = tensor<uint64, []>(68846912)))];
            tensor<fp16, [1280]> add_65_beta_0_to_fp16 = const()[name = tensor<string, []>("add_65_beta_0_to_fp16"), val = tensor<fp16, [1280]>(BLOBFILE(path = tensor<string, []>("@model_path/weights/weight.bin"), offset = tensor<uint64, []>(68849536)))];
            tensor<fp16, []> add_65_epsilon_0_to_fp16 = const()[name = tensor<string, []>("add_65_epsilon_0_to_fp16"), val = tensor<fp16, []>(0x1.5p-17)];
            tensor<fp16, [2, 1280, 8, 8]> add_65_cast = batch_norm(beta = add_65_beta_0_to_fp16, epsilon = add_65_epsilon_0_to_fp16, gamma = add_65_gamma_0_to_fp16, mean = add_65_mean_0_to_fp16, variance = add_65_variance_0_to_fp16, x = reshape_129_cast);
            tensor<fp16, [2, 1280, 8, 8]> input_279_cast = silu(x = add_65_cast);
            tensor<int32, [2]> var_4227 = const()[name = tensor<string, []>("op_4227"), val = tensor<int32, [2]>([1, 1])];
            tensor<int32, [2]> var_4229 = const()[name = tensor<string, []>("op_4229"), val = tensor<int32, [2]>([1, 1])];
            tensor<string, []> hidden_states_155_pad_type_0 = const()[name = tensor<string, []>("hidden_states_155_pad_type_0"), val = tensor<string, []>("custom")];
            tensor<int32, [4]> hidden_states_155_pad_0 = const()[name = tensor<string, []>("hidden_states_155_pad_0"), val = tensor<int32, [4]>([1, 1, 1, 1])];
            tensor<fp16, [1280, 1280, 3, 3]> up_blocks_0_resnets_2_conv2_weight_to_fp16 = const()[name = tensor<string, []>("up_blocks_0_resnets_2_conv2_weight_to_fp16"), val = tensor<fp16, [1280, 1280, 3, 3]>(BLOBFILE(path = tensor<string, []>("@model_path/weights/weight.bin"), offset = tensor<uint64, []>(68852160)))];
            tensor<fp16, [1280]> up_blocks_0_resnets_2_conv2_bias_to_fp16 = const()[name = tensor<string, []>("up_blocks_0_resnets_2_conv2_bias_to_fp16"), val = tensor<fp16, [1280]>(BLOBFILE(path = tensor<string, []>("@model_path/weights/weight.bin"), offset = tensor<uint64, []>(98343424)))];
            tensor<fp16, [2, 1280, 8, 8]> hidden_states_155_cast = conv(bias = up_blocks_0_resnets_2_conv2_bias_to_fp16, dilations = var_4229, groups = var_4090, pad = hidden_states_155_pad_0, pad_type = hidden_states_155_pad_type_0, strides = var_4227, weight = up_blocks_0_resnets_2_conv2_weight_to_fp16, x = input_279_cast);
            tensor<int32, [2]> var_4234 = const()[name = tensor<string, []>("op_4234"), val = tensor<int32, [2]>([1, 1])];
            tensor<int32, [2]> var_4236 = const()[name = tensor<string, []>("op_4236"), val = tensor<int32, [2]>([1, 1])];
            tensor<string, []> x_9_pad_type_0 = const()[name = tensor<string, []>("x_9_pad_type_0"), val = tensor<string, []>("custom")];
            tensor<int32, [4]> x_9_pad_0 = const()[name = tensor<string, []>("x_9_pad_0"), val = tensor<int32, [4]>([0, 0, 0, 0])];
            tensor<fp16, [1280, 2560, 1, 1]> up_blocks_0_resnets_2_conv_shortcut_weight_to_fp16 = const()[name = tensor<string, []>("up_blocks_0_resnets_2_conv_shortcut_weight_to_fp16"), val = tensor<fp16, [1280, 2560, 1, 1]>(BLOBFILE(path = tensor<string, []>("@model_path/weights/weight.bin"), offset = tensor<uint64, []>(98346048)))];
            tensor<fp16, [1280]> up_blocks_0_resnets_2_conv_shortcut_bias_to_fp16 = const()[name = tensor<string, []>("up_blocks_0_resnets_2_conv_shortcut_bias_to_fp16"), val = tensor<fp16, [1280]>(BLOBFILE(path = tensor<string, []>("@model_path/weights/weight.bin"), offset = tensor<uint64, []>(104899712)))];
            tensor<fp16, [2, 1280, 8, 8]> x_9_cast = conv(bias = up_blocks_0_resnets_2_conv_shortcut_bias_to_fp16, dilations = var_4236, groups = var_4090, pad = x_9_pad_0, pad_type = x_9_pad_type_0, strides = var_4234, weight = up_blocks_0_resnets_2_conv_shortcut_weight_to_fp16, x = input_267_cast);
            tensor<fp16, [2, 1280, 8, 8]> input_281_cast = add(x = x_9_cast, y = hidden_states_155_cast);
            tensor<fp32, []> input_283_scale_factor_height_0 = const()[name = tensor<string, []>("input_283_scale_factor_height_0"), val = tensor<fp32, []>(0x1p+1)];
            tensor<fp32, []> input_283_scale_factor_width_0 = const()[name = tensor<string, []>("input_283_scale_factor_width_0"), val = tensor<fp32, []>(0x1p+1)];
            tensor<fp16, [2, 1280, 16, 16]> input_283_cast = upsample_nearest_neighbor(scale_factor_height = input_283_scale_factor_height_0, scale_factor_width = input_283_scale_factor_width_0, x = input_281_cast);
            tensor<int32, [2]> var_4245 = const()[name = tensor<string, []>("op_4245"), val = tensor<int32, [2]>([1, 1])];
            tensor<int32, [2]> var_4247 = const()[name = tensor<string, []>("op_4247"), val = tensor<int32, [2]>([1, 1])];
            tensor<string, []> hidden_states_157_pad_type_0 = const()[name = tensor<string, []>("hidden_states_157_pad_type_0"), val = tensor<string, []>("custom")];
            tensor<int32, [4]> hidden_states_157_pad_0 = const()[name = tensor<string, []>("hidden_states_157_pad_0"), val = tensor<int32, [4]>([1, 1, 1, 1])];
            tensor<fp16, [1280, 1280, 3, 3]> up_blocks_0_upsamplers_0_conv_weight_to_fp16 = const()[name = tensor<string, []>("up_blocks_0_upsamplers_0_conv_weight_to_fp16"), val = tensor<fp16, [1280, 1280, 3, 3]>(BLOBFILE(path = tensor<string, []>("@model_path/weights/weight.bin"), offset = tensor<uint64, []>(104902336)))];
            tensor<fp16, [1280]> up_blocks_0_upsamplers_0_conv_bias_to_fp16 = const()[name = tensor<string, []>("up_blocks_0_upsamplers_0_conv_bias_to_fp16"), val = tensor<fp16, [1280]>(BLOBFILE(path = tensor<string, []>("@model_path/weights/weight.bin"), offset = tensor<uint64, []>(134393600)))];
            tensor<fp16, [2, 1280, 16, 16]> hidden_states_157_cast = conv(bias = up_blocks_0_upsamplers_0_conv_bias_to_fp16, dilations = var_4247, groups = var_4090, pad = hidden_states_157_pad_0, pad_type = hidden_states_157_pad_type_0, strides = var_4245, weight = up_blocks_0_upsamplers_0_conv_weight_to_fp16, x = input_283_cast);
            tensor<bool, []> var_4267 = const()[name = tensor<string, []>("op_4267"), val = tensor<bool, []>(true)];
            tensor<int32, []> var_4272 = const()[name = tensor<string, []>("op_4272"), val = tensor<int32, []>(1)];
            tensor<bool, []> input_285_interleave_0 = const()[name = tensor<string, []>("input_285_interleave_0"), val = tensor<bool, []>(false)];
            tensor<fp16, [2, 1280, 16, 16]> cast_4 = cast(dtype = cast_7_dtype_0, x = input_169_cast);
            tensor<fp16, [2, 2560, 16, 16]> input_285_cast = concat(axis = var_4272, interleave = input_285_interleave_0, values = (hidden_states_157_cast, cast_4));
            tensor<int32, [5]> reshape_132_shape_0 = const()[name = tensor<string, []>("reshape_132_shape_0"), val = tensor<int32, [5]>([2, 32, 80, 16, 16])];
            tensor<fp16, [2, 32, 80, 16, 16]> reshape_132_cast = reshape(shape = reshape_132_shape_0, x = input_285_cast);
            tensor<int32, [3]> reduce_mean_99_axes_0 = const()[name = tensor<string, []>("reduce_mean_99_axes_0"), val = tensor<int32, [3]>([2, 3, 4])];
            tensor<bool, []> reduce_mean_99_keep_dims_0 = const()[name = tensor<string, []>("reduce_mean_99_keep_dims_0"), val = tensor<bool, []>(true)];
            tensor<fp16, [2, 32, 1, 1, 1]> reduce_mean_99_cast = reduce_mean(axes = reduce_mean_99_axes_0, keep_dims = reduce_mean_99_keep_dims_0, x = reshape_132_cast);
            tensor<fp16, [2, 32, 80, 16, 16]> sub_66_cast = sub(x = reshape_132_cast, y = reduce_mean_99_cast);
            tensor<fp16, [2, 32, 80, 16, 16]> square_33_cast = square(x = sub_66_cast);
            tensor<int32, [3]> reduce_mean_101_axes_0 = const()[name = tensor<string, []>("reduce_mean_101_axes_0"), val = tensor<int32, [3]>([2, 3, 4])];
            tensor<bool, []> reduce_mean_101_keep_dims_0 = const()[name = tensor<string, []>("reduce_mean_101_keep_dims_0"), val = tensor<bool, []>(true)];
            tensor<fp16, [2, 32, 1, 1, 1]> reduce_mean_101_cast = reduce_mean(axes = reduce_mean_101_axes_0, keep_dims = reduce_mean_101_keep_dims_0, x = square_33_cast);
            tensor<fp16, []> add_66_y_0_to_fp16 = const()[name = tensor<string, []>("add_66_y_0_to_fp16"), val = tensor<fp16, []>(0x1.5p-17)];
            tensor<fp16, [2, 32, 1, 1, 1]> add_66_cast = add(x = reduce_mean_101_cast, y = add_66_y_0_to_fp16);
            tensor<fp16, [2, 32, 1, 1, 1]> sqrt_33_cast = sqrt(x = add_66_cast);
            tensor<fp16, [2, 32, 80, 16, 16]> real_div_33_cast = real_div(x = sub_66_cast, y = sqrt_33_cast);
            tensor<int32, [4]> reshape_133_shape_0 = const()[name = tensor<string, []>("reshape_133_shape_0"), val = tensor<int32, [4]>([2, 2560, 16, 16])];
            tensor<fp16, [2, 2560, 16, 16]> reshape_133_cast = reshape(shape = reshape_133_shape_0, x = real_div_33_cast);
            tensor<fp16, [2560]> add_67_mean_0_to_fp16 = const()[name = tensor<string, []>("add_67_mean_0_to_fp16"), val = tensor<fp16, [2560]>(BLOBFILE(path = tensor<string, []>("@model_path/weights/weight.bin"), offset = tensor<uint64, []>(134396224)))];
            tensor<fp16, [2560]> add_67_variance_0_to_fp16 = const()[name = tensor<string, []>("add_67_variance_0_to_fp16"), val = tensor<fp16, [2560]>(BLOBFILE(path = tensor<string, []>("@model_path/weights/weight.bin"), offset = tensor<uint64, []>(134401408)))];
            tensor<fp16, [2560]> add_67_gamma_0_to_fp16 = const()[name = tensor<string, []>("add_67_gamma_0_to_fp16"), val = tensor<fp16, [2560]>(BLOBFILE(path = tensor<string, []>("@model_path/weights/weight.bin"), offset = tensor<uint64, []>(134406592)))];
            tensor<fp16, [2560]> add_67_beta_0_to_fp16 = const()[name = tensor<string, []>("add_67_beta_0_to_fp16"), val = tensor<fp16, [2560]>(BLOBFILE(path = tensor<string, []>("@model_path/weights/weight.bin"), offset = tensor<uint64, []>(134411776)))];
            tensor<fp16, []> add_67_epsilon_0_to_fp16 = const()[name = tensor<string, []>("add_67_epsilon_0_to_fp16"), val = tensor<fp16, []>(0x1.5p-17)];
            tensor<fp16, [2, 2560, 16, 16]> add_67_cast = batch_norm(beta = add_67_beta_0_to_fp16, epsilon = add_67_epsilon_0_to_fp16, gamma = add_67_gamma_0_to_fp16, mean = add_67_mean_0_to_fp16, variance = add_67_variance_0_to_fp16, x = reshape_133_cast);
            tensor<fp16, [2, 2560, 16, 16]> input_289_cast = silu(x = add_67_cast);
            tensor<int32, [2]> var_4301 = const()[name = tensor<string, []>("op_4301"), val = tensor<int32, [2]>([1, 1])];
            tensor<int32, [2]> var_4303 = const()[name = tensor<string, []>("op_4303"), val = tensor<int32, [2]>([1, 1])];
            tensor<string, []> hidden_states_159_pad_type_0 = const()[name = tensor<string, []>("hidden_states_159_pad_type_0"), val = tensor<string, []>("custom")];
            tensor<int32, [4]> hidden_states_159_pad_0 = const()[name = tensor<string, []>("hidden_states_159_pad_0"), val = tensor<int32, [4]>([1, 1, 1, 1])];
            tensor<fp16, [1280, 2560, 3, 3]> up_blocks_1_resnets_0_conv1_weight_to_fp16 = const()[name = tensor<string, []>("up_blocks_1_resnets_0_conv1_weight_to_fp16"), val = tensor<fp16, [1280, 2560, 3, 3]>(BLOBFILE(path = tensor<string, []>("@model_path/weights/weight.bin"), offset = tensor<uint64, []>(134416960)))];
            tensor<fp16, [1280]> up_blocks_1_resnets_0_conv1_bias_to_fp16 = const()[name = tensor<string, []>("up_blocks_1_resnets_0_conv1_bias_to_fp16"), val = tensor<fp16, [1280]>(BLOBFILE(path = tensor<string, []>("@model_path/weights/weight.bin"), offset = tensor<uint64, []>(193399424)))];
            tensor<fp16, [2, 1280, 16, 16]> hidden_states_159_cast = conv(bias = up_blocks_1_resnets_0_conv1_bias_to_fp16, dilations = var_4303, groups = var_4272, pad = hidden_states_159_pad_0, pad_type = hidden_states_159_pad_type_0, strides = var_4301, weight = up_blocks_1_resnets_0_conv1_weight_to_fp16, x = input_289_cast);
            tensor<int32, [2]> var_4309 = const()[name = tensor<string, []>("op_4309"), val = tensor<int32, [2]>([1, 1])];
            tensor<int32, [2]> var_4311 = const()[name = tensor<string, []>("op_4311"), val = tensor<int32, [2]>([1, 1])];
            tensor<string, []> temb_27_pad_type_0 = const()[name = tensor<string, []>("temb_27_pad_type_0"), val = tensor<string, []>("custom")];
            tensor<int32, [4]> temb_27_pad_0 = const()[name = tensor<string, []>("temb_27_pad_0"), val = tensor<int32, [4]>([0, 0, 0, 0])];
            tensor<fp16, [1280, 1280, 1, 1]> up_blocks_1_resnets_0_time_emb_proj_weight_to_fp16 = const()[name = tensor<string, []>("up_blocks_1_resnets_0_time_emb_proj_weight_to_fp16"), val = tensor<fp16, [1280, 1280, 1, 1]>(BLOBFILE(path = tensor<string, []>("@model_path/weights/weight.bin"), offset = tensor<uint64, []>(193402048)))];
            tensor<fp16, [1280]> up_blocks_1_resnets_0_time_emb_proj_bias_to_fp16 = const()[name = tensor<string, []>("up_blocks_1_resnets_0_time_emb_proj_bias_to_fp16"), val = tensor<fp16, [1280]>(BLOBFILE(path = tensor<string, []>("@model_path/weights/weight.bin"), offset = tensor<uint64, []>(196678912)))];
            tensor<fp16, [2, 1280, 1, 1]> temb_27_cast = conv(bias = up_blocks_1_resnets_0_time_emb_proj_bias_to_fp16, dilations = var_4311, groups = var_4272, pad = temb_27_pad_0, pad_type = temb_27_pad_type_0, strides = var_4309, weight = up_blocks_1_resnets_0_time_emb_proj_weight_to_fp16, x = cast_12);
            tensor<fp16, [2, 1280, 16, 16]> input_293_cast = add(x = hidden_states_159_cast, y = temb_27_cast);
            tensor<int32, [5]> reshape_136_shape_0 = const()[name = tensor<string, []>("reshape_136_shape_0"), val = tensor<int32, [5]>([2, 32, 40, 16, 16])];
            tensor<fp16, [2, 32, 40, 16, 16]> reshape_136_cast = reshape(shape = reshape_136_shape_0, x = input_293_cast);
            tensor<int32, [3]> reduce_mean_102_axes_0 = const()[name = tensor<string, []>("reduce_mean_102_axes_0"), val = tensor<int32, [3]>([2, 3, 4])];
            tensor<bool, []> reduce_mean_102_keep_dims_0 = const()[name = tensor<string, []>("reduce_mean_102_keep_dims_0"), val = tensor<bool, []>(true)];
            tensor<fp16, [2, 32, 1, 1, 1]> reduce_mean_102_cast = reduce_mean(axes = reduce_mean_102_axes_0, keep_dims = reduce_mean_102_keep_dims_0, x = reshape_136_cast);
            tensor<fp16, [2, 32, 40, 16, 16]> sub_68_cast = sub(x = reshape_136_cast, y = reduce_mean_102_cast);
            tensor<fp16, [2, 32, 40, 16, 16]> square_34_cast = square(x = sub_68_cast);
            tensor<int32, [3]> reduce_mean_104_axes_0 = const()[name = tensor<string, []>("reduce_mean_104_axes_0"), val = tensor<int32, [3]>([2, 3, 4])];
            tensor<bool, []> reduce_mean_104_keep_dims_0 = const()[name = tensor<string, []>("reduce_mean_104_keep_dims_0"), val = tensor<bool, []>(true)];
            tensor<fp16, [2, 32, 1, 1, 1]> reduce_mean_104_cast = reduce_mean(axes = reduce_mean_104_axes_0, keep_dims = reduce_mean_104_keep_dims_0, x = square_34_cast);
            tensor<fp16, []> add_68_y_0_to_fp16 = const()[name = tensor<string, []>("add_68_y_0_to_fp16"), val = tensor<fp16, []>(0x1.5p-17)];
            tensor<fp16, [2, 32, 1, 1, 1]> add_68_cast = add(x = reduce_mean_104_cast, y = add_68_y_0_to_fp16);
            tensor<fp16, [2, 32, 1, 1, 1]> sqrt_34_cast = sqrt(x = add_68_cast);
            tensor<fp16, [2, 32, 40, 16, 16]> real_div_34_cast = real_div(x = sub_68_cast, y = sqrt_34_cast);
            tensor<int32, [4]> reshape_137_shape_0 = const()[name = tensor<string, []>("reshape_137_shape_0"), val = tensor<int32, [4]>([2, 1280, 16, 16])];
            tensor<fp16, [2, 1280, 16, 16]> reshape_137_cast = reshape(shape = reshape_137_shape_0, x = real_div_34_cast);
            tensor<fp16, [1280]> add_69_mean_0_to_fp16 = const()[name = tensor<string, []>("add_69_mean_0_to_fp16"), val = tensor<fp16, [1280]>(BLOBFILE(path = tensor<string, []>("@model_path/weights/weight.bin"), offset = tensor<uint64, []>(196681536)))];
            tensor<fp16, [1280]> add_69_variance_0_to_fp16 = const()[name = tensor<string, []>("add_69_variance_0_to_fp16"), val = tensor<fp16, [1280]>(BLOBFILE(path = tensor<string, []>("@model_path/weights/weight.bin"), offset = tensor<uint64, []>(196684160)))];
            tensor<fp16, [1280]> add_69_gamma_0_to_fp16 = const()[name = tensor<string, []>("add_69_gamma_0_to_fp16"), val = tensor<fp16, [1280]>(BLOBFILE(path = tensor<string, []>("@model_path/weights/weight.bin"), offset = tensor<uint64, []>(196686784)))];
            tensor<fp16, [1280]> add_69_beta_0_to_fp16 = const()[name = tensor<string, []>("add_69_beta_0_to_fp16"), val = tensor<fp16, [1280]>(BLOBFILE(path = tensor<string, []>("@model_path/weights/weight.bin"), offset = tensor<uint64, []>(196689408)))];
            tensor<fp16, []> add_69_epsilon_0_to_fp16 = const()[name = tensor<string, []>("add_69_epsilon_0_to_fp16"), val = tensor<fp16, []>(0x1.5p-17)];
            tensor<fp16, [2, 1280, 16, 16]> add_69_cast = batch_norm(beta = add_69_beta_0_to_fp16, epsilon = add_69_epsilon_0_to_fp16, gamma = add_69_gamma_0_to_fp16, mean = add_69_mean_0_to_fp16, variance = add_69_variance_0_to_fp16, x = reshape_137_cast);
            tensor<fp16, [2, 1280, 16, 16]> input_297_cast = silu(x = add_69_cast);
            tensor<int32, [2]> var_4321 = const()[name = tensor<string, []>("op_4321"), val = tensor<int32, [2]>([1, 1])];
            tensor<int32, [2]> var_4323 = const()[name = tensor<string, []>("op_4323"), val = tensor<int32, [2]>([1, 1])];
            tensor<string, []> hidden_states_161_pad_type_0 = const()[name = tensor<string, []>("hidden_states_161_pad_type_0"), val = tensor<string, []>("custom")];
            tensor<int32, [4]> hidden_states_161_pad_0 = const()[name = tensor<string, []>("hidden_states_161_pad_0"), val = tensor<int32, [4]>([1, 1, 1, 1])];
            tensor<fp16, [1280, 1280, 3, 3]> up_blocks_1_resnets_0_conv2_weight_to_fp16 = const()[name = tensor<string, []>("up_blocks_1_resnets_0_conv2_weight_to_fp16"), val = tensor<fp16, [1280, 1280, 3, 3]>(BLOBFILE(path = tensor<string, []>("@model_path/weights/weight.bin"), offset = tensor<uint64, []>(196692032)))];
            tensor<fp16, [1280]> up_blocks_1_resnets_0_conv2_bias_to_fp16 = const()[name = tensor<string, []>("up_blocks_1_resnets_0_conv2_bias_to_fp16"), val = tensor<fp16, [1280]>(BLOBFILE(path = tensor<string, []>("@model_path/weights/weight.bin"), offset = tensor<uint64, []>(226183296)))];
            tensor<fp16, [2, 1280, 16, 16]> hidden_states_161_cast = conv(bias = up_blocks_1_resnets_0_conv2_bias_to_fp16, dilations = var_4323, groups = var_4272, pad = hidden_states_161_pad_0, pad_type = hidden_states_161_pad_type_0, strides = var_4321, weight = up_blocks_1_resnets_0_conv2_weight_to_fp16, x = input_297_cast);
            tensor<int32, [2]> var_4328 = const()[name = tensor<string, []>("op_4328"), val = tensor<int32, [2]>([1, 1])];
            tensor<int32, [2]> var_4330 = const()[name = tensor<string, []>("op_4330"), val = tensor<int32, [2]>([1, 1])];
            tensor<string, []> x_11_pad_type_0 = const()[name = tensor<string, []>("x_11_pad_type_0"), val = tensor<string, []>("custom")];
            tensor<int32, [4]> x_11_pad_0 = const()[name = tensor<string, []>("x_11_pad_0"), val = tensor<int32, [4]>([0, 0, 0, 0])];
            tensor<fp16, [1280, 2560, 1, 1]> up_blocks_1_resnets_0_conv_shortcut_weight_to_fp16 = const()[name = tensor<string, []>("up_blocks_1_resnets_0_conv_shortcut_weight_to_fp16"), val = tensor<fp16, [1280, 2560, 1, 1]>(BLOBFILE(path = tensor<string, []>("@model_path/weights/weight.bin"), offset = tensor<uint64, []>(226185920)))];
            tensor<fp16, [1280]> up_blocks_1_resnets_0_conv_shortcut_bias_to_fp16 = const()[name = tensor<string, []>("up_blocks_1_resnets_0_conv_shortcut_bias_to_fp16"), val = tensor<fp16, [1280]>(BLOBFILE(path = tensor<string, []>("@model_path/weights/weight.bin"), offset = tensor<uint64, []>(232739584)))];
            tensor<fp16, [2, 1280, 16, 16]> x_11_cast = conv(bias = up_blocks_1_resnets_0_conv_shortcut_bias_to_fp16, dilations = var_4330, groups = var_4272, pad = x_11_pad_0, pad_type = x_11_pad_type_0, strides = var_4328, weight = up_blocks_1_resnets_0_conv_shortcut_weight_to_fp16, x = input_285_cast);
            tensor<fp16, [2, 1280, 16, 16]> hidden_states_163_cast = add(x = x_11_cast, y = hidden_states_161_cast);
            tensor<int32, [5]> reshape_140_shape_0 = const()[name = tensor<string, []>("reshape_140_shape_0"), val = tensor<int32, [5]>([2, 32, 40, 16, 16])];
            tensor<fp16, [2, 32, 40, 16, 16]> reshape_140_cast = reshape(shape = reshape_140_shape_0, x = hidden_states_163_cast);
            tensor<int32, [3]> reduce_mean_105_axes_0 = const()[name = tensor<string, []>("reduce_mean_105_axes_0"), val = tensor<int32, [3]>([2, 3, 4])];
            tensor<bool, []> reduce_mean_105_keep_dims_0 = const()[name = tensor<string, []>("reduce_mean_105_keep_dims_0"), val = tensor<bool, []>(true)];
            tensor<fp16, [2, 32, 1, 1, 1]> reduce_mean_105_cast = reduce_mean(axes = reduce_mean_105_axes_0, keep_dims = reduce_mean_105_keep_dims_0, x = reshape_140_cast);
            tensor<fp16, [2, 32, 40, 16, 16]> sub_70_cast = sub(x = reshape_140_cast, y = reduce_mean_105_cast);
            tensor<fp16, [2, 32, 40, 16, 16]> square_35_cast = square(x = sub_70_cast);
            tensor<int32, [3]> reduce_mean_107_axes_0 = const()[name = tensor<string, []>("reduce_mean_107_axes_0"), val = tensor<int32, [3]>([2, 3, 4])];
            tensor<bool, []> reduce_mean_107_keep_dims_0 = const()[name = tensor<string, []>("reduce_mean_107_keep_dims_0"), val = tensor<bool, []>(true)];
            tensor<fp16, [2, 32, 1, 1, 1]> reduce_mean_107_cast = reduce_mean(axes = reduce_mean_107_axes_0, keep_dims = reduce_mean_107_keep_dims_0, x = square_35_cast);
            tensor<fp16, []> add_70_y_0_to_fp16 = const()[name = tensor<string, []>("add_70_y_0_to_fp16"), val = tensor<fp16, []>(0x1.1p-20)];
            tensor<fp16, [2, 32, 1, 1, 1]> add_70_cast = add(x = reduce_mean_107_cast, y = add_70_y_0_to_fp16);
            tensor<fp16, [2, 32, 1, 1, 1]> sqrt_35_cast = sqrt(x = add_70_cast);
            tensor<fp16, [2, 32, 40, 16, 16]> real_div_35_cast = real_div(x = sub_70_cast, y = sqrt_35_cast);
            tensor<int32, [4]> reshape_141_shape_0 = const()[name = tensor<string, []>("reshape_141_shape_0"), val = tensor<int32, [4]>([2, 1280, 16, 16])];
            tensor<fp16, [2, 1280, 16, 16]> reshape_141_cast = reshape(shape = reshape_141_shape_0, x = real_div_35_cast);
            tensor<fp16, [1280]> add_71_mean_0_to_fp16 = const()[name = tensor<string, []>("add_71_mean_0_to_fp16"), val = tensor<fp16, [1280]>(BLOBFILE(path = tensor<string, []>("@model_path/weights/weight.bin"), offset = tensor<uint64, []>(232742208)))];
            tensor<fp16, [1280]> add_71_variance_0_to_fp16 = const()[name = tensor<string, []>("add_71_variance_0_to_fp16"), val = tensor<fp16, [1280]>(BLOBFILE(path = tensor<string, []>("@model_path/weights/weight.bin"), offset = tensor<uint64, []>(232744832)))];
            tensor<fp16, [1280]> add_71_gamma_0_to_fp16 = const()[name = tensor<string, []>("add_71_gamma_0_to_fp16"), val = tensor<fp16, [1280]>(BLOBFILE(path = tensor<string, []>("@model_path/weights/weight.bin"), offset = tensor<uint64, []>(232747456)))];
            tensor<fp16, [1280]> add_71_beta_0_to_fp16 = const()[name = tensor<string, []>("add_71_beta_0_to_fp16"), val = tensor<fp16, [1280]>(BLOBFILE(path = tensor<string, []>("@model_path/weights/weight.bin"), offset = tensor<uint64, []>(232750080)))];
            tensor<fp16, []> add_71_epsilon_0_to_fp16 = const()[name = tensor<string, []>("add_71_epsilon_0_to_fp16"), val = tensor<fp16, []>(0x1.5p-17)];
            tensor<fp16, [2, 1280, 16, 16]> add_71_cast = batch_norm(beta = add_71_beta_0_to_fp16, epsilon = add_71_epsilon_0_to_fp16, gamma = add_71_gamma_0_to_fp16, mean = add_71_mean_0_to_fp16, variance = add_71_variance_0_to_fp16, x = reshape_141_cast);
            tensor<int32, [2]> var_4350 = const()[name = tensor<string, []>("op_4350"), val = tensor<int32, [2]>([1, 1])];
            tensor<int32, [2]> var_4352 = const()[name = tensor<string, []>("op_4352"), val = tensor<int32, [2]>([1, 1])];
            tensor<string, []> hidden_states_165_pad_type_0 = const()[name = tensor<string, []>("hidden_states_165_pad_type_0"), val = tensor<string, []>("custom")];
            tensor<int32, [4]> hidden_states_165_pad_0 = const()[name = tensor<string, []>("hidden_states_165_pad_0"), val = tensor<int32, [4]>([0, 0, 0, 0])];
            tensor<fp16, [1280, 1280, 1, 1]> up_blocks_1_attentions_0_proj_in_weight_to_fp16 = const()[name = tensor<string, []>("up_blocks_1_attentions_0_proj_in_weight_to_fp16"), val = tensor<fp16, [1280, 1280, 1, 1]>(BLOBFILE(path = tensor<string, []>("@model_path/weights/weight.bin"), offset = tensor<uint64, []>(232752704)))];
            tensor<fp16, [1280]> up_blocks_1_attentions_0_proj_in_bias_to_fp16 = const()[name = tensor<string, []>("up_blocks_1_attentions_0_proj_in_bias_to_fp16"), val = tensor<fp16, [1280]>(BLOBFILE(path = tensor<string, []>("@model_path/weights/weight.bin"), offset = tensor<uint64, []>(236029568)))];
            tensor<fp16, [2, 1280, 16, 16]> hidden_states_165_cast = conv(bias = up_blocks_1_attentions_0_proj_in_bias_to_fp16, dilations = var_4352, groups = var_4272, pad = hidden_states_165_pad_0, pad_type = hidden_states_165_pad_type_0, strides = var_4350, weight = up_blocks_1_attentions_0_proj_in_weight_to_fp16, x = add_71_cast);
            tensor<int32, [4]> var_4357 = const()[name = tensor<string, []>("op_4357"), val = tensor<int32, [4]>([2, 1280, 1, 256])];
            tensor<fp16, [2, 1280, 1, 256]> inputs_43_cast = reshape(shape = var_4357, x = hidden_states_165_cast);
            tensor<int32, [1]> var_4367 = const()[name = tensor<string, []>("op_4367"), val = tensor<int32, [1]>([1])];
            tensor<fp16, [2, 1, 1, 256]> channels_mean_43_cast = reduce_mean(axes = var_4367, keep_dims = var_4267, x = inputs_43_cast);
            tensor<fp16, [2, 1280, 1, 256]> zero_mean_43_cast = sub(x = inputs_43_cast, y = channels_mean_43_cast);
            tensor<fp16, [2, 1280, 1, 256]> zero_mean_sq_43_cast = mul(x = zero_mean_43_cast, y = zero_mean_43_cast);
            tensor<int32, [1]> var_4371 = const()[name = tensor<string, []>("op_4371"), val = tensor<int32, [1]>([1])];
            tensor<fp16, [2, 1, 1, 256]> var_4372_cast = reduce_mean(axes = var_4371, keep_dims = var_4267, x = zero_mean_sq_43_cast);
            tensor<fp16, []> var_4373_to_fp16 = const()[name = tensor<string, []>("op_4373_to_fp16"), val = tensor<fp16, []>(0x1.5p-17)];
            tensor<fp16, [2, 1, 1, 256]> var_4374_cast = add(x = var_4372_cast, y = var_4373_to_fp16);
            tensor<fp16, []> denom_43_epsilon_0_to_fp16 = const()[name = tensor<string, []>("denom_43_epsilon_0_to_fp16"), val = tensor<fp16, []>(0x1p-24)];
            tensor<fp16, [2, 1, 1, 256]> denom_43_cast = rsqrt(epsilon = denom_43_epsilon_0_to_fp16, x = var_4374_cast);
            tensor<fp16, [2, 1280, 1, 256]> out_43_cast = mul(x = zero_mean_43_cast, y = denom_43_cast);
            tensor<fp16, [1, 1280, 1, 1]> var_4378_to_fp16 = const()[name = tensor<string, []>("op_4378_to_fp16"), val = tensor<fp16, [1, 1280, 1, 1]>(BLOBFILE(path = tensor<string, []>("@model_path/weights/weight.bin"), offset = tensor<uint64, []>(236032192)))];
            tensor<fp16, [2, 1280, 1, 256]> var_4379_cast = add(x = out_43_cast, y = var_4378_to_fp16);
            tensor<fp16, [1, 1280, 1, 1]> var_4381_to_fp16 = const()[name = tensor<string, []>("op_4381_to_fp16"), val = tensor<fp16, [1, 1280, 1, 1]>(BLOBFILE(path = tensor<string, []>("@model_path/weights/weight.bin"), offset = tensor<uint64, []>(236034816)))];
            tensor<fp16, [2, 1280, 1, 256]> hidden_states_167_cast = mul(x = var_4379_cast, y = var_4381_to_fp16);
            tensor<int32, [2]> var_4388 = const()[name = tensor<string, []>("op_4388"), val = tensor<int32, [2]>([1, 1])];
            tensor<int32, [2]> var_4390 = const()[name = tensor<string, []>("op_4390"), val = tensor<int32, [2]>([1, 1])];
            tensor<string, []> q_29_pad_type_0 = const()[name = tensor<string, []>("q_29_pad_type_0"), val = tensor<string, []>("custom")];
            tensor<int32, [4]> q_29_pad_0 = const()[name = tensor<string, []>("q_29_pad_0"), val = tensor<int32, [4]>([0, 0, 0, 0])];
            tensor<fp16, [1280, 1280, 1, 1]> up_blocks_1_attentions_0_transformer_blocks_0_attn1_to_q_weight_to_fp16 = const()[name = tensor<string, []>("up_blocks_1_attentions_0_transformer_blocks_0_attn1_to_q_weight_to_fp16"), val = tensor<fp16, [1280, 1280, 1, 1]>(BLOBFILE(path = tensor<string, []>("@model_path/weights/weight.bin"), offset = tensor<uint64, []>(236037440)))];
            tensor<fp16, [2, 1280, 1, 256]> q_29_cast = conv(dilations = var_4390, groups = var_4272, pad = q_29_pad_0, pad_type = q_29_pad_type_0, strides = var_4388, weight = up_blocks_1_attentions_0_transformer_blocks_0_attn1_to_q_weight_to_fp16, x = hidden_states_167_cast);
            tensor<int32, [2]> var_4394 = const()[name = tensor<string, []>("op_4394"), val = tensor<int32, [2]>([1, 1])];
            tensor<int32, [2]> var_4396 = const()[name = tensor<string, []>("op_4396"), val = tensor<int32, [2]>([1, 1])];
            tensor<string, []> k_57_pad_type_0 = const()[name = tensor<string, []>("k_57_pad_type_0"), val = tensor<string, []>("custom")];
            tensor<int32, [4]> k_57_pad_0 = const()[name = tensor<string, []>("k_57_pad_0"), val = tensor<int32, [4]>([0, 0, 0, 0])];
            tensor<fp16, [1280, 1280, 1, 1]> up_blocks_1_attentions_0_transformer_blocks_0_attn1_to_k_weight_to_fp16 = const()[name = tensor<string, []>("up_blocks_1_attentions_0_transformer_blocks_0_attn1_to_k_weight_to_fp16"), val = tensor<fp16, [1280, 1280, 1, 1]>(BLOBFILE(path = tensor<string, []>("@model_path/weights/weight.bin"), offset = tensor<uint64, []>(239314304)))];
            tensor<fp16, [2, 1280, 1, 256]> k_57_cast = conv(dilations = var_4396, groups = var_4272, pad = k_57_pad_0, pad_type = k_57_pad_type_0, strides = var_4394, weight = up_blocks_1_attentions_0_transformer_blocks_0_attn1_to_k_weight_to_fp16, x = hidden_states_167_cast);
            tensor<int32, [2]> var_4400 = const()[name = tensor<string, []>("op_4400"), val = tensor<int32, [2]>([1, 1])];
            tensor<int32, [2]> var_4402 = const()[name = tensor<string, []>("op_4402"), val = tensor<int32, [2]>([1, 1])];
            tensor<string, []> v_29_pad_type_0 = const()[name = tensor<string, []>("v_29_pad_type_0"), val = tensor<string, []>("custom")];
            tensor<int32, [4]> v_29_pad_0 = const()[name = tensor<string, []>("v_29_pad_0"), val = tensor<int32, [4]>([0, 0, 0, 0])];
            tensor<fp16, [1280, 1280, 1, 1]> up_blocks_1_attentions_0_transformer_blocks_0_attn1_to_v_weight_to_fp16 = const()[name = tensor<string, []>("up_blocks_1_attentions_0_transformer_blocks_0_attn1_to_v_weight_to_fp16"), val = tensor<fp16, [1280, 1280, 1, 1]>(BLOBFILE(path = tensor<string, []>("@model_path/weights/weight.bin"), offset = tensor<uint64, []>(242591168)))];
            tensor<fp16, [2, 1280, 1, 256]> v_29_cast = conv(dilations = var_4402, groups = var_4272, pad = v_29_pad_0, pad_type = v_29_pad_type_0, strides = var_4400, weight = up_blocks_1_attentions_0_transformer_blocks_0_attn1_to_v_weight_to_fp16, x = hidden_states_167_cast);
            tensor<int32, [4]> var_4406_begin_0 = const()[name = tensor<string, []>("op_4406_begin_0"), val = tensor<int32, [4]>([0, 0, 0, 0])];
            tensor<int32, [4]> var_4406_end_0 = const()[name = tensor<string, []>("op_4406_end_0"), val = tensor<int32, [4]>([2, 160, 1, 256])];
            tensor<bool, [4]> var_4406_end_mask_0 = const()[name = tensor<string, []>("op_4406_end_mask_0"), val = tensor<bool, [4]>([true, false, true, true])];
            tensor<fp16, [2, 160, 1, 256]> var_4406_cast = slice_by_index(begin = var_4406_begin_0, end = var_4406_end_0, end_mask = var_4406_end_mask_0, x = q_29_cast);
            tensor<int32, [4]> var_4410_begin_0 = const()[name = tensor<string, []>("op_4410_begin_0"), val = tensor<int32, [4]>([0, 160, 0, 0])];
            tensor<int32, [4]> var_4410_end_0 = const()[name = tensor<string, []>("op_4410_end_0"), val = tensor<int32, [4]>([2, 320, 1, 256])];
            tensor<bool, [4]> var_4410_end_mask_0 = const()[name = tensor<string, []>("op_4410_end_mask_0"), val = tensor<bool, [4]>([true, false, true, true])];
            tensor<fp16, [2, 160, 1, 256]> var_4410_cast = slice_by_index(begin = var_4410_begin_0, end = var_4410_end_0, end_mask = var_4410_end_mask_0, x = q_29_cast);
            tensor<int32, [4]> var_4414_begin_0 = const()[name = tensor<string, []>("op_4414_begin_0"), val = tensor<int32, [4]>([0, 320, 0, 0])];
            tensor<int32, [4]> var_4414_end_0 = const()[name = tensor<string, []>("op_4414_end_0"), val = tensor<int32, [4]>([2, 480, 1, 256])];
            tensor<bool, [4]> var_4414_end_mask_0 = const()[name = tensor<string, []>("op_4414_end_mask_0"), val = tensor<bool, [4]>([true, false, true, true])];
            tensor<fp16, [2, 160, 1, 256]> var_4414_cast = slice_by_index(begin = var_4414_begin_0, end = var_4414_end_0, end_mask = var_4414_end_mask_0, x = q_29_cast);
            tensor<int32, [4]> var_4418_begin_0 = const()[name = tensor<string, []>("op_4418_begin_0"), val = tensor<int32, [4]>([0, 480, 0, 0])];
            tensor<int32, [4]> var_4418_end_0 = const()[name = tensor<string, []>("op_4418_end_0"), val = tensor<int32, [4]>([2, 640, 1, 256])];
            tensor<bool, [4]> var_4418_end_mask_0 = const()[name = tensor<string, []>("op_4418_end_mask_0"), val = tensor<bool, [4]>([true, false, true, true])];
            tensor<fp16, [2, 160, 1, 256]> var_4418_cast = slice_by_index(begin = var_4418_begin_0, end = var_4418_end_0, end_mask = var_4418_end_mask_0, x = q_29_cast);
            tensor<int32, [4]> var_4422_begin_0 = const()[name = tensor<string, []>("op_4422_begin_0"), val = tensor<int32, [4]>([0, 640, 0, 0])];
            tensor<int32, [4]> var_4422_end_0 = const()[name = tensor<string, []>("op_4422_end_0"), val = tensor<int32, [4]>([2, 800, 1, 256])];
            tensor<bool, [4]> var_4422_end_mask_0 = const()[name = tensor<string, []>("op_4422_end_mask_0"), val = tensor<bool, [4]>([true, false, true, true])];
            tensor<fp16, [2, 160, 1, 256]> var_4422_cast = slice_by_index(begin = var_4422_begin_0, end = var_4422_end_0, end_mask = var_4422_end_mask_0, x = q_29_cast);
            tensor<int32, [4]> var_4426_begin_0 = const()[name = tensor<string, []>("op_4426_begin_0"), val = tensor<int32, [4]>([0, 800, 0, 0])];
            tensor<int32, [4]> var_4426_end_0 = const()[name = tensor<string, []>("op_4426_end_0"), val = tensor<int32, [4]>([2, 960, 1, 256])];
            tensor<bool, [4]> var_4426_end_mask_0 = const()[name = tensor<string, []>("op_4426_end_mask_0"), val = tensor<bool, [4]>([true, false, true, true])];
            tensor<fp16, [2, 160, 1, 256]> var_4426_cast = slice_by_index(begin = var_4426_begin_0, end = var_4426_end_0, end_mask = var_4426_end_mask_0, x = q_29_cast);
            tensor<int32, [4]> var_4430_begin_0 = const()[name = tensor<string, []>("op_4430_begin_0"), val = tensor<int32, [4]>([0, 960, 0, 0])];
            tensor<int32, [4]> var_4430_end_0 = const()[name = tensor<string, []>("op_4430_end_0"), val = tensor<int32, [4]>([2, 1120, 1, 256])];
            tensor<bool, [4]> var_4430_end_mask_0 = const()[name = tensor<string, []>("op_4430_end_mask_0"), val = tensor<bool, [4]>([true, false, true, true])];
            tensor<fp16, [2, 160, 1, 256]> var_4430_cast = slice_by_index(begin = var_4430_begin_0, end = var_4430_end_0, end_mask = var_4430_end_mask_0, x = q_29_cast);
            tensor<int32, [4]> var_4434_begin_0 = const()[name = tensor<string, []>("op_4434_begin_0"), val = tensor<int32, [4]>([0, 1120, 0, 0])];
            tensor<int32, [4]> var_4434_end_0 = const()[name = tensor<string, []>("op_4434_end_0"), val = tensor<int32, [4]>([2, 1280, 1, 256])];
            tensor<bool, [4]> var_4434_end_mask_0 = const()[name = tensor<string, []>("op_4434_end_mask_0"), val = tensor<bool, [4]>([true, false, true, true])];
            tensor<fp16, [2, 160, 1, 256]> var_4434_cast = slice_by_index(begin = var_4434_begin_0, end = var_4434_end_0, end_mask = var_4434_end_mask_0, x = q_29_cast);
            tensor<int32, [4]> k_59_perm_0 = const()[name = tensor<string, []>("k_59_perm_0"), val = tensor<int32, [4]>([0, 3, 2, 1])];
            tensor<int32, [4]> var_4441_begin_0 = const()[name = tensor<string, []>("op_4441_begin_0"), val = tensor<int32, [4]>([0, 0, 0, 0])];
            tensor<int32, [4]> var_4441_end_0 = const()[name = tensor<string, []>("op_4441_end_0"), val = tensor<int32, [4]>([2, 256, 1, 160])];
            tensor<bool, [4]> var_4441_end_mask_0 = const()[name = tensor<string, []>("op_4441_end_mask_0"), val = tensor<bool, [4]>([true, true, true, false])];
            tensor<fp16, [2, 256, 1, 1280]> transpose_17 = transpose(perm = k_59_perm_0, x = k_57_cast);
            tensor<fp16, [2, 256, 1, 160]> var_4441_cast = slice_by_index(begin = var_4441_begin_0, end = var_4441_end_0, end_mask = var_4441_end_mask_0, x = transpose_17);
            tensor<int32, [4]> var_4445_begin_0 = const()[name = tensor<string, []>("op_4445_begin_0"), val = tensor<int32, [4]>([0, 0, 0, 160])];
            tensor<int32, [4]> var_4445_end_0 = const()[name = tensor<string, []>("op_4445_end_0"), val = tensor<int32, [4]>([2, 256, 1, 320])];
            tensor<bool, [4]> var_4445_end_mask_0 = const()[name = tensor<string, []>("op_4445_end_mask_0"), val = tensor<bool, [4]>([true, true, true, false])];
            tensor<fp16, [2, 256, 1, 160]> var_4445_cast = slice_by_index(begin = var_4445_begin_0, end = var_4445_end_0, end_mask = var_4445_end_mask_0, x = transpose_17);
            tensor<int32, [4]> var_4449_begin_0 = const()[name = tensor<string, []>("op_4449_begin_0"), val = tensor<int32, [4]>([0, 0, 0, 320])];
            tensor<int32, [4]> var_4449_end_0 = const()[name = tensor<string, []>("op_4449_end_0"), val = tensor<int32, [4]>([2, 256, 1, 480])];
            tensor<bool, [4]> var_4449_end_mask_0 = const()[name = tensor<string, []>("op_4449_end_mask_0"), val = tensor<bool, [4]>([true, true, true, false])];
            tensor<fp16, [2, 256, 1, 160]> var_4449_cast = slice_by_index(begin = var_4449_begin_0, end = var_4449_end_0, end_mask = var_4449_end_mask_0, x = transpose_17);
            tensor<int32, [4]> var_4453_begin_0 = const()[name = tensor<string, []>("op_4453_begin_0"), val = tensor<int32, [4]>([0, 0, 0, 480])];
            tensor<int32, [4]> var_4453_end_0 = const()[name = tensor<string, []>("op_4453_end_0"), val = tensor<int32, [4]>([2, 256, 1, 640])];
            tensor<bool, [4]> var_4453_end_mask_0 = const()[name = tensor<string, []>("op_4453_end_mask_0"), val = tensor<bool, [4]>([true, true, true, false])];
            tensor<fp16, [2, 256, 1, 160]> var_4453_cast = slice_by_index(begin = var_4453_begin_0, end = var_4453_end_0, end_mask = var_4453_end_mask_0, x = transpose_17);
            tensor<int32, [4]> var_4457_begin_0 = const()[name = tensor<string, []>("op_4457_begin_0"), val = tensor<int32, [4]>([0, 0, 0, 640])];
            tensor<int32, [4]> var_4457_end_0 = const()[name = tensor<string, []>("op_4457_end_0"), val = tensor<int32, [4]>([2, 256, 1, 800])];
            tensor<bool, [4]> var_4457_end_mask_0 = const()[name = tensor<string, []>("op_4457_end_mask_0"), val = tensor<bool, [4]>([true, true, true, false])];
            tensor<fp16, [2, 256, 1, 160]> var_4457_cast = slice_by_index(begin = var_4457_begin_0, end = var_4457_end_0, end_mask = var_4457_end_mask_0, x = transpose_17);
            tensor<int32, [4]> var_4461_begin_0 = const()[name = tensor<string, []>("op_4461_begin_0"), val = tensor<int32, [4]>([0, 0, 0, 800])];
            tensor<int32, [4]> var_4461_end_0 = const()[name = tensor<string, []>("op_4461_end_0"), val = tensor<int32, [4]>([2, 256, 1, 960])];
            tensor<bool, [4]> var_4461_end_mask_0 = const()[name = tensor<string, []>("op_4461_end_mask_0"), val = tensor<bool, [4]>([true, true, true, false])];
            tensor<fp16, [2, 256, 1, 160]> var_4461_cast = slice_by_index(begin = var_4461_begin_0, end = var_4461_end_0, end_mask = var_4461_end_mask_0, x = transpose_17);
            tensor<int32, [4]> var_4465_begin_0 = const()[name = tensor<string, []>("op_4465_begin_0"), val = tensor<int32, [4]>([0, 0, 0, 960])];
            tensor<int32, [4]> var_4465_end_0 = const()[name = tensor<string, []>("op_4465_end_0"), val = tensor<int32, [4]>([2, 256, 1, 1120])];
            tensor<bool, [4]> var_4465_end_mask_0 = const()[name = tensor<string, []>("op_4465_end_mask_0"), val = tensor<bool, [4]>([true, true, true, false])];
            tensor<fp16, [2, 256, 1, 160]> var_4465_cast = slice_by_index(begin = var_4465_begin_0, end = var_4465_end_0, end_mask = var_4465_end_mask_0, x = transpose_17);
            tensor<int32, [4]> var_4469_begin_0 = const()[name = tensor<string, []>("op_4469_begin_0"), val = tensor<int32, [4]>([0, 0, 0, 1120])];
            tensor<int32, [4]> var_4469_end_0 = const()[name = tensor<string, []>("op_4469_end_0"), val = tensor<int32, [4]>([2, 256, 1, 1280])];
            tensor<bool, [4]> var_4469_end_mask_0 = const()[name = tensor<string, []>("op_4469_end_mask_0"), val = tensor<bool, [4]>([true, true, true, false])];
            tensor<fp16, [2, 256, 1, 160]> var_4469_cast = slice_by_index(begin = var_4469_begin_0, end = var_4469_end_0, end_mask = var_4469_end_mask_0, x = transpose_17);
            tensor<int32, [4]> var_4471_begin_0 = const()[name = tensor<string, []>("op_4471_begin_0"), val = tensor<int32, [4]>([0, 0, 0, 0])];
            tensor<int32, [4]> var_4471_end_0 = const()[name = tensor<string, []>("op_4471_end_0"), val = tensor<int32, [4]>([2, 160, 1, 256])];
            tensor<bool, [4]> var_4471_end_mask_0 = const()[name = tensor<string, []>("op_4471_end_mask_0"), val = tensor<bool, [4]>([true, false, true, true])];
            tensor<fp16, [2, 160, 1, 256]> var_4471_cast = slice_by_index(begin = var_4471_begin_0, end = var_4471_end_0, end_mask = var_4471_end_mask_0, x = v_29_cast);
            tensor<int32, [4]> var_4475_begin_0 = const()[name = tensor<string, []>("op_4475_begin_0"), val = tensor<int32, [4]>([0, 160, 0, 0])];
            tensor<int32, [4]> var_4475_end_0 = const()[name = tensor<string, []>("op_4475_end_0"), val = tensor<int32, [4]>([2, 320, 1, 256])];
            tensor<bool, [4]> var_4475_end_mask_0 = const()[name = tensor<string, []>("op_4475_end_mask_0"), val = tensor<bool, [4]>([true, false, true, true])];
            tensor<fp16, [2, 160, 1, 256]> var_4475_cast = slice_by_index(begin = var_4475_begin_0, end = var_4475_end_0, end_mask = var_4475_end_mask_0, x = v_29_cast);
            tensor<int32, [4]> var_4479_begin_0 = const()[name = tensor<string, []>("op_4479_begin_0"), val = tensor<int32, [4]>([0, 320, 0, 0])];
            tensor<int32, [4]> var_4479_end_0 = const()[name = tensor<string, []>("op_4479_end_0"), val = tensor<int32, [4]>([2, 480, 1, 256])];
            tensor<bool, [4]> var_4479_end_mask_0 = const()[name = tensor<string, []>("op_4479_end_mask_0"), val = tensor<bool, [4]>([true, false, true, true])];
            tensor<fp16, [2, 160, 1, 256]> var_4479_cast = slice_by_index(begin = var_4479_begin_0, end = var_4479_end_0, end_mask = var_4479_end_mask_0, x = v_29_cast);
            tensor<int32, [4]> var_4483_begin_0 = const()[name = tensor<string, []>("op_4483_begin_0"), val = tensor<int32, [4]>([0, 480, 0, 0])];
            tensor<int32, [4]> var_4483_end_0 = const()[name = tensor<string, []>("op_4483_end_0"), val = tensor<int32, [4]>([2, 640, 1, 256])];
            tensor<bool, [4]> var_4483_end_mask_0 = const()[name = tensor<string, []>("op_4483_end_mask_0"), val = tensor<bool, [4]>([true, false, true, true])];
            tensor<fp16, [2, 160, 1, 256]> var_4483_cast = slice_by_index(begin = var_4483_begin_0, end = var_4483_end_0, end_mask = var_4483_end_mask_0, x = v_29_cast);
            tensor<int32, [4]> var_4487_begin_0 = const()[name = tensor<string, []>("op_4487_begin_0"), val = tensor<int32, [4]>([0, 640, 0, 0])];
            tensor<int32, [4]> var_4487_end_0 = const()[name = tensor<string, []>("op_4487_end_0"), val = tensor<int32, [4]>([2, 800, 1, 256])];
            tensor<bool, [4]> var_4487_end_mask_0 = const()[name = tensor<string, []>("op_4487_end_mask_0"), val = tensor<bool, [4]>([true, false, true, true])];
            tensor<fp16, [2, 160, 1, 256]> var_4487_cast = slice_by_index(begin = var_4487_begin_0, end = var_4487_end_0, end_mask = var_4487_end_mask_0, x = v_29_cast);
            tensor<int32, [4]> var_4491_begin_0 = const()[name = tensor<string, []>("op_4491_begin_0"), val = tensor<int32, [4]>([0, 800, 0, 0])];
            tensor<int32, [4]> var_4491_end_0 = const()[name = tensor<string, []>("op_4491_end_0"), val = tensor<int32, [4]>([2, 960, 1, 256])];
            tensor<bool, [4]> var_4491_end_mask_0 = const()[name = tensor<string, []>("op_4491_end_mask_0"), val = tensor<bool, [4]>([true, false, true, true])];
            tensor<fp16, [2, 160, 1, 256]> var_4491_cast = slice_by_index(begin = var_4491_begin_0, end = var_4491_end_0, end_mask = var_4491_end_mask_0, x = v_29_cast);
            tensor<int32, [4]> var_4495_begin_0 = const()[name = tensor<string, []>("op_4495_begin_0"), val = tensor<int32, [4]>([0, 960, 0, 0])];
            tensor<int32, [4]> var_4495_end_0 = const()[name = tensor<string, []>("op_4495_end_0"), val = tensor<int32, [4]>([2, 1120, 1, 256])];
            tensor<bool, [4]> var_4495_end_mask_0 = const()[name = tensor<string, []>("op_4495_end_mask_0"), val = tensor<bool, [4]>([true, false, true, true])];
            tensor<fp16, [2, 160, 1, 256]> var_4495_cast = slice_by_index(begin = var_4495_begin_0, end = var_4495_end_0, end_mask = var_4495_end_mask_0, x = v_29_cast);
            tensor<int32, [4]> var_4499_begin_0 = const()[name = tensor<string, []>("op_4499_begin_0"), val = tensor<int32, [4]>([0, 1120, 0, 0])];
            tensor<int32, [4]> var_4499_end_0 = const()[name = tensor<string, []>("op_4499_end_0"), val = tensor<int32, [4]>([2, 1280, 1, 256])];
            tensor<bool, [4]> var_4499_end_mask_0 = const()[name = tensor<string, []>("op_4499_end_mask_0"), val = tensor<bool, [4]>([true, false, true, true])];
            tensor<fp16, [2, 160, 1, 256]> var_4499_cast = slice_by_index(begin = var_4499_begin_0, end = var_4499_end_0, end_mask = var_4499_end_mask_0, x = v_29_cast);
            tensor<string, []> var_4503_equation_0 = const()[name = tensor<string, []>("op_4503_equation_0"), val = tensor<string, []>("bkhc,bchq->bkhq")];
            tensor<fp16, [2, 256, 1, 256]> var_4503_cast = einsum(equation = var_4503_equation_0, values = (var_4441_cast, var_4406_cast));
            tensor<fp16, []> var_4504_to_fp16 = const()[name = tensor<string, []>("op_4504_to_fp16"), val = tensor<fp16, []>(0x1.43cp-4)];
            tensor<fp16, [2, 256, 1, 256]> aw_225_cast = mul(x = var_4503_cast, y = var_4504_to_fp16);
            tensor<string, []> var_4507_equation_0 = const()[name = tensor<string, []>("op_4507_equation_0"), val = tensor<string, []>("bkhc,bchq->bkhq")];
            tensor<fp16, [2, 256, 1, 256]> var_4507_cast = einsum(equation = var_4507_equation_0, values = (var_4445_cast, var_4410_cast));
            tensor<fp16, []> var_4508_to_fp16 = const()[name = tensor<string, []>("op_4508_to_fp16"), val = tensor<fp16, []>(0x1.43cp-4)];
            tensor<fp16, [2, 256, 1, 256]> aw_227_cast = mul(x = var_4507_cast, y = var_4508_to_fp16);
            tensor<string, []> var_4511_equation_0 = const()[name = tensor<string, []>("op_4511_equation_0"), val = tensor<string, []>("bkhc,bchq->bkhq")];
            tensor<fp16, [2, 256, 1, 256]> var_4511_cast = einsum(equation = var_4511_equation_0, values = (var_4449_cast, var_4414_cast));
            tensor<fp16, []> var_4512_to_fp16 = const()[name = tensor<string, []>("op_4512_to_fp16"), val = tensor<fp16, []>(0x1.43cp-4)];
            tensor<fp16, [2, 256, 1, 256]> aw_229_cast = mul(x = var_4511_cast, y = var_4512_to_fp16);
            tensor<string, []> var_4515_equation_0 = const()[name = tensor<string, []>("op_4515_equation_0"), val = tensor<string, []>("bkhc,bchq->bkhq")];
            tensor<fp16, [2, 256, 1, 256]> var_4515_cast = einsum(equation = var_4515_equation_0, values = (var_4453_cast, var_4418_cast));
            tensor<fp16, []> var_4516_to_fp16 = const()[name = tensor<string, []>("op_4516_to_fp16"), val = tensor<fp16, []>(0x1.43cp-4)];
            tensor<fp16, [2, 256, 1, 256]> aw_231_cast = mul(x = var_4515_cast, y = var_4516_to_fp16);
            tensor<string, []> var_4519_equation_0 = const()[name = tensor<string, []>("op_4519_equation_0"), val = tensor<string, []>("bkhc,bchq->bkhq")];
            tensor<fp16, [2, 256, 1, 256]> var_4519_cast = einsum(equation = var_4519_equation_0, values = (var_4457_cast, var_4422_cast));
            tensor<fp16, []> var_4520_to_fp16 = const()[name = tensor<string, []>("op_4520_to_fp16"), val = tensor<fp16, []>(0x1.43cp-4)];
            tensor<fp16, [2, 256, 1, 256]> aw_233_cast = mul(x = var_4519_cast, y = var_4520_to_fp16);
            tensor<string, []> var_4523_equation_0 = const()[name = tensor<string, []>("op_4523_equation_0"), val = tensor<string, []>("bkhc,bchq->bkhq")];
            tensor<fp16, [2, 256, 1, 256]> var_4523_cast = einsum(equation = var_4523_equation_0, values = (var_4461_cast, var_4426_cast));
            tensor<fp16, []> var_4524_to_fp16 = const()[name = tensor<string, []>("op_4524_to_fp16"), val = tensor<fp16, []>(0x1.43cp-4)];
            tensor<fp16, [2, 256, 1, 256]> aw_235_cast = mul(x = var_4523_cast, y = var_4524_to_fp16);
            tensor<string, []> var_4527_equation_0 = const()[name = tensor<string, []>("op_4527_equation_0"), val = tensor<string, []>("bkhc,bchq->bkhq")];
            tensor<fp16, [2, 256, 1, 256]> var_4527_cast = einsum(equation = var_4527_equation_0, values = (var_4465_cast, var_4430_cast));
            tensor<fp16, []> var_4528_to_fp16 = const()[name = tensor<string, []>("op_4528_to_fp16"), val = tensor<fp16, []>(0x1.43cp-4)];
            tensor<fp16, [2, 256, 1, 256]> aw_237_cast = mul(x = var_4527_cast, y = var_4528_to_fp16);
            tensor<string, []> var_4531_equation_0 = const()[name = tensor<string, []>("op_4531_equation_0"), val = tensor<string, []>("bkhc,bchq->bkhq")];
            tensor<fp16, [2, 256, 1, 256]> var_4531_cast = einsum(equation = var_4531_equation_0, values = (var_4469_cast, var_4434_cast));
            tensor<fp16, []> var_4532_to_fp16 = const()[name = tensor<string, []>("op_4532_to_fp16"), val = tensor<fp16, []>(0x1.43cp-4)];
            tensor<fp16, [2, 256, 1, 256]> aw_239_cast = mul(x = var_4531_cast, y = var_4532_to_fp16);
            tensor<fp16, [2, 256, 1, 256]> var_4534_cast = softmax(axis = var_4272, x = aw_225_cast);
            tensor<fp16, [2, 256, 1, 256]> var_4535_cast = softmax(axis = var_4272, x = aw_227_cast);
            tensor<fp16, [2, 256, 1, 256]> var_4536_cast = softmax(axis = var_4272, x = aw_229_cast);
            tensor<fp16, [2, 256, 1, 256]> var_4537_cast = softmax(axis = var_4272, x = aw_231_cast);
            tensor<fp16, [2, 256, 1, 256]> var_4538_cast = softmax(axis = var_4272, x = aw_233_cast);
            tensor<fp16, [2, 256, 1, 256]> var_4539_cast = softmax(axis = var_4272, x = aw_235_cast);
            tensor<fp16, [2, 256, 1, 256]> var_4540_cast = softmax(axis = var_4272, x = aw_237_cast);
            tensor<fp16, [2, 256, 1, 256]> var_4541_cast = softmax(axis = var_4272, x = aw_239_cast);
            tensor<string, []> var_4543_equation_0 = const()[name = tensor<string, []>("op_4543_equation_0"), val = tensor<string, []>("bchk,bkhq->bchq")];
            tensor<fp16, [2, 160, 1, 256]> var_4543_cast = einsum(equation = var_4543_equation_0, values = (var_4471_cast, var_4534_cast));
            tensor<string, []> var_4545_equation_0 = const()[name = tensor<string, []>("op_4545_equation_0"), val = tensor<string, []>("bchk,bkhq->bchq")];
            tensor<fp16, [2, 160, 1, 256]> var_4545_cast = einsum(equation = var_4545_equation_0, values = (var_4475_cast, var_4535_cast));
            tensor<string, []> var_4547_equation_0 = const()[name = tensor<string, []>("op_4547_equation_0"), val = tensor<string, []>("bchk,bkhq->bchq")];
            tensor<fp16, [2, 160, 1, 256]> var_4547_cast = einsum(equation = var_4547_equation_0, values = (var_4479_cast, var_4536_cast));
            tensor<string, []> var_4549_equation_0 = const()[name = tensor<string, []>("op_4549_equation_0"), val = tensor<string, []>("bchk,bkhq->bchq")];
            tensor<fp16, [2, 160, 1, 256]> var_4549_cast = einsum(equation = var_4549_equation_0, values = (var_4483_cast, var_4537_cast));
            tensor<string, []> var_4551_equation_0 = const()[name = tensor<string, []>("op_4551_equation_0"), val = tensor<string, []>("bchk,bkhq->bchq")];
            tensor<fp16, [2, 160, 1, 256]> var_4551_cast = einsum(equation = var_4551_equation_0, values = (var_4487_cast, var_4538_cast));
            tensor<string, []> var_4553_equation_0 = const()[name = tensor<string, []>("op_4553_equation_0"), val = tensor<string, []>("bchk,bkhq->bchq")];
            tensor<fp16, [2, 160, 1, 256]> var_4553_cast = einsum(equation = var_4553_equation_0, values = (var_4491_cast, var_4539_cast));
            tensor<string, []> var_4555_equation_0 = const()[name = tensor<string, []>("op_4555_equation_0"), val = tensor<string, []>("bchk,bkhq->bchq")];
            tensor<fp16, [2, 160, 1, 256]> var_4555_cast = einsum(equation = var_4555_equation_0, values = (var_4495_cast, var_4540_cast));
            tensor<string, []> var_4557_equation_0 = const()[name = tensor<string, []>("op_4557_equation_0"), val = tensor<string, []>("bchk,bkhq->bchq")];
            tensor<fp16, [2, 160, 1, 256]> var_4557_cast = einsum(equation = var_4557_equation_0, values = (var_4499_cast, var_4541_cast));
            tensor<bool, []> input_301_interleave_0 = const()[name = tensor<string, []>("input_301_interleave_0"), val = tensor<bool, []>(false)];
            tensor<fp16, [2, 1280, 1, 256]> input_301_cast = concat(axis = var_4272, interleave = input_301_interleave_0, values = (var_4543_cast, var_4545_cast, var_4547_cast, var_4549_cast, var_4551_cast, var_4553_cast, var_4555_cast, var_4557_cast));
            tensor<int32, [2]> var_4563 = const()[name = tensor<string, []>("op_4563"), val = tensor<int32, [2]>([1, 1])];
            tensor<int32, [2]> var_4565 = const()[name = tensor<string, []>("op_4565"), val = tensor<int32, [2]>([1, 1])];
            tensor<string, []> var_4567_pad_type_0 = const()[name = tensor<string, []>("op_4567_pad_type_0"), val = tensor<string, []>("custom")];
            tensor<int32, [4]> var_4567_pad_0 = const()[name = tensor<string, []>("op_4567_pad_0"), val = tensor<int32, [4]>([0, 0, 0, 0])];
            tensor<fp16, [1280, 1280, 1, 1]> up_blocks_1_attentions_0_transformer_blocks_0_attn1_to_out_0_weight_to_fp16 = const()[name = tensor<string, []>("up_blocks_1_attentions_0_transformer_blocks_0_attn1_to_out_0_weight_to_fp16"), val = tensor<fp16, [1280, 1280, 1, 1]>(BLOBFILE(path = tensor<string, []>("@model_path/weights/weight.bin"), offset = tensor<uint64, []>(245868032)))];
            tensor<fp16, [1280]> up_blocks_1_attentions_0_transformer_blocks_0_attn1_to_out_0_bias_to_fp16 = const()[name = tensor<string, []>("up_blocks_1_attentions_0_transformer_blocks_0_attn1_to_out_0_bias_to_fp16"), val = tensor<fp16, [1280]>(BLOBFILE(path = tensor<string, []>("@model_path/weights/weight.bin"), offset = tensor<uint64, []>(249144896)))];
            tensor<fp16, [2, 1280, 1, 256]> var_4567_cast = conv(bias = up_blocks_1_attentions_0_transformer_blocks_0_attn1_to_out_0_bias_to_fp16, dilations = var_4565, groups = var_4272, pad = var_4567_pad_0, pad_type = var_4567_pad_type_0, strides = var_4563, weight = up_blocks_1_attentions_0_transformer_blocks_0_attn1_to_out_0_weight_to_fp16, x = input_301_cast);
            tensor<fp16, [2, 1280, 1, 256]> inputs_45_cast = add(x = var_4567_cast, y = inputs_43_cast);
            tensor<int32, [1]> var_4571 = const()[name = tensor<string, []>("op_4571"), val = tensor<int32, [1]>([1])];
            tensor<fp16, [2, 1, 1, 256]> channels_mean_45_cast = reduce_mean(axes = var_4571, keep_dims = var_4267, x = inputs_45_cast);
            tensor<fp16, [2, 1280, 1, 256]> zero_mean_45_cast = sub(x = inputs_45_cast, y = channels_mean_45_cast);
            tensor<fp16, [2, 1280, 1, 256]> zero_mean_sq_45_cast = mul(x = zero_mean_45_cast, y = zero_mean_45_cast);
            tensor<int32, [1]> var_4575 = const()[name = tensor<string, []>("op_4575"), val = tensor<int32, [1]>([1])];
            tensor<fp16, [2, 1, 1, 256]> var_4576_cast = reduce_mean(axes = var_4575, keep_dims = var_4267, x = zero_mean_sq_45_cast);
            tensor<fp16, []> var_4577_to_fp16 = const()[name = tensor<string, []>("op_4577_to_fp16"), val = tensor<fp16, []>(0x1.5p-17)];
            tensor<fp16, [2, 1, 1, 256]> var_4578_cast = add(x = var_4576_cast, y = var_4577_to_fp16);
            tensor<fp16, []> denom_45_epsilon_0_to_fp16 = const()[name = tensor<string, []>("denom_45_epsilon_0_to_fp16"), val = tensor<fp16, []>(0x1p-24)];
            tensor<fp16, [2, 1, 1, 256]> denom_45_cast = rsqrt(epsilon = denom_45_epsilon_0_to_fp16, x = var_4578_cast);
            tensor<fp16, [2, 1280, 1, 256]> out_45_cast = mul(x = zero_mean_45_cast, y = denom_45_cast);
            tensor<fp16, [1, 1280, 1, 1]> var_4582_to_fp16 = const()[name = tensor<string, []>("op_4582_to_fp16"), val = tensor<fp16, [1, 1280, 1, 1]>(BLOBFILE(path = tensor<string, []>("@model_path/weights/weight.bin"), offset = tensor<uint64, []>(249147520)))];
            tensor<fp16, [2, 1280, 1, 256]> var_4583_cast = add(x = out_45_cast, y = var_4582_to_fp16);
            tensor<fp16, [1, 1280, 1, 1]> var_4585_to_fp16 = const()[name = tensor<string, []>("op_4585_to_fp16"), val = tensor<fp16, [1, 1280, 1, 1]>(BLOBFILE(path = tensor<string, []>("@model_path/weights/weight.bin"), offset = tensor<uint64, []>(249150144)))];
            tensor<fp16, [2, 1280, 1, 256]> hidden_states_169_cast = mul(x = var_4583_cast, y = var_4585_to_fp16);
            tensor<int32, [2]> var_4592 = const()[name = tensor<string, []>("op_4592"), val = tensor<int32, [2]>([1, 1])];
            tensor<int32, [2]> var_4594 = const()[name = tensor<string, []>("op_4594"), val = tensor<int32, [2]>([1, 1])];
            tensor<string, []> q_31_pad_type_0 = const()[name = tensor<string, []>("q_31_pad_type_0"), val = tensor<string, []>("custom")];
            tensor<int32, [4]> q_31_pad_0 = const()[name = tensor<string, []>("q_31_pad_0"), val = tensor<int32, [4]>([0, 0, 0, 0])];
            tensor<fp16, [1280, 1280, 1, 1]> up_blocks_1_attentions_0_transformer_blocks_0_attn2_to_q_weight_to_fp16 = const()[name = tensor<string, []>("up_blocks_1_attentions_0_transformer_blocks_0_attn2_to_q_weight_to_fp16"), val = tensor<fp16, [1280, 1280, 1, 1]>(BLOBFILE(path = tensor<string, []>("@model_path/weights/weight.bin"), offset = tensor<uint64, []>(249152768)))];
            tensor<fp16, [2, 1280, 1, 256]> q_31_cast = conv(dilations = var_4594, groups = var_4272, pad = q_31_pad_0, pad_type = q_31_pad_type_0, strides = var_4592, weight = up_blocks_1_attentions_0_transformer_blocks_0_attn2_to_q_weight_to_fp16, x = hidden_states_169_cast);
            tensor<int32, [2]> var_4598 = const()[name = tensor<string, []>("op_4598"), val = tensor<int32, [2]>([1, 1])];
            tensor<int32, [2]> var_4600 = const()[name = tensor<string, []>("op_4600"), val = tensor<int32, [2]>([1, 1])];
            tensor<string, []> k_61_pad_type_0 = const()[name = tensor<string, []>("k_61_pad_type_0"), val = tensor<string, []>("custom")];
            tensor<int32, [4]> k_61_pad_0 = const()[name = tensor<string, []>("k_61_pad_0"), val = tensor<int32, [4]>([0, 0, 0, 0])];
            tensor<fp16, [1280, 768, 1, 1]> up_blocks_1_attentions_0_transformer_blocks_0_attn2_to_k_weight_to_fp16 = const()[name = tensor<string, []>("up_blocks_1_attentions_0_transformer_blocks_0_attn2_to_k_weight_to_fp16"), val = tensor<fp16, [1280, 768, 1, 1]>(BLOBFILE(path = tensor<string, []>("@model_path/weights/weight.bin"), offset = tensor<uint64, []>(252429632)))];
            tensor<fp16, [2, 1280, 1, 77]> k_61_cast = conv(dilations = var_4600, groups = var_4272, pad = k_61_pad_0, pad_type = k_61_pad_type_0, strides = var_4598, weight = up_blocks_1_attentions_0_transformer_blocks_0_attn2_to_k_weight_to_fp16, x = encoder_hidden_states);
            tensor<int32, [2]> var_4604 = const()[name = tensor<string, []>("op_4604"), val = tensor<int32, [2]>([1, 1])];
            tensor<int32, [2]> var_4606 = const()[name = tensor<string, []>("op_4606"), val = tensor<int32, [2]>([1, 1])];
            tensor<string, []> v_31_pad_type_0 = const()[name = tensor<string, []>("v_31_pad_type_0"), val = tensor<string, []>("custom")];
            tensor<int32, [4]> v_31_pad_0 = const()[name = tensor<string, []>("v_31_pad_0"), val = tensor<int32, [4]>([0, 0, 0, 0])];
            tensor<fp16, [1280, 768, 1, 1]> up_blocks_1_attentions_0_transformer_blocks_0_attn2_to_v_weight_to_fp16 = const()[name = tensor<string, []>("up_blocks_1_attentions_0_transformer_blocks_0_attn2_to_v_weight_to_fp16"), val = tensor<fp16, [1280, 768, 1, 1]>(BLOBFILE(path = tensor<string, []>("@model_path/weights/weight.bin"), offset = tensor<uint64, []>(254395776)))];
            tensor<fp16, [2, 1280, 1, 77]> v_31_cast = conv(dilations = var_4606, groups = var_4272, pad = v_31_pad_0, pad_type = v_31_pad_type_0, strides = var_4604, weight = up_blocks_1_attentions_0_transformer_blocks_0_attn2_to_v_weight_to_fp16, x = encoder_hidden_states);
            tensor<int32, [4]> var_4610_begin_0 = const()[name = tensor<string, []>("op_4610_begin_0"), val = tensor<int32, [4]>([0, 0, 0, 0])];
            tensor<int32, [4]> var_4610_end_0 = const()[name = tensor<string, []>("op_4610_end_0"), val = tensor<int32, [4]>([2, 160, 1, 256])];
            tensor<bool, [4]> var_4610_end_mask_0 = const()[name = tensor<string, []>("op_4610_end_mask_0"), val = tensor<bool, [4]>([true, false, true, true])];
            tensor<fp16, [2, 160, 1, 256]> var_4610_cast = slice_by_index(begin = var_4610_begin_0, end = var_4610_end_0, end_mask = var_4610_end_mask_0, x = q_31_cast);
            tensor<int32, [4]> var_4614_begin_0 = const()[name = tensor<string, []>("op_4614_begin_0"), val = tensor<int32, [4]>([0, 160, 0, 0])];
            tensor<int32, [4]> var_4614_end_0 = const()[name = tensor<string, []>("op_4614_end_0"), val = tensor<int32, [4]>([2, 320, 1, 256])];
            tensor<bool, [4]> var_4614_end_mask_0 = const()[name = tensor<string, []>("op_4614_end_mask_0"), val = tensor<bool, [4]>([true, false, true, true])];
            tensor<fp16, [2, 160, 1, 256]> var_4614_cast = slice_by_index(begin = var_4614_begin_0, end = var_4614_end_0, end_mask = var_4614_end_mask_0, x = q_31_cast);
            tensor<int32, [4]> var_4618_begin_0 = const()[name = tensor<string, []>("op_4618_begin_0"), val = tensor<int32, [4]>([0, 320, 0, 0])];
            tensor<int32, [4]> var_4618_end_0 = const()[name = tensor<string, []>("op_4618_end_0"), val = tensor<int32, [4]>([2, 480, 1, 256])];
            tensor<bool, [4]> var_4618_end_mask_0 = const()[name = tensor<string, []>("op_4618_end_mask_0"), val = tensor<bool, [4]>([true, false, true, true])];
            tensor<fp16, [2, 160, 1, 256]> var_4618_cast = slice_by_index(begin = var_4618_begin_0, end = var_4618_end_0, end_mask = var_4618_end_mask_0, x = q_31_cast);
            tensor<int32, [4]> var_4622_begin_0 = const()[name = tensor<string, []>("op_4622_begin_0"), val = tensor<int32, [4]>([0, 480, 0, 0])];
            tensor<int32, [4]> var_4622_end_0 = const()[name = tensor<string, []>("op_4622_end_0"), val = tensor<int32, [4]>([2, 640, 1, 256])];
            tensor<bool, [4]> var_4622_end_mask_0 = const()[name = tensor<string, []>("op_4622_end_mask_0"), val = tensor<bool, [4]>([true, false, true, true])];
            tensor<fp16, [2, 160, 1, 256]> var_4622_cast = slice_by_index(begin = var_4622_begin_0, end = var_4622_end_0, end_mask = var_4622_end_mask_0, x = q_31_cast);
            tensor<int32, [4]> var_4626_begin_0 = const()[name = tensor<string, []>("op_4626_begin_0"), val = tensor<int32, [4]>([0, 640, 0, 0])];
            tensor<int32, [4]> var_4626_end_0 = const()[name = tensor<string, []>("op_4626_end_0"), val = tensor<int32, [4]>([2, 800, 1, 256])];
            tensor<bool, [4]> var_4626_end_mask_0 = const()[name = tensor<string, []>("op_4626_end_mask_0"), val = tensor<bool, [4]>([true, false, true, true])];
            tensor<fp16, [2, 160, 1, 256]> var_4626_cast = slice_by_index(begin = var_4626_begin_0, end = var_4626_end_0, end_mask = var_4626_end_mask_0, x = q_31_cast);
            tensor<int32, [4]> var_4630_begin_0 = const()[name = tensor<string, []>("op_4630_begin_0"), val = tensor<int32, [4]>([0, 800, 0, 0])];
            tensor<int32, [4]> var_4630_end_0 = const()[name = tensor<string, []>("op_4630_end_0"), val = tensor<int32, [4]>([2, 960, 1, 256])];
            tensor<bool, [4]> var_4630_end_mask_0 = const()[name = tensor<string, []>("op_4630_end_mask_0"), val = tensor<bool, [4]>([true, false, true, true])];
            tensor<fp16, [2, 160, 1, 256]> var_4630_cast = slice_by_index(begin = var_4630_begin_0, end = var_4630_end_0, end_mask = var_4630_end_mask_0, x = q_31_cast);
            tensor<int32, [4]> var_4634_begin_0 = const()[name = tensor<string, []>("op_4634_begin_0"), val = tensor<int32, [4]>([0, 960, 0, 0])];
            tensor<int32, [4]> var_4634_end_0 = const()[name = tensor<string, []>("op_4634_end_0"), val = tensor<int32, [4]>([2, 1120, 1, 256])];
            tensor<bool, [4]> var_4634_end_mask_0 = const()[name = tensor<string, []>("op_4634_end_mask_0"), val = tensor<bool, [4]>([true, false, true, true])];
            tensor<fp16, [2, 160, 1, 256]> var_4634_cast = slice_by_index(begin = var_4634_begin_0, end = var_4634_end_0, end_mask = var_4634_end_mask_0, x = q_31_cast);
            tensor<int32, [4]> var_4638_begin_0 = const()[name = tensor<string, []>("op_4638_begin_0"), val = tensor<int32, [4]>([0, 1120, 0, 0])];
            tensor<int32, [4]> var_4638_end_0 = const()[name = tensor<string, []>("op_4638_end_0"), val = tensor<int32, [4]>([2, 1280, 1, 256])];
            tensor<bool, [4]> var_4638_end_mask_0 = const()[name = tensor<string, []>("op_4638_end_mask_0"), val = tensor<bool, [4]>([true, false, true, true])];
            tensor<fp16, [2, 160, 1, 256]> var_4638_cast = slice_by_index(begin = var_4638_begin_0, end = var_4638_end_0, end_mask = var_4638_end_mask_0, x = q_31_cast);
            tensor<int32, [4]> k_63_perm_0 = const()[name = tensor<string, []>("k_63_perm_0"), val = tensor<int32, [4]>([0, 3, 2, 1])];
            tensor<int32, [4]> var_4645_begin_0 = const()[name = tensor<string, []>("op_4645_begin_0"), val = tensor<int32, [4]>([0, 0, 0, 0])];
            tensor<int32, [4]> var_4645_end_0 = const()[name = tensor<string, []>("op_4645_end_0"), val = tensor<int32, [4]>([2, 77, 1, 160])];
            tensor<bool, [4]> var_4645_end_mask_0 = const()[name = tensor<string, []>("op_4645_end_mask_0"), val = tensor<bool, [4]>([true, true, true, false])];
            tensor<fp16, [2, 77, 1, 1280]> transpose_16 = transpose(perm = k_63_perm_0, x = k_61_cast);
            tensor<fp16, [2, 77, 1, 160]> var_4645_cast = slice_by_index(begin = var_4645_begin_0, end = var_4645_end_0, end_mask = var_4645_end_mask_0, x = transpose_16);
            tensor<int32, [4]> var_4649_begin_0 = const()[name = tensor<string, []>("op_4649_begin_0"), val = tensor<int32, [4]>([0, 0, 0, 160])];
            tensor<int32, [4]> var_4649_end_0 = const()[name = tensor<string, []>("op_4649_end_0"), val = tensor<int32, [4]>([2, 77, 1, 320])];
            tensor<bool, [4]> var_4649_end_mask_0 = const()[name = tensor<string, []>("op_4649_end_mask_0"), val = tensor<bool, [4]>([true, true, true, false])];
            tensor<fp16, [2, 77, 1, 160]> var_4649_cast = slice_by_index(begin = var_4649_begin_0, end = var_4649_end_0, end_mask = var_4649_end_mask_0, x = transpose_16);
            tensor<int32, [4]> var_4653_begin_0 = const()[name = tensor<string, []>("op_4653_begin_0"), val = tensor<int32, [4]>([0, 0, 0, 320])];
            tensor<int32, [4]> var_4653_end_0 = const()[name = tensor<string, []>("op_4653_end_0"), val = tensor<int32, [4]>([2, 77, 1, 480])];
            tensor<bool, [4]> var_4653_end_mask_0 = const()[name = tensor<string, []>("op_4653_end_mask_0"), val = tensor<bool, [4]>([true, true, true, false])];
            tensor<fp16, [2, 77, 1, 160]> var_4653_cast = slice_by_index(begin = var_4653_begin_0, end = var_4653_end_0, end_mask = var_4653_end_mask_0, x = transpose_16);
            tensor<int32, [4]> var_4657_begin_0 = const()[name = tensor<string, []>("op_4657_begin_0"), val = tensor<int32, [4]>([0, 0, 0, 480])];
            tensor<int32, [4]> var_4657_end_0 = const()[name = tensor<string, []>("op_4657_end_0"), val = tensor<int32, [4]>([2, 77, 1, 640])];
            tensor<bool, [4]> var_4657_end_mask_0 = const()[name = tensor<string, []>("op_4657_end_mask_0"), val = tensor<bool, [4]>([true, true, true, false])];
            tensor<fp16, [2, 77, 1, 160]> var_4657_cast = slice_by_index(begin = var_4657_begin_0, end = var_4657_end_0, end_mask = var_4657_end_mask_0, x = transpose_16);
            tensor<int32, [4]> var_4661_begin_0 = const()[name = tensor<string, []>("op_4661_begin_0"), val = tensor<int32, [4]>([0, 0, 0, 640])];
            tensor<int32, [4]> var_4661_end_0 = const()[name = tensor<string, []>("op_4661_end_0"), val = tensor<int32, [4]>([2, 77, 1, 800])];
            tensor<bool, [4]> var_4661_end_mask_0 = const()[name = tensor<string, []>("op_4661_end_mask_0"), val = tensor<bool, [4]>([true, true, true, false])];
            tensor<fp16, [2, 77, 1, 160]> var_4661_cast = slice_by_index(begin = var_4661_begin_0, end = var_4661_end_0, end_mask = var_4661_end_mask_0, x = transpose_16);
            tensor<int32, [4]> var_4665_begin_0 = const()[name = tensor<string, []>("op_4665_begin_0"), val = tensor<int32, [4]>([0, 0, 0, 800])];
            tensor<int32, [4]> var_4665_end_0 = const()[name = tensor<string, []>("op_4665_end_0"), val = tensor<int32, [4]>([2, 77, 1, 960])];
            tensor<bool, [4]> var_4665_end_mask_0 = const()[name = tensor<string, []>("op_4665_end_mask_0"), val = tensor<bool, [4]>([true, true, true, false])];
            tensor<fp16, [2, 77, 1, 160]> var_4665_cast = slice_by_index(begin = var_4665_begin_0, end = var_4665_end_0, end_mask = var_4665_end_mask_0, x = transpose_16);
            tensor<int32, [4]> var_4669_begin_0 = const()[name = tensor<string, []>("op_4669_begin_0"), val = tensor<int32, [4]>([0, 0, 0, 960])];
            tensor<int32, [4]> var_4669_end_0 = const()[name = tensor<string, []>("op_4669_end_0"), val = tensor<int32, [4]>([2, 77, 1, 1120])];
            tensor<bool, [4]> var_4669_end_mask_0 = const()[name = tensor<string, []>("op_4669_end_mask_0"), val = tensor<bool, [4]>([true, true, true, false])];
            tensor<fp16, [2, 77, 1, 160]> var_4669_cast = slice_by_index(begin = var_4669_begin_0, end = var_4669_end_0, end_mask = var_4669_end_mask_0, x = transpose_16);
            tensor<int32, [4]> var_4673_begin_0 = const()[name = tensor<string, []>("op_4673_begin_0"), val = tensor<int32, [4]>([0, 0, 0, 1120])];
            tensor<int32, [4]> var_4673_end_0 = const()[name = tensor<string, []>("op_4673_end_0"), val = tensor<int32, [4]>([2, 77, 1, 1280])];
            tensor<bool, [4]> var_4673_end_mask_0 = const()[name = tensor<string, []>("op_4673_end_mask_0"), val = tensor<bool, [4]>([true, true, true, false])];
            tensor<fp16, [2, 77, 1, 160]> var_4673_cast = slice_by_index(begin = var_4673_begin_0, end = var_4673_end_0, end_mask = var_4673_end_mask_0, x = transpose_16);
            tensor<int32, [4]> var_4675_begin_0 = const()[name = tensor<string, []>("op_4675_begin_0"), val = tensor<int32, [4]>([0, 0, 0, 0])];
            tensor<int32, [4]> var_4675_end_0 = const()[name = tensor<string, []>("op_4675_end_0"), val = tensor<int32, [4]>([2, 160, 1, 77])];
            tensor<bool, [4]> var_4675_end_mask_0 = const()[name = tensor<string, []>("op_4675_end_mask_0"), val = tensor<bool, [4]>([true, false, true, true])];
            tensor<fp16, [2, 160, 1, 77]> var_4675_cast = slice_by_index(begin = var_4675_begin_0, end = var_4675_end_0, end_mask = var_4675_end_mask_0, x = v_31_cast);
            tensor<int32, [4]> var_4679_begin_0 = const()[name = tensor<string, []>("op_4679_begin_0"), val = tensor<int32, [4]>([0, 160, 0, 0])];
            tensor<int32, [4]> var_4679_end_0 = const()[name = tensor<string, []>("op_4679_end_0"), val = tensor<int32, [4]>([2, 320, 1, 77])];
            tensor<bool, [4]> var_4679_end_mask_0 = const()[name = tensor<string, []>("op_4679_end_mask_0"), val = tensor<bool, [4]>([true, false, true, true])];
            tensor<fp16, [2, 160, 1, 77]> var_4679_cast = slice_by_index(begin = var_4679_begin_0, end = var_4679_end_0, end_mask = var_4679_end_mask_0, x = v_31_cast);
            tensor<int32, [4]> var_4683_begin_0 = const()[name = tensor<string, []>("op_4683_begin_0"), val = tensor<int32, [4]>([0, 320, 0, 0])];
            tensor<int32, [4]> var_4683_end_0 = const()[name = tensor<string, []>("op_4683_end_0"), val = tensor<int32, [4]>([2, 480, 1, 77])];
            tensor<bool, [4]> var_4683_end_mask_0 = const()[name = tensor<string, []>("op_4683_end_mask_0"), val = tensor<bool, [4]>([true, false, true, true])];
            tensor<fp16, [2, 160, 1, 77]> var_4683_cast = slice_by_index(begin = var_4683_begin_0, end = var_4683_end_0, end_mask = var_4683_end_mask_0, x = v_31_cast);
            tensor<int32, [4]> var_4687_begin_0 = const()[name = tensor<string, []>("op_4687_begin_0"), val = tensor<int32, [4]>([0, 480, 0, 0])];
            tensor<int32, [4]> var_4687_end_0 = const()[name = tensor<string, []>("op_4687_end_0"), val = tensor<int32, [4]>([2, 640, 1, 77])];
            tensor<bool, [4]> var_4687_end_mask_0 = const()[name = tensor<string, []>("op_4687_end_mask_0"), val = tensor<bool, [4]>([true, false, true, true])];
            tensor<fp16, [2, 160, 1, 77]> var_4687_cast = slice_by_index(begin = var_4687_begin_0, end = var_4687_end_0, end_mask = var_4687_end_mask_0, x = v_31_cast);
            tensor<int32, [4]> var_4691_begin_0 = const()[name = tensor<string, []>("op_4691_begin_0"), val = tensor<int32, [4]>([0, 640, 0, 0])];
            tensor<int32, [4]> var_4691_end_0 = const()[name = tensor<string, []>("op_4691_end_0"), val = tensor<int32, [4]>([2, 800, 1, 77])];
            tensor<bool, [4]> var_4691_end_mask_0 = const()[name = tensor<string, []>("op_4691_end_mask_0"), val = tensor<bool, [4]>([true, false, true, true])];
            tensor<fp16, [2, 160, 1, 77]> var_4691_cast = slice_by_index(begin = var_4691_begin_0, end = var_4691_end_0, end_mask = var_4691_end_mask_0, x = v_31_cast);
            tensor<int32, [4]> var_4695_begin_0 = const()[name = tensor<string, []>("op_4695_begin_0"), val = tensor<int32, [4]>([0, 800, 0, 0])];
            tensor<int32, [4]> var_4695_end_0 = const()[name = tensor<string, []>("op_4695_end_0"), val = tensor<int32, [4]>([2, 960, 1, 77])];
            tensor<bool, [4]> var_4695_end_mask_0 = const()[name = tensor<string, []>("op_4695_end_mask_0"), val = tensor<bool, [4]>([true, false, true, true])];
            tensor<fp16, [2, 160, 1, 77]> var_4695_cast = slice_by_index(begin = var_4695_begin_0, end = var_4695_end_0, end_mask = var_4695_end_mask_0, x = v_31_cast);
            tensor<int32, [4]> var_4699_begin_0 = const()[name = tensor<string, []>("op_4699_begin_0"), val = tensor<int32, [4]>([0, 960, 0, 0])];
            tensor<int32, [4]> var_4699_end_0 = const()[name = tensor<string, []>("op_4699_end_0"), val = tensor<int32, [4]>([2, 1120, 1, 77])];
            tensor<bool, [4]> var_4699_end_mask_0 = const()[name = tensor<string, []>("op_4699_end_mask_0"), val = tensor<bool, [4]>([true, false, true, true])];
            tensor<fp16, [2, 160, 1, 77]> var_4699_cast = slice_by_index(begin = var_4699_begin_0, end = var_4699_end_0, end_mask = var_4699_end_mask_0, x = v_31_cast);
            tensor<int32, [4]> var_4703_begin_0 = const()[name = tensor<string, []>("op_4703_begin_0"), val = tensor<int32, [4]>([0, 1120, 0, 0])];
            tensor<int32, [4]> var_4703_end_0 = const()[name = tensor<string, []>("op_4703_end_0"), val = tensor<int32, [4]>([2, 1280, 1, 77])];
            tensor<bool, [4]> var_4703_end_mask_0 = const()[name = tensor<string, []>("op_4703_end_mask_0"), val = tensor<bool, [4]>([true, false, true, true])];
            tensor<fp16, [2, 160, 1, 77]> var_4703_cast = slice_by_index(begin = var_4703_begin_0, end = var_4703_end_0, end_mask = var_4703_end_mask_0, x = v_31_cast);
            tensor<string, []> var_4707_equation_0 = const()[name = tensor<string, []>("op_4707_equation_0"), val = tensor<string, []>("bkhc,bchq->bkhq")];
            tensor<fp16, [2, 77, 1, 256]> var_4707_cast = einsum(equation = var_4707_equation_0, values = (var_4645_cast, var_4610_cast));
            tensor<fp16, []> var_4708_to_fp16 = const()[name = tensor<string, []>("op_4708_to_fp16"), val = tensor<fp16, []>(0x1.43cp-4)];
            tensor<fp16, [2, 77, 1, 256]> aw_241_cast = mul(x = var_4707_cast, y = var_4708_to_fp16);
            tensor<string, []> var_4711_equation_0 = const()[name = tensor<string, []>("op_4711_equation_0"), val = tensor<string, []>("bkhc,bchq->bkhq")];
            tensor<fp16, [2, 77, 1, 256]> var_4711_cast = einsum(equation = var_4711_equation_0, values = (var_4649_cast, var_4614_cast));
            tensor<fp16, []> var_4712_to_fp16 = const()[name = tensor<string, []>("op_4712_to_fp16"), val = tensor<fp16, []>(0x1.43cp-4)];
            tensor<fp16, [2, 77, 1, 256]> aw_243_cast = mul(x = var_4711_cast, y = var_4712_to_fp16);
            tensor<string, []> var_4715_equation_0 = const()[name = tensor<string, []>("op_4715_equation_0"), val = tensor<string, []>("bkhc,bchq->bkhq")];
            tensor<fp16, [2, 77, 1, 256]> var_4715_cast = einsum(equation = var_4715_equation_0, values = (var_4653_cast, var_4618_cast));
            tensor<fp16, []> var_4716_to_fp16 = const()[name = tensor<string, []>("op_4716_to_fp16"), val = tensor<fp16, []>(0x1.43cp-4)];
            tensor<fp16, [2, 77, 1, 256]> aw_245_cast = mul(x = var_4715_cast, y = var_4716_to_fp16);
            tensor<string, []> var_4719_equation_0 = const()[name = tensor<string, []>("op_4719_equation_0"), val = tensor<string, []>("bkhc,bchq->bkhq")];
            tensor<fp16, [2, 77, 1, 256]> var_4719_cast = einsum(equation = var_4719_equation_0, values = (var_4657_cast, var_4622_cast));
            tensor<fp16, []> var_4720_to_fp16 = const()[name = tensor<string, []>("op_4720_to_fp16"), val = tensor<fp16, []>(0x1.43cp-4)];
            tensor<fp16, [2, 77, 1, 256]> aw_247_cast = mul(x = var_4719_cast, y = var_4720_to_fp16);
            tensor<string, []> var_4723_equation_0 = const()[name = tensor<string, []>("op_4723_equation_0"), val = tensor<string, []>("bkhc,bchq->bkhq")];
            tensor<fp16, [2, 77, 1, 256]> var_4723_cast = einsum(equation = var_4723_equation_0, values = (var_4661_cast, var_4626_cast));
            tensor<fp16, []> var_4724_to_fp16 = const()[name = tensor<string, []>("op_4724_to_fp16"), val = tensor<fp16, []>(0x1.43cp-4)];
            tensor<fp16, [2, 77, 1, 256]> aw_249_cast = mul(x = var_4723_cast, y = var_4724_to_fp16);
            tensor<string, []> var_4727_equation_0 = const()[name = tensor<string, []>("op_4727_equation_0"), val = tensor<string, []>("bkhc,bchq->bkhq")];
            tensor<fp16, [2, 77, 1, 256]> var_4727_cast = einsum(equation = var_4727_equation_0, values = (var_4665_cast, var_4630_cast));
            tensor<fp16, []> var_4728_to_fp16 = const()[name = tensor<string, []>("op_4728_to_fp16"), val = tensor<fp16, []>(0x1.43cp-4)];
            tensor<fp16, [2, 77, 1, 256]> aw_251_cast = mul(x = var_4727_cast, y = var_4728_to_fp16);
            tensor<string, []> var_4731_equation_0 = const()[name = tensor<string, []>("op_4731_equation_0"), val = tensor<string, []>("bkhc,bchq->bkhq")];
            tensor<fp16, [2, 77, 1, 256]> var_4731_cast = einsum(equation = var_4731_equation_0, values = (var_4669_cast, var_4634_cast));
            tensor<fp16, []> var_4732_to_fp16 = const()[name = tensor<string, []>("op_4732_to_fp16"), val = tensor<fp16, []>(0x1.43cp-4)];
            tensor<fp16, [2, 77, 1, 256]> aw_253_cast = mul(x = var_4731_cast, y = var_4732_to_fp16);
            tensor<string, []> var_4735_equation_0 = const()[name = tensor<string, []>("op_4735_equation_0"), val = tensor<string, []>("bkhc,bchq->bkhq")];
            tensor<fp16, [2, 77, 1, 256]> var_4735_cast = einsum(equation = var_4735_equation_0, values = (var_4673_cast, var_4638_cast));
            tensor<fp16, []> var_4736_to_fp16 = const()[name = tensor<string, []>("op_4736_to_fp16"), val = tensor<fp16, []>(0x1.43cp-4)];
            tensor<fp16, [2, 77, 1, 256]> aw_255_cast = mul(x = var_4735_cast, y = var_4736_to_fp16);
            tensor<fp16, [2, 77, 1, 256]> var_4738_cast = softmax(axis = var_4272, x = aw_241_cast);
            tensor<fp16, [2, 77, 1, 256]> var_4739_cast = softmax(axis = var_4272, x = aw_243_cast);
            tensor<fp16, [2, 77, 1, 256]> var_4740_cast = softmax(axis = var_4272, x = aw_245_cast);
            tensor<fp16, [2, 77, 1, 256]> var_4741_cast = softmax(axis = var_4272, x = aw_247_cast);
            tensor<fp16, [2, 77, 1, 256]> var_4742_cast = softmax(axis = var_4272, x = aw_249_cast);
            tensor<fp16, [2, 77, 1, 256]> var_4743_cast = softmax(axis = var_4272, x = aw_251_cast);
            tensor<fp16, [2, 77, 1, 256]> var_4744_cast = softmax(axis = var_4272, x = aw_253_cast);
            tensor<fp16, [2, 77, 1, 256]> var_4745_cast = softmax(axis = var_4272, x = aw_255_cast);
            tensor<string, []> var_4747_equation_0 = const()[name = tensor<string, []>("op_4747_equation_0"), val = tensor<string, []>("bchk,bkhq->bchq")];
            tensor<fp16, [2, 160, 1, 256]> var_4747_cast = einsum(equation = var_4747_equation_0, values = (var_4675_cast, var_4738_cast));
            tensor<string, []> var_4749_equation_0 = const()[name = tensor<string, []>("op_4749_equation_0"), val = tensor<string, []>("bchk,bkhq->bchq")];
            tensor<fp16, [2, 160, 1, 256]> var_4749_cast = einsum(equation = var_4749_equation_0, values = (var_4679_cast, var_4739_cast));
            tensor<string, []> var_4751_equation_0 = const()[name = tensor<string, []>("op_4751_equation_0"), val = tensor<string, []>("bchk,bkhq->bchq")];
            tensor<fp16, [2, 160, 1, 256]> var_4751_cast = einsum(equation = var_4751_equation_0, values = (var_4683_cast, var_4740_cast));
            tensor<string, []> var_4753_equation_0 = const()[name = tensor<string, []>("op_4753_equation_0"), val = tensor<string, []>("bchk,bkhq->bchq")];
            tensor<fp16, [2, 160, 1, 256]> var_4753_cast = einsum(equation = var_4753_equation_0, values = (var_4687_cast, var_4741_cast));
            tensor<string, []> var_4755_equation_0 = const()[name = tensor<string, []>("op_4755_equation_0"), val = tensor<string, []>("bchk,bkhq->bchq")];
            tensor<fp16, [2, 160, 1, 256]> var_4755_cast = einsum(equation = var_4755_equation_0, values = (var_4691_cast, var_4742_cast));
            tensor<string, []> var_4757_equation_0 = const()[name = tensor<string, []>("op_4757_equation_0"), val = tensor<string, []>("bchk,bkhq->bchq")];
            tensor<fp16, [2, 160, 1, 256]> var_4757_cast = einsum(equation = var_4757_equation_0, values = (var_4695_cast, var_4743_cast));
            tensor<string, []> var_4759_equation_0 = const()[name = tensor<string, []>("op_4759_equation_0"), val = tensor<string, []>("bchk,bkhq->bchq")];
            tensor<fp16, [2, 160, 1, 256]> var_4759_cast = einsum(equation = var_4759_equation_0, values = (var_4699_cast, var_4744_cast));
            tensor<string, []> var_4761_equation_0 = const()[name = tensor<string, []>("op_4761_equation_0"), val = tensor<string, []>("bchk,bkhq->bchq")];
            tensor<fp16, [2, 160, 1, 256]> var_4761_cast = einsum(equation = var_4761_equation_0, values = (var_4703_cast, var_4745_cast));
            tensor<bool, []> input_303_interleave_0 = const()[name = tensor<string, []>("input_303_interleave_0"), val = tensor<bool, []>(false)];
            tensor<fp16, [2, 1280, 1, 256]> input_303_cast = concat(axis = var_4272, interleave = input_303_interleave_0, values = (var_4747_cast, var_4749_cast, var_4751_cast, var_4753_cast, var_4755_cast, var_4757_cast, var_4759_cast, var_4761_cast));
            tensor<int32, [2]> var_4767 = const()[name = tensor<string, []>("op_4767"), val = tensor<int32, [2]>([1, 1])];
            tensor<int32, [2]> var_4769 = const()[name = tensor<string, []>("op_4769"), val = tensor<int32, [2]>([1, 1])];
            tensor<string, []> var_4771_pad_type_0 = const()[name = tensor<string, []>("op_4771_pad_type_0"), val = tensor<string, []>("custom")];
            tensor<int32, [4]> var_4771_pad_0 = const()[name = tensor<string, []>("op_4771_pad_0"), val = tensor<int32, [4]>([0, 0, 0, 0])];
            tensor<fp16, [1280, 1280, 1, 1]> up_blocks_1_attentions_0_transformer_blocks_0_attn2_to_out_0_weight_to_fp16 = const()[name = tensor<string, []>("up_blocks_1_attentions_0_transformer_blocks_0_attn2_to_out_0_weight_to_fp16"), val = tensor<fp16, [1280, 1280, 1, 1]>(BLOBFILE(path = tensor<string, []>("@model_path/weights/weight.bin"), offset = tensor<uint64, []>(256361920)))];
            tensor<fp16, [1280]> up_blocks_1_attentions_0_transformer_blocks_0_attn2_to_out_0_bias_to_fp16 = const()[name = tensor<string, []>("up_blocks_1_attentions_0_transformer_blocks_0_attn2_to_out_0_bias_to_fp16"), val = tensor<fp16, [1280]>(BLOBFILE(path = tensor<string, []>("@model_path/weights/weight.bin"), offset = tensor<uint64, []>(259638784)))];
            tensor<fp16, [2, 1280, 1, 256]> var_4771_cast = conv(bias = up_blocks_1_attentions_0_transformer_blocks_0_attn2_to_out_0_bias_to_fp16, dilations = var_4769, groups = var_4272, pad = var_4771_pad_0, pad_type = var_4771_pad_type_0, strides = var_4767, weight = up_blocks_1_attentions_0_transformer_blocks_0_attn2_to_out_0_weight_to_fp16, x = input_303_cast);
            tensor<fp16, [2, 1280, 1, 256]> inputs_47_cast = add(x = var_4771_cast, y = inputs_45_cast);
            tensor<int32, [1]> var_4775 = const()[name = tensor<string, []>("op_4775"), val = tensor<int32, [1]>([1])];
            tensor<fp16, [2, 1, 1, 256]> channels_mean_47_cast = reduce_mean(axes = var_4775, keep_dims = var_4267, x = inputs_47_cast);
            tensor<fp16, [2, 1280, 1, 256]> zero_mean_47_cast = sub(x = inputs_47_cast, y = channels_mean_47_cast);
            tensor<fp16, [2, 1280, 1, 256]> zero_mean_sq_47_cast = mul(x = zero_mean_47_cast, y = zero_mean_47_cast);
            tensor<int32, [1]> var_4779 = const()[name = tensor<string, []>("op_4779"), val = tensor<int32, [1]>([1])];
            tensor<fp16, [2, 1, 1, 256]> var_4780_cast = reduce_mean(axes = var_4779, keep_dims = var_4267, x = zero_mean_sq_47_cast);
            tensor<fp16, []> var_4781_to_fp16 = const()[name = tensor<string, []>("op_4781_to_fp16"), val = tensor<fp16, []>(0x1.5p-17)];
            tensor<fp16, [2, 1, 1, 256]> var_4782_cast = add(x = var_4780_cast, y = var_4781_to_fp16);
            tensor<fp16, []> denom_47_epsilon_0_to_fp16 = const()[name = tensor<string, []>("denom_47_epsilon_0_to_fp16"), val = tensor<fp16, []>(0x1p-24)];
            tensor<fp16, [2, 1, 1, 256]> denom_47_cast = rsqrt(epsilon = denom_47_epsilon_0_to_fp16, x = var_4782_cast);
            tensor<fp16, [2, 1280, 1, 256]> out_47_cast = mul(x = zero_mean_47_cast, y = denom_47_cast);
            tensor<fp16, [1, 1280, 1, 1]> var_4786_to_fp16 = const()[name = tensor<string, []>("op_4786_to_fp16"), val = tensor<fp16, [1, 1280, 1, 1]>(BLOBFILE(path = tensor<string, []>("@model_path/weights/weight.bin"), offset = tensor<uint64, []>(259641408)))];
            tensor<fp16, [2, 1280, 1, 256]> var_4787_cast = add(x = out_47_cast, y = var_4786_to_fp16);
            tensor<fp16, [1, 1280, 1, 1]> var_4789_to_fp16 = const()[name = tensor<string, []>("op_4789_to_fp16"), val = tensor<fp16, [1, 1280, 1, 1]>(BLOBFILE(path = tensor<string, []>("@model_path/weights/weight.bin"), offset = tensor<uint64, []>(259644032)))];
            tensor<fp16, [2, 1280, 1, 256]> input_305_cast = mul(x = var_4787_cast, y = var_4789_to_fp16);
            tensor<int32, [2]> var_4797 = const()[name = tensor<string, []>("op_4797"), val = tensor<int32, [2]>([1, 1])];
            tensor<int32, [2]> var_4799 = const()[name = tensor<string, []>("op_4799"), val = tensor<int32, [2]>([1, 1])];
            tensor<string, []> var_4801_pad_type_0 = const()[name = tensor<string, []>("op_4801_pad_type_0"), val = tensor<string, []>("custom")];
            tensor<int32, [4]> var_4801_pad_0 = const()[name = tensor<string, []>("op_4801_pad_0"), val = tensor<int32, [4]>([0, 0, 0, 0])];
            tensor<fp16, [10240, 1280, 1, 1]> up_blocks_1_attentions_0_transformer_blocks_0_ff_net_0_proj_weight_to_fp16 = const()[name = tensor<string, []>("up_blocks_1_attentions_0_transformer_blocks_0_ff_net_0_proj_weight_to_fp16"), val = tensor<fp16, [10240, 1280, 1, 1]>(BLOBFILE(path = tensor<string, []>("@model_path/weights/weight.bin"), offset = tensor<uint64, []>(259646656)))];
            tensor<fp16, [10240]> up_blocks_1_attentions_0_transformer_blocks_0_ff_net_0_proj_bias_to_fp16 = const()[name = tensor<string, []>("up_blocks_1_attentions_0_transformer_blocks_0_ff_net_0_proj_bias_to_fp16"), val = tensor<fp16, [10240]>(BLOBFILE(path = tensor<string, []>("@model_path/weights/weight.bin"), offset = tensor<uint64, []>(285861120)))];
            tensor<fp16, [2, 10240, 1, 256]> var_4801_cast = conv(bias = up_blocks_1_attentions_0_transformer_blocks_0_ff_net_0_proj_bias_to_fp16, dilations = var_4799, groups = var_4272, pad = var_4801_pad_0, pad_type = var_4801_pad_type_0, strides = var_4797, weight = up_blocks_1_attentions_0_transformer_blocks_0_ff_net_0_proj_weight_to_fp16, x = input_305_cast);
            tensor<int32, [2]> var_4802_split_sizes_0 = const()[name = tensor<string, []>("op_4802_split_sizes_0"), val = tensor<int32, [2]>([5120, 5120])];
            tensor<int32, []> var_4802_axis_0 = const()[name = tensor<string, []>("op_4802_axis_0"), val = tensor<int32, []>(1)];
            tensor<fp16, [2, 5120, 1, 256]> var_4802_cast_0, tensor<fp16, [2, 5120, 1, 256]> var_4802_cast_1 = split(axis = var_4802_axis_0, split_sizes = var_4802_split_sizes_0, x = var_4801_cast);
            tensor<string, []> var_4804_mode_0 = const()[name = tensor<string, []>("op_4804_mode_0"), val = tensor<string, []>("EXACT")];
            tensor<fp16, [2, 5120, 1, 256]> var_4804_cast = gelu(mode = var_4804_mode_0, x = var_4802_cast_1);
            tensor<fp16, [2, 5120, 1, 256]> input_307_cast = mul(x = var_4802_cast_0, y = var_4804_cast);
            tensor<int32, [2]> var_4808 = const()[name = tensor<string, []>("op_4808"), val = tensor<int32, [2]>([1, 1])];
            tensor<int32, [2]> var_4810 = const()[name = tensor<string, []>("op_4810"), val = tensor<int32, [2]>([1, 1])];
            tensor<string, []> var_4812_pad_type_0 = const()[name = tensor<string, []>("op_4812_pad_type_0"), val = tensor<string, []>("custom")];
            tensor<int32, [4]> var_4812_pad_0 = const()[name = tensor<string, []>("op_4812_pad_0"), val = tensor<int32, [4]>([0, 0, 0, 0])];
            tensor<fp16, [1280, 5120, 1, 1]> up_blocks_1_attentions_0_transformer_blocks_0_ff_net_2_weight_to_fp16 = const()[name = tensor<string, []>("up_blocks_1_attentions_0_transformer_blocks_0_ff_net_2_weight_to_fp16"), val = tensor<fp16, [1280, 5120, 1, 1]>(BLOBFILE(path = tensor<string, []>("@model_path/weights/weight.bin"), offset = tensor<uint64, []>(285881664)))];
            tensor<fp16, [1280]> up_blocks_1_attentions_0_transformer_blocks_0_ff_net_2_bias_to_fp16 = const()[name = tensor<string, []>("up_blocks_1_attentions_0_transformer_blocks_0_ff_net_2_bias_to_fp16"), val = tensor<fp16, [1280]>(BLOBFILE(path = tensor<string, []>("@model_path/weights/weight.bin"), offset = tensor<uint64, []>(298988928)))];
            tensor<fp16, [2, 1280, 1, 256]> var_4812_cast = conv(bias = up_blocks_1_attentions_0_transformer_blocks_0_ff_net_2_bias_to_fp16, dilations = var_4810, groups = var_4272, pad = var_4812_pad_0, pad_type = var_4812_pad_type_0, strides = var_4808, weight = up_blocks_1_attentions_0_transformer_blocks_0_ff_net_2_weight_to_fp16, x = input_307_cast);
            tensor<fp16, [2, 1280, 1, 256]> hidden_states_173_cast = add(x = var_4812_cast, y = inputs_47_cast);
            tensor<int32, [4]> var_4814 = const()[name = tensor<string, []>("op_4814"), val = tensor<int32, [4]>([2, 1280, 16, 16])];
            tensor<fp16, [2, 1280, 16, 16]> input_309_cast = reshape(shape = var_4814, x = hidden_states_173_cast);
            tensor<int32, [2]> var_4818 = const()[name = tensor<string, []>("op_4818"), val = tensor<int32, [2]>([1, 1])];
            tensor<int32, [2]> var_4820 = const()[name = tensor<string, []>("op_4820"), val = tensor<int32, [2]>([1, 1])];
            tensor<string, []> hidden_states_175_pad_type_0 = const()[name = tensor<string, []>("hidden_states_175_pad_type_0"), val = tensor<string, []>("custom")];
            tensor<int32, [4]> hidden_states_175_pad_0 = const()[name = tensor<string, []>("hidden_states_175_pad_0"), val = tensor<int32, [4]>([0, 0, 0, 0])];
            tensor<fp16, [1280, 1280, 1, 1]> up_blocks_1_attentions_0_proj_out_weight_to_fp16 = const()[name = tensor<string, []>("up_blocks_1_attentions_0_proj_out_weight_to_fp16"), val = tensor<fp16, [1280, 1280, 1, 1]>(BLOBFILE(path = tensor<string, []>("@model_path/weights/weight.bin"), offset = tensor<uint64, []>(298991552)))];
            tensor<fp16, [1280]> up_blocks_1_attentions_0_proj_out_bias_to_fp16 = const()[name = tensor<string, []>("up_blocks_1_attentions_0_proj_out_bias_to_fp16"), val = tensor<fp16, [1280]>(BLOBFILE(path = tensor<string, []>("@model_path/weights/weight.bin"), offset = tensor<uint64, []>(302268416)))];
            tensor<fp16, [2, 1280, 16, 16]> hidden_states_175_cast = conv(bias = up_blocks_1_attentions_0_proj_out_bias_to_fp16, dilations = var_4820, groups = var_4272, pad = hidden_states_175_pad_0, pad_type = hidden_states_175_pad_type_0, strides = var_4818, weight = up_blocks_1_attentions_0_proj_out_weight_to_fp16, x = input_309_cast);
            tensor<fp16, [2, 1280, 16, 16]> hidden_states_177_cast = add(x = hidden_states_175_cast, y = hidden_states_163_cast);
            tensor<bool, []> input_311_interleave_0 = const()[name = tensor<string, []>("input_311_interleave_0"), val = tensor<bool, []>(false)];
            tensor<fp16, [2, 1280, 16, 16]> cast_5 = cast(dtype = cast_14_dtype_0, x = input_143_cast);
            tensor<fp16, [2, 2560, 16, 16]> input_311_cast = concat(axis = var_4272, interleave = input_311_interleave_0, values = (hidden_states_177_cast, cast_5));
            tensor<int32, [5]> reshape_144_shape_0 = const()[name = tensor<string, []>("reshape_144_shape_0"), val = tensor<int32, [5]>([2, 32, 80, 16, 16])];
            tensor<fp16, [2, 32, 80, 16, 16]> reshape_144_cast = reshape(shape = reshape_144_shape_0, x = input_311_cast);
            tensor<int32, [3]> reduce_mean_108_axes_0 = const()[name = tensor<string, []>("reduce_mean_108_axes_0"), val = tensor<int32, [3]>([2, 3, 4])];
            tensor<bool, []> reduce_mean_108_keep_dims_0 = const()[name = tensor<string, []>("reduce_mean_108_keep_dims_0"), val = tensor<bool, []>(true)];
            tensor<fp16, [2, 32, 1, 1, 1]> reduce_mean_108_cast = reduce_mean(axes = reduce_mean_108_axes_0, keep_dims = reduce_mean_108_keep_dims_0, x = reshape_144_cast);
            tensor<fp16, [2, 32, 80, 16, 16]> sub_72_cast = sub(x = reshape_144_cast, y = reduce_mean_108_cast);
            tensor<fp16, [2, 32, 80, 16, 16]> square_36_cast = square(x = sub_72_cast);
            tensor<int32, [3]> reduce_mean_110_axes_0 = const()[name = tensor<string, []>("reduce_mean_110_axes_0"), val = tensor<int32, [3]>([2, 3, 4])];
            tensor<bool, []> reduce_mean_110_keep_dims_0 = const()[name = tensor<string, []>("reduce_mean_110_keep_dims_0"), val = tensor<bool, []>(true)];
            tensor<fp16, [2, 32, 1, 1, 1]> reduce_mean_110_cast = reduce_mean(axes = reduce_mean_110_axes_0, keep_dims = reduce_mean_110_keep_dims_0, x = square_36_cast);
            tensor<fp16, []> add_72_y_0_to_fp16 = const()[name = tensor<string, []>("add_72_y_0_to_fp16"), val = tensor<fp16, []>(0x1.5p-17)];
            tensor<fp16, [2, 32, 1, 1, 1]> add_72_cast = add(x = reduce_mean_110_cast, y = add_72_y_0_to_fp16);
            tensor<fp16, [2, 32, 1, 1, 1]> sqrt_36_cast = sqrt(x = add_72_cast);
            tensor<fp16, [2, 32, 80, 16, 16]> real_div_36_cast = real_div(x = sub_72_cast, y = sqrt_36_cast);
            tensor<int32, [4]> reshape_145_shape_0 = const()[name = tensor<string, []>("reshape_145_shape_0"), val = tensor<int32, [4]>([2, 2560, 16, 16])];
            tensor<fp16, [2, 2560, 16, 16]> reshape_145_cast = reshape(shape = reshape_145_shape_0, x = real_div_36_cast);
            tensor<fp16, [2560]> add_73_mean_0_to_fp16 = const()[name = tensor<string, []>("add_73_mean_0_to_fp16"), val = tensor<fp16, [2560]>(BLOBFILE(path = tensor<string, []>("@model_path/weights/weight.bin"), offset = tensor<uint64, []>(302271040)))];
            tensor<fp16, [2560]> add_73_variance_0_to_fp16 = const()[name = tensor<string, []>("add_73_variance_0_to_fp16"), val = tensor<fp16, [2560]>(BLOBFILE(path = tensor<string, []>("@model_path/weights/weight.bin"), offset = tensor<uint64, []>(302276224)))];
            tensor<fp16, [2560]> add_73_gamma_0_to_fp16 = const()[name = tensor<string, []>("add_73_gamma_0_to_fp16"), val = tensor<fp16, [2560]>(BLOBFILE(path = tensor<string, []>("@model_path/weights/weight.bin"), offset = tensor<uint64, []>(302281408)))];
            tensor<fp16, [2560]> add_73_beta_0_to_fp16 = const()[name = tensor<string, []>("add_73_beta_0_to_fp16"), val = tensor<fp16, [2560]>(BLOBFILE(path = tensor<string, []>("@model_path/weights/weight.bin"), offset = tensor<uint64, []>(302286592)))];
            tensor<fp16, []> add_73_epsilon_0_to_fp16 = const()[name = tensor<string, []>("add_73_epsilon_0_to_fp16"), val = tensor<fp16, []>(0x1.5p-17)];
            tensor<fp16, [2, 2560, 16, 16]> add_73_cast = batch_norm(beta = add_73_beta_0_to_fp16, epsilon = add_73_epsilon_0_to_fp16, gamma = add_73_gamma_0_to_fp16, mean = add_73_mean_0_to_fp16, variance = add_73_variance_0_to_fp16, x = reshape_145_cast);
            tensor<fp16, [2, 2560, 16, 16]> input_315_cast = silu(x = add_73_cast);
            tensor<int32, [2]> var_4838 = const()[name = tensor<string, []>("op_4838"), val = tensor<int32, [2]>([1, 1])];
            tensor<int32, [2]> var_4840 = const()[name = tensor<string, []>("op_4840"), val = tensor<int32, [2]>([1, 1])];
            tensor<string, []> hidden_states_179_pad_type_0 = const()[name = tensor<string, []>("hidden_states_179_pad_type_0"), val = tensor<string, []>("custom")];
            tensor<int32, [4]> hidden_states_179_pad_0 = const()[name = tensor<string, []>("hidden_states_179_pad_0"), val = tensor<int32, [4]>([1, 1, 1, 1])];
            tensor<fp16, [1280, 2560, 3, 3]> up_blocks_1_resnets_1_conv1_weight_to_fp16 = const()[name = tensor<string, []>("up_blocks_1_resnets_1_conv1_weight_to_fp16"), val = tensor<fp16, [1280, 2560, 3, 3]>(BLOBFILE(path = tensor<string, []>("@model_path/weights/weight.bin"), offset = tensor<uint64, []>(302291776)))];
            tensor<fp16, [1280]> up_blocks_1_resnets_1_conv1_bias_to_fp16 = const()[name = tensor<string, []>("up_blocks_1_resnets_1_conv1_bias_to_fp16"), val = tensor<fp16, [1280]>(BLOBFILE(path = tensor<string, []>("@model_path/weights/weight.bin"), offset = tensor<uint64, []>(361274240)))];
            tensor<fp16, [2, 1280, 16, 16]> hidden_states_179_cast = conv(bias = up_blocks_1_resnets_1_conv1_bias_to_fp16, dilations = var_4840, groups = var_4272, pad = hidden_states_179_pad_0, pad_type = hidden_states_179_pad_type_0, strides = var_4838, weight = up_blocks_1_resnets_1_conv1_weight_to_fp16, x = input_315_cast);
            tensor<int32, [2]> var_4846 = const()[name = tensor<string, []>("op_4846"), val = tensor<int32, [2]>([1, 1])];
            tensor<int32, [2]> var_4848 = const()[name = tensor<string, []>("op_4848"), val = tensor<int32, [2]>([1, 1])];
            tensor<string, []> temb_29_pad_type_0 = const()[name = tensor<string, []>("temb_29_pad_type_0"), val = tensor<string, []>("custom")];
            tensor<int32, [4]> temb_29_pad_0 = const()[name = tensor<string, []>("temb_29_pad_0"), val = tensor<int32, [4]>([0, 0, 0, 0])];
            tensor<fp16, [1280, 1280, 1, 1]> up_blocks_1_resnets_1_time_emb_proj_weight_to_fp16 = const()[name = tensor<string, []>("up_blocks_1_resnets_1_time_emb_proj_weight_to_fp16"), val = tensor<fp16, [1280, 1280, 1, 1]>(BLOBFILE(path = tensor<string, []>("@model_path/weights/weight.bin"), offset = tensor<uint64, []>(361276864)))];
            tensor<fp16, [1280]> up_blocks_1_resnets_1_time_emb_proj_bias_to_fp16 = const()[name = tensor<string, []>("up_blocks_1_resnets_1_time_emb_proj_bias_to_fp16"), val = tensor<fp16, [1280]>(BLOBFILE(path = tensor<string, []>("@model_path/weights/weight.bin"), offset = tensor<uint64, []>(364553728)))];
            tensor<fp16, [2, 1280, 1, 1]> temb_29_cast = conv(bias = up_blocks_1_resnets_1_time_emb_proj_bias_to_fp16, dilations = var_4848, groups = var_4272, pad = temb_29_pad_0, pad_type = temb_29_pad_type_0, strides = var_4846, weight = up_blocks_1_resnets_1_time_emb_proj_weight_to_fp16, x = cast_12);
            tensor<fp16, [2, 1280, 16, 16]> input_319_cast = add(x = hidden_states_179_cast, y = temb_29_cast);
            tensor<int32, [5]> reshape_148_shape_0 = const()[name = tensor<string, []>("reshape_148_shape_0"), val = tensor<int32, [5]>([2, 32, 40, 16, 16])];
            tensor<fp16, [2, 32, 40, 16, 16]> reshape_148_cast = reshape(shape = reshape_148_shape_0, x = input_319_cast);
            tensor<int32, [3]> reduce_mean_111_axes_0 = const()[name = tensor<string, []>("reduce_mean_111_axes_0"), val = tensor<int32, [3]>([2, 3, 4])];
            tensor<bool, []> reduce_mean_111_keep_dims_0 = const()[name = tensor<string, []>("reduce_mean_111_keep_dims_0"), val = tensor<bool, []>(true)];
            tensor<fp16, [2, 32, 1, 1, 1]> reduce_mean_111_cast = reduce_mean(axes = reduce_mean_111_axes_0, keep_dims = reduce_mean_111_keep_dims_0, x = reshape_148_cast);
            tensor<fp16, [2, 32, 40, 16, 16]> sub_74_cast = sub(x = reshape_148_cast, y = reduce_mean_111_cast);
            tensor<fp16, [2, 32, 40, 16, 16]> square_37_cast = square(x = sub_74_cast);
            tensor<int32, [3]> reduce_mean_113_axes_0 = const()[name = tensor<string, []>("reduce_mean_113_axes_0"), val = tensor<int32, [3]>([2, 3, 4])];
            tensor<bool, []> reduce_mean_113_keep_dims_0 = const()[name = tensor<string, []>("reduce_mean_113_keep_dims_0"), val = tensor<bool, []>(true)];
            tensor<fp16, [2, 32, 1, 1, 1]> reduce_mean_113_cast = reduce_mean(axes = reduce_mean_113_axes_0, keep_dims = reduce_mean_113_keep_dims_0, x = square_37_cast);
            tensor<fp16, []> add_74_y_0_to_fp16 = const()[name = tensor<string, []>("add_74_y_0_to_fp16"), val = tensor<fp16, []>(0x1.5p-17)];
            tensor<fp16, [2, 32, 1, 1, 1]> add_74_cast = add(x = reduce_mean_113_cast, y = add_74_y_0_to_fp16);
            tensor<fp16, [2, 32, 1, 1, 1]> sqrt_37_cast = sqrt(x = add_74_cast);
            tensor<fp16, [2, 32, 40, 16, 16]> real_div_37_cast = real_div(x = sub_74_cast, y = sqrt_37_cast);
            tensor<int32, [4]> reshape_149_shape_0 = const()[name = tensor<string, []>("reshape_149_shape_0"), val = tensor<int32, [4]>([2, 1280, 16, 16])];
            tensor<fp16, [2, 1280, 16, 16]> reshape_149_cast = reshape(shape = reshape_149_shape_0, x = real_div_37_cast);
            tensor<fp16, [1280]> add_75_mean_0_to_fp16 = const()[name = tensor<string, []>("add_75_mean_0_to_fp16"), val = tensor<fp16, [1280]>(BLOBFILE(path = tensor<string, []>("@model_path/weights/weight.bin"), offset = tensor<uint64, []>(364556352)))];
            tensor<fp16, [1280]> add_75_variance_0_to_fp16 = const()[name = tensor<string, []>("add_75_variance_0_to_fp16"), val = tensor<fp16, [1280]>(BLOBFILE(path = tensor<string, []>("@model_path/weights/weight.bin"), offset = tensor<uint64, []>(364558976)))];
            tensor<fp16, [1280]> add_75_gamma_0_to_fp16 = const()[name = tensor<string, []>("add_75_gamma_0_to_fp16"), val = tensor<fp16, [1280]>(BLOBFILE(path = tensor<string, []>("@model_path/weights/weight.bin"), offset = tensor<uint64, []>(364561600)))];
            tensor<fp16, [1280]> add_75_beta_0_to_fp16 = const()[name = tensor<string, []>("add_75_beta_0_to_fp16"), val = tensor<fp16, [1280]>(BLOBFILE(path = tensor<string, []>("@model_path/weights/weight.bin"), offset = tensor<uint64, []>(364564224)))];
            tensor<fp16, []> add_75_epsilon_0_to_fp16 = const()[name = tensor<string, []>("add_75_epsilon_0_to_fp16"), val = tensor<fp16, []>(0x1.5p-17)];
            tensor<fp16, [2, 1280, 16, 16]> add_75_cast = batch_norm(beta = add_75_beta_0_to_fp16, epsilon = add_75_epsilon_0_to_fp16, gamma = add_75_gamma_0_to_fp16, mean = add_75_mean_0_to_fp16, variance = add_75_variance_0_to_fp16, x = reshape_149_cast);
            tensor<fp16, [2, 1280, 16, 16]> input_323_cast = silu(x = add_75_cast);
            tensor<int32, [2]> var_4858 = const()[name = tensor<string, []>("op_4858"), val = tensor<int32, [2]>([1, 1])];
            tensor<int32, [2]> var_4860 = const()[name = tensor<string, []>("op_4860"), val = tensor<int32, [2]>([1, 1])];
            tensor<string, []> hidden_states_181_pad_type_0 = const()[name = tensor<string, []>("hidden_states_181_pad_type_0"), val = tensor<string, []>("custom")];
            tensor<int32, [4]> hidden_states_181_pad_0 = const()[name = tensor<string, []>("hidden_states_181_pad_0"), val = tensor<int32, [4]>([1, 1, 1, 1])];
            tensor<fp16, [1280, 1280, 3, 3]> up_blocks_1_resnets_1_conv2_weight_to_fp16 = const()[name = tensor<string, []>("up_blocks_1_resnets_1_conv2_weight_to_fp16"), val = tensor<fp16, [1280, 1280, 3, 3]>(BLOBFILE(path = tensor<string, []>("@model_path/weights/weight.bin"), offset = tensor<uint64, []>(364566848)))];
            tensor<fp16, [1280]> up_blocks_1_resnets_1_conv2_bias_to_fp16 = const()[name = tensor<string, []>("up_blocks_1_resnets_1_conv2_bias_to_fp16"), val = tensor<fp16, [1280]>(BLOBFILE(path = tensor<string, []>("@model_path/weights/weight.bin"), offset = tensor<uint64, []>(394058112)))];
            tensor<fp16, [2, 1280, 16, 16]> hidden_states_181_cast = conv(bias = up_blocks_1_resnets_1_conv2_bias_to_fp16, dilations = var_4860, groups = var_4272, pad = hidden_states_181_pad_0, pad_type = hidden_states_181_pad_type_0, strides = var_4858, weight = up_blocks_1_resnets_1_conv2_weight_to_fp16, x = input_323_cast);
            tensor<int32, [2]> var_4865 = const()[name = tensor<string, []>("op_4865"), val = tensor<int32, [2]>([1, 1])];
            tensor<int32, [2]> var_4867 = const()[name = tensor<string, []>("op_4867"), val = tensor<int32, [2]>([1, 1])];
            tensor<string, []> x_13_pad_type_0 = const()[name = tensor<string, []>("x_13_pad_type_0"), val = tensor<string, []>("custom")];
            tensor<int32, [4]> x_13_pad_0 = const()[name = tensor<string, []>("x_13_pad_0"), val = tensor<int32, [4]>([0, 0, 0, 0])];
            tensor<fp16, [1280, 2560, 1, 1]> up_blocks_1_resnets_1_conv_shortcut_weight_to_fp16 = const()[name = tensor<string, []>("up_blocks_1_resnets_1_conv_shortcut_weight_to_fp16"), val = tensor<fp16, [1280, 2560, 1, 1]>(BLOBFILE(path = tensor<string, []>("@model_path/weights/weight.bin"), offset = tensor<uint64, []>(394060736)))];
            tensor<fp16, [1280]> up_blocks_1_resnets_1_conv_shortcut_bias_to_fp16 = const()[name = tensor<string, []>("up_blocks_1_resnets_1_conv_shortcut_bias_to_fp16"), val = tensor<fp16, [1280]>(BLOBFILE(path = tensor<string, []>("@model_path/weights/weight.bin"), offset = tensor<uint64, []>(400614400)))];
            tensor<fp16, [2, 1280, 16, 16]> x_13_cast = conv(bias = up_blocks_1_resnets_1_conv_shortcut_bias_to_fp16, dilations = var_4867, groups = var_4272, pad = x_13_pad_0, pad_type = x_13_pad_type_0, strides = var_4865, weight = up_blocks_1_resnets_1_conv_shortcut_weight_to_fp16, x = input_311_cast);
            tensor<fp16, [2, 1280, 16, 16]> hidden_states_183_cast = add(x = x_13_cast, y = hidden_states_181_cast);
            tensor<int32, [5]> reshape_152_shape_0 = const()[name = tensor<string, []>("reshape_152_shape_0"), val = tensor<int32, [5]>([2, 32, 40, 16, 16])];
            tensor<fp16, [2, 32, 40, 16, 16]> reshape_152_cast = reshape(shape = reshape_152_shape_0, x = hidden_states_183_cast);
            tensor<int32, [3]> reduce_mean_114_axes_0 = const()[name = tensor<string, []>("reduce_mean_114_axes_0"), val = tensor<int32, [3]>([2, 3, 4])];
            tensor<bool, []> reduce_mean_114_keep_dims_0 = const()[name = tensor<string, []>("reduce_mean_114_keep_dims_0"), val = tensor<bool, []>(true)];
            tensor<fp16, [2, 32, 1, 1, 1]> reduce_mean_114_cast = reduce_mean(axes = reduce_mean_114_axes_0, keep_dims = reduce_mean_114_keep_dims_0, x = reshape_152_cast);
            tensor<fp16, [2, 32, 40, 16, 16]> sub_76_cast = sub(x = reshape_152_cast, y = reduce_mean_114_cast);
            tensor<fp16, [2, 32, 40, 16, 16]> square_38_cast = square(x = sub_76_cast);
            tensor<int32, [3]> reduce_mean_116_axes_0 = const()[name = tensor<string, []>("reduce_mean_116_axes_0"), val = tensor<int32, [3]>([2, 3, 4])];
            tensor<bool, []> reduce_mean_116_keep_dims_0 = const()[name = tensor<string, []>("reduce_mean_116_keep_dims_0"), val = tensor<bool, []>(true)];
            tensor<fp16, [2, 32, 1, 1, 1]> reduce_mean_116_cast = reduce_mean(axes = reduce_mean_116_axes_0, keep_dims = reduce_mean_116_keep_dims_0, x = square_38_cast);
            tensor<fp16, []> add_76_y_0_to_fp16 = const()[name = tensor<string, []>("add_76_y_0_to_fp16"), val = tensor<fp16, []>(0x1.1p-20)];
            tensor<fp16, [2, 32, 1, 1, 1]> add_76_cast = add(x = reduce_mean_116_cast, y = add_76_y_0_to_fp16);
            tensor<fp16, [2, 32, 1, 1, 1]> sqrt_38_cast = sqrt(x = add_76_cast);
            tensor<fp16, [2, 32, 40, 16, 16]> real_div_38_cast = real_div(x = sub_76_cast, y = sqrt_38_cast);
            tensor<int32, [4]> reshape_153_shape_0 = const()[name = tensor<string, []>("reshape_153_shape_0"), val = tensor<int32, [4]>([2, 1280, 16, 16])];
            tensor<fp16, [2, 1280, 16, 16]> reshape_153_cast = reshape(shape = reshape_153_shape_0, x = real_div_38_cast);
            tensor<fp16, [1280]> add_77_mean_0_to_fp16 = const()[name = tensor<string, []>("add_77_mean_0_to_fp16"), val = tensor<fp16, [1280]>(BLOBFILE(path = tensor<string, []>("@model_path/weights/weight.bin"), offset = tensor<uint64, []>(400617024)))];
            tensor<fp16, [1280]> add_77_variance_0_to_fp16 = const()[name = tensor<string, []>("add_77_variance_0_to_fp16"), val = tensor<fp16, [1280]>(BLOBFILE(path = tensor<string, []>("@model_path/weights/weight.bin"), offset = tensor<uint64, []>(400619648)))];
            tensor<fp16, [1280]> add_77_gamma_0_to_fp16 = const()[name = tensor<string, []>("add_77_gamma_0_to_fp16"), val = tensor<fp16, [1280]>(BLOBFILE(path = tensor<string, []>("@model_path/weights/weight.bin"), offset = tensor<uint64, []>(400622272)))];
            tensor<fp16, [1280]> add_77_beta_0_to_fp16 = const()[name = tensor<string, []>("add_77_beta_0_to_fp16"), val = tensor<fp16, [1280]>(BLOBFILE(path = tensor<string, []>("@model_path/weights/weight.bin"), offset = tensor<uint64, []>(400624896)))];
            tensor<fp16, []> add_77_epsilon_0_to_fp16 = const()[name = tensor<string, []>("add_77_epsilon_0_to_fp16"), val = tensor<fp16, []>(0x1.5p-17)];
            tensor<fp16, [2, 1280, 16, 16]> add_77_cast = batch_norm(beta = add_77_beta_0_to_fp16, epsilon = add_77_epsilon_0_to_fp16, gamma = add_77_gamma_0_to_fp16, mean = add_77_mean_0_to_fp16, variance = add_77_variance_0_to_fp16, x = reshape_153_cast);
            tensor<int32, [2]> var_4887 = const()[name = tensor<string, []>("op_4887"), val = tensor<int32, [2]>([1, 1])];
            tensor<int32, [2]> var_4889 = const()[name = tensor<string, []>("op_4889"), val = tensor<int32, [2]>([1, 1])];
            tensor<string, []> hidden_states_185_pad_type_0 = const()[name = tensor<string, []>("hidden_states_185_pad_type_0"), val = tensor<string, []>("custom")];
            tensor<int32, [4]> hidden_states_185_pad_0 = const()[name = tensor<string, []>("hidden_states_185_pad_0"), val = tensor<int32, [4]>([0, 0, 0, 0])];
            tensor<fp16, [1280, 1280, 1, 1]> up_blocks_1_attentions_1_proj_in_weight_to_fp16 = const()[name = tensor<string, []>("up_blocks_1_attentions_1_proj_in_weight_to_fp16"), val = tensor<fp16, [1280, 1280, 1, 1]>(BLOBFILE(path = tensor<string, []>("@model_path/weights/weight.bin"), offset = tensor<uint64, []>(400627520)))];
            tensor<fp16, [1280]> up_blocks_1_attentions_1_proj_in_bias_to_fp16 = const()[name = tensor<string, []>("up_blocks_1_attentions_1_proj_in_bias_to_fp16"), val = tensor<fp16, [1280]>(BLOBFILE(path = tensor<string, []>("@model_path/weights/weight.bin"), offset = tensor<uint64, []>(403904384)))];
            tensor<fp16, [2, 1280, 16, 16]> hidden_states_185_cast = conv(bias = up_blocks_1_attentions_1_proj_in_bias_to_fp16, dilations = var_4889, groups = var_4272, pad = hidden_states_185_pad_0, pad_type = hidden_states_185_pad_type_0, strides = var_4887, weight = up_blocks_1_attentions_1_proj_in_weight_to_fp16, x = add_77_cast);
            tensor<int32, [4]> var_4894 = const()[name = tensor<string, []>("op_4894"), val = tensor<int32, [4]>([2, 1280, 1, 256])];
            tensor<fp16, [2, 1280, 1, 256]> inputs_49_cast = reshape(shape = var_4894, x = hidden_states_185_cast);
            tensor<int32, [1]> var_4904 = const()[name = tensor<string, []>("op_4904"), val = tensor<int32, [1]>([1])];
            tensor<fp16, [2, 1, 1, 256]> channels_mean_49_cast = reduce_mean(axes = var_4904, keep_dims = var_4267, x = inputs_49_cast);
            tensor<fp16, [2, 1280, 1, 256]> zero_mean_49_cast = sub(x = inputs_49_cast, y = channels_mean_49_cast);
            tensor<fp16, [2, 1280, 1, 256]> zero_mean_sq_49_cast = mul(x = zero_mean_49_cast, y = zero_mean_49_cast);
            tensor<int32, [1]> var_4908 = const()[name = tensor<string, []>("op_4908"), val = tensor<int32, [1]>([1])];
            tensor<fp16, [2, 1, 1, 256]> var_4909_cast = reduce_mean(axes = var_4908, keep_dims = var_4267, x = zero_mean_sq_49_cast);
            tensor<fp16, []> var_4910_to_fp16 = const()[name = tensor<string, []>("op_4910_to_fp16"), val = tensor<fp16, []>(0x1.5p-17)];
            tensor<fp16, [2, 1, 1, 256]> var_4911_cast = add(x = var_4909_cast, y = var_4910_to_fp16);
            tensor<fp16, []> denom_49_epsilon_0_to_fp16 = const()[name = tensor<string, []>("denom_49_epsilon_0_to_fp16"), val = tensor<fp16, []>(0x1p-24)];
            tensor<fp16, [2, 1, 1, 256]> denom_49_cast = rsqrt(epsilon = denom_49_epsilon_0_to_fp16, x = var_4911_cast);
            tensor<fp16, [2, 1280, 1, 256]> out_49_cast = mul(x = zero_mean_49_cast, y = denom_49_cast);
            tensor<fp16, [1, 1280, 1, 1]> var_4915_to_fp16 = const()[name = tensor<string, []>("op_4915_to_fp16"), val = tensor<fp16, [1, 1280, 1, 1]>(BLOBFILE(path = tensor<string, []>("@model_path/weights/weight.bin"), offset = tensor<uint64, []>(403907008)))];
            tensor<fp16, [2, 1280, 1, 256]> var_4916_cast = add(x = out_49_cast, y = var_4915_to_fp16);
            tensor<fp16, [1, 1280, 1, 1]> var_4918_to_fp16 = const()[name = tensor<string, []>("op_4918_to_fp16"), val = tensor<fp16, [1, 1280, 1, 1]>(BLOBFILE(path = tensor<string, []>("@model_path/weights/weight.bin"), offset = tensor<uint64, []>(403909632)))];
            tensor<fp16, [2, 1280, 1, 256]> hidden_states_187_cast = mul(x = var_4916_cast, y = var_4918_to_fp16);
            tensor<int32, [2]> var_4925 = const()[name = tensor<string, []>("op_4925"), val = tensor<int32, [2]>([1, 1])];
            tensor<int32, [2]> var_4927 = const()[name = tensor<string, []>("op_4927"), val = tensor<int32, [2]>([1, 1])];
            tensor<string, []> q_33_pad_type_0 = const()[name = tensor<string, []>("q_33_pad_type_0"), val = tensor<string, []>("custom")];
            tensor<int32, [4]> q_33_pad_0 = const()[name = tensor<string, []>("q_33_pad_0"), val = tensor<int32, [4]>([0, 0, 0, 0])];
            tensor<fp16, [1280, 1280, 1, 1]> up_blocks_1_attentions_1_transformer_blocks_0_attn1_to_q_weight_to_fp16 = const()[name = tensor<string, []>("up_blocks_1_attentions_1_transformer_blocks_0_attn1_to_q_weight_to_fp16"), val = tensor<fp16, [1280, 1280, 1, 1]>(BLOBFILE(path = tensor<string, []>("@model_path/weights/weight.bin"), offset = tensor<uint64, []>(403912256)))];
            tensor<fp16, [2, 1280, 1, 256]> q_33_cast = conv(dilations = var_4927, groups = var_4272, pad = q_33_pad_0, pad_type = q_33_pad_type_0, strides = var_4925, weight = up_blocks_1_attentions_1_transformer_blocks_0_attn1_to_q_weight_to_fp16, x = hidden_states_187_cast);
            tensor<int32, [2]> var_4931 = const()[name = tensor<string, []>("op_4931"), val = tensor<int32, [2]>([1, 1])];
            tensor<int32, [2]> var_4933 = const()[name = tensor<string, []>("op_4933"), val = tensor<int32, [2]>([1, 1])];
            tensor<string, []> k_65_pad_type_0 = const()[name = tensor<string, []>("k_65_pad_type_0"), val = tensor<string, []>("custom")];
            tensor<int32, [4]> k_65_pad_0 = const()[name = tensor<string, []>("k_65_pad_0"), val = tensor<int32, [4]>([0, 0, 0, 0])];
            tensor<fp16, [1280, 1280, 1, 1]> up_blocks_1_attentions_1_transformer_blocks_0_attn1_to_k_weight_to_fp16 = const()[name = tensor<string, []>("up_blocks_1_attentions_1_transformer_blocks_0_attn1_to_k_weight_to_fp16"), val = tensor<fp16, [1280, 1280, 1, 1]>(BLOBFILE(path = tensor<string, []>("@model_path/weights/weight.bin"), offset = tensor<uint64, []>(407189120)))];
            tensor<fp16, [2, 1280, 1, 256]> k_65_cast = conv(dilations = var_4933, groups = var_4272, pad = k_65_pad_0, pad_type = k_65_pad_type_0, strides = var_4931, weight = up_blocks_1_attentions_1_transformer_blocks_0_attn1_to_k_weight_to_fp16, x = hidden_states_187_cast);
            tensor<int32, [2]> var_4937 = const()[name = tensor<string, []>("op_4937"), val = tensor<int32, [2]>([1, 1])];
            tensor<int32, [2]> var_4939 = const()[name = tensor<string, []>("op_4939"), val = tensor<int32, [2]>([1, 1])];
            tensor<string, []> v_33_pad_type_0 = const()[name = tensor<string, []>("v_33_pad_type_0"), val = tensor<string, []>("custom")];
            tensor<int32, [4]> v_33_pad_0 = const()[name = tensor<string, []>("v_33_pad_0"), val = tensor<int32, [4]>([0, 0, 0, 0])];
            tensor<fp16, [1280, 1280, 1, 1]> up_blocks_1_attentions_1_transformer_blocks_0_attn1_to_v_weight_to_fp16 = const()[name = tensor<string, []>("up_blocks_1_attentions_1_transformer_blocks_0_attn1_to_v_weight_to_fp16"), val = tensor<fp16, [1280, 1280, 1, 1]>(BLOBFILE(path = tensor<string, []>("@model_path/weights/weight.bin"), offset = tensor<uint64, []>(410465984)))];
            tensor<fp16, [2, 1280, 1, 256]> v_33_cast = conv(dilations = var_4939, groups = var_4272, pad = v_33_pad_0, pad_type = v_33_pad_type_0, strides = var_4937, weight = up_blocks_1_attentions_1_transformer_blocks_0_attn1_to_v_weight_to_fp16, x = hidden_states_187_cast);
            tensor<int32, [4]> var_4943_begin_0 = const()[name = tensor<string, []>("op_4943_begin_0"), val = tensor<int32, [4]>([0, 0, 0, 0])];
            tensor<int32, [4]> var_4943_end_0 = const()[name = tensor<string, []>("op_4943_end_0"), val = tensor<int32, [4]>([2, 160, 1, 256])];
            tensor<bool, [4]> var_4943_end_mask_0 = const()[name = tensor<string, []>("op_4943_end_mask_0"), val = tensor<bool, [4]>([true, false, true, true])];
            tensor<fp16, [2, 160, 1, 256]> var_4943_cast = slice_by_index(begin = var_4943_begin_0, end = var_4943_end_0, end_mask = var_4943_end_mask_0, x = q_33_cast);
            tensor<int32, [4]> var_4947_begin_0 = const()[name = tensor<string, []>("op_4947_begin_0"), val = tensor<int32, [4]>([0, 160, 0, 0])];
            tensor<int32, [4]> var_4947_end_0 = const()[name = tensor<string, []>("op_4947_end_0"), val = tensor<int32, [4]>([2, 320, 1, 256])];
            tensor<bool, [4]> var_4947_end_mask_0 = const()[name = tensor<string, []>("op_4947_end_mask_0"), val = tensor<bool, [4]>([true, false, true, true])];
            tensor<fp16, [2, 160, 1, 256]> var_4947_cast = slice_by_index(begin = var_4947_begin_0, end = var_4947_end_0, end_mask = var_4947_end_mask_0, x = q_33_cast);
            tensor<int32, [4]> var_4951_begin_0 = const()[name = tensor<string, []>("op_4951_begin_0"), val = tensor<int32, [4]>([0, 320, 0, 0])];
            tensor<int32, [4]> var_4951_end_0 = const()[name = tensor<string, []>("op_4951_end_0"), val = tensor<int32, [4]>([2, 480, 1, 256])];
            tensor<bool, [4]> var_4951_end_mask_0 = const()[name = tensor<string, []>("op_4951_end_mask_0"), val = tensor<bool, [4]>([true, false, true, true])];
            tensor<fp16, [2, 160, 1, 256]> var_4951_cast = slice_by_index(begin = var_4951_begin_0, end = var_4951_end_0, end_mask = var_4951_end_mask_0, x = q_33_cast);
            tensor<int32, [4]> var_4955_begin_0 = const()[name = tensor<string, []>("op_4955_begin_0"), val = tensor<int32, [4]>([0, 480, 0, 0])];
            tensor<int32, [4]> var_4955_end_0 = const()[name = tensor<string, []>("op_4955_end_0"), val = tensor<int32, [4]>([2, 640, 1, 256])];
            tensor<bool, [4]> var_4955_end_mask_0 = const()[name = tensor<string, []>("op_4955_end_mask_0"), val = tensor<bool, [4]>([true, false, true, true])];
            tensor<fp16, [2, 160, 1, 256]> var_4955_cast = slice_by_index(begin = var_4955_begin_0, end = var_4955_end_0, end_mask = var_4955_end_mask_0, x = q_33_cast);
            tensor<int32, [4]> var_4959_begin_0 = const()[name = tensor<string, []>("op_4959_begin_0"), val = tensor<int32, [4]>([0, 640, 0, 0])];
            tensor<int32, [4]> var_4959_end_0 = const()[name = tensor<string, []>("op_4959_end_0"), val = tensor<int32, [4]>([2, 800, 1, 256])];
            tensor<bool, [4]> var_4959_end_mask_0 = const()[name = tensor<string, []>("op_4959_end_mask_0"), val = tensor<bool, [4]>([true, false, true, true])];
            tensor<fp16, [2, 160, 1, 256]> var_4959_cast = slice_by_index(begin = var_4959_begin_0, end = var_4959_end_0, end_mask = var_4959_end_mask_0, x = q_33_cast);
            tensor<int32, [4]> var_4963_begin_0 = const()[name = tensor<string, []>("op_4963_begin_0"), val = tensor<int32, [4]>([0, 800, 0, 0])];
            tensor<int32, [4]> var_4963_end_0 = const()[name = tensor<string, []>("op_4963_end_0"), val = tensor<int32, [4]>([2, 960, 1, 256])];
            tensor<bool, [4]> var_4963_end_mask_0 = const()[name = tensor<string, []>("op_4963_end_mask_0"), val = tensor<bool, [4]>([true, false, true, true])];
            tensor<fp16, [2, 160, 1, 256]> var_4963_cast = slice_by_index(begin = var_4963_begin_0, end = var_4963_end_0, end_mask = var_4963_end_mask_0, x = q_33_cast);
            tensor<int32, [4]> var_4967_begin_0 = const()[name = tensor<string, []>("op_4967_begin_0"), val = tensor<int32, [4]>([0, 960, 0, 0])];
            tensor<int32, [4]> var_4967_end_0 = const()[name = tensor<string, []>("op_4967_end_0"), val = tensor<int32, [4]>([2, 1120, 1, 256])];
            tensor<bool, [4]> var_4967_end_mask_0 = const()[name = tensor<string, []>("op_4967_end_mask_0"), val = tensor<bool, [4]>([true, false, true, true])];
            tensor<fp16, [2, 160, 1, 256]> var_4967_cast = slice_by_index(begin = var_4967_begin_0, end = var_4967_end_0, end_mask = var_4967_end_mask_0, x = q_33_cast);
            tensor<int32, [4]> var_4971_begin_0 = const()[name = tensor<string, []>("op_4971_begin_0"), val = tensor<int32, [4]>([0, 1120, 0, 0])];
            tensor<int32, [4]> var_4971_end_0 = const()[name = tensor<string, []>("op_4971_end_0"), val = tensor<int32, [4]>([2, 1280, 1, 256])];
            tensor<bool, [4]> var_4971_end_mask_0 = const()[name = tensor<string, []>("op_4971_end_mask_0"), val = tensor<bool, [4]>([true, false, true, true])];
            tensor<fp16, [2, 160, 1, 256]> var_4971_cast = slice_by_index(begin = var_4971_begin_0, end = var_4971_end_0, end_mask = var_4971_end_mask_0, x = q_33_cast);
            tensor<int32, [4]> k_67_perm_0 = const()[name = tensor<string, []>("k_67_perm_0"), val = tensor<int32, [4]>([0, 3, 2, 1])];
            tensor<int32, [4]> var_4978_begin_0 = const()[name = tensor<string, []>("op_4978_begin_0"), val = tensor<int32, [4]>([0, 0, 0, 0])];
            tensor<int32, [4]> var_4978_end_0 = const()[name = tensor<string, []>("op_4978_end_0"), val = tensor<int32, [4]>([2, 256, 1, 160])];
            tensor<bool, [4]> var_4978_end_mask_0 = const()[name = tensor<string, []>("op_4978_end_mask_0"), val = tensor<bool, [4]>([true, true, true, false])];
            tensor<fp16, [2, 256, 1, 1280]> transpose_15 = transpose(perm = k_67_perm_0, x = k_65_cast);
            tensor<fp16, [2, 256, 1, 160]> var_4978_cast = slice_by_index(begin = var_4978_begin_0, end = var_4978_end_0, end_mask = var_4978_end_mask_0, x = transpose_15);
            tensor<int32, [4]> var_4982_begin_0 = const()[name = tensor<string, []>("op_4982_begin_0"), val = tensor<int32, [4]>([0, 0, 0, 160])];
            tensor<int32, [4]> var_4982_end_0 = const()[name = tensor<string, []>("op_4982_end_0"), val = tensor<int32, [4]>([2, 256, 1, 320])];
            tensor<bool, [4]> var_4982_end_mask_0 = const()[name = tensor<string, []>("op_4982_end_mask_0"), val = tensor<bool, [4]>([true, true, true, false])];
            tensor<fp16, [2, 256, 1, 160]> var_4982_cast = slice_by_index(begin = var_4982_begin_0, end = var_4982_end_0, end_mask = var_4982_end_mask_0, x = transpose_15);
            tensor<int32, [4]> var_4986_begin_0 = const()[name = tensor<string, []>("op_4986_begin_0"), val = tensor<int32, [4]>([0, 0, 0, 320])];
            tensor<int32, [4]> var_4986_end_0 = const()[name = tensor<string, []>("op_4986_end_0"), val = tensor<int32, [4]>([2, 256, 1, 480])];
            tensor<bool, [4]> var_4986_end_mask_0 = const()[name = tensor<string, []>("op_4986_end_mask_0"), val = tensor<bool, [4]>([true, true, true, false])];
            tensor<fp16, [2, 256, 1, 160]> var_4986_cast = slice_by_index(begin = var_4986_begin_0, end = var_4986_end_0, end_mask = var_4986_end_mask_0, x = transpose_15);
            tensor<int32, [4]> var_4990_begin_0 = const()[name = tensor<string, []>("op_4990_begin_0"), val = tensor<int32, [4]>([0, 0, 0, 480])];
            tensor<int32, [4]> var_4990_end_0 = const()[name = tensor<string, []>("op_4990_end_0"), val = tensor<int32, [4]>([2, 256, 1, 640])];
            tensor<bool, [4]> var_4990_end_mask_0 = const()[name = tensor<string, []>("op_4990_end_mask_0"), val = tensor<bool, [4]>([true, true, true, false])];
            tensor<fp16, [2, 256, 1, 160]> var_4990_cast = slice_by_index(begin = var_4990_begin_0, end = var_4990_end_0, end_mask = var_4990_end_mask_0, x = transpose_15);
            tensor<int32, [4]> var_4994_begin_0 = const()[name = tensor<string, []>("op_4994_begin_0"), val = tensor<int32, [4]>([0, 0, 0, 640])];
            tensor<int32, [4]> var_4994_end_0 = const()[name = tensor<string, []>("op_4994_end_0"), val = tensor<int32, [4]>([2, 256, 1, 800])];
            tensor<bool, [4]> var_4994_end_mask_0 = const()[name = tensor<string, []>("op_4994_end_mask_0"), val = tensor<bool, [4]>([true, true, true, false])];
            tensor<fp16, [2, 256, 1, 160]> var_4994_cast = slice_by_index(begin = var_4994_begin_0, end = var_4994_end_0, end_mask = var_4994_end_mask_0, x = transpose_15);
            tensor<int32, [4]> var_4998_begin_0 = const()[name = tensor<string, []>("op_4998_begin_0"), val = tensor<int32, [4]>([0, 0, 0, 800])];
            tensor<int32, [4]> var_4998_end_0 = const()[name = tensor<string, []>("op_4998_end_0"), val = tensor<int32, [4]>([2, 256, 1, 960])];
            tensor<bool, [4]> var_4998_end_mask_0 = const()[name = tensor<string, []>("op_4998_end_mask_0"), val = tensor<bool, [4]>([true, true, true, false])];
            tensor<fp16, [2, 256, 1, 160]> var_4998_cast = slice_by_index(begin = var_4998_begin_0, end = var_4998_end_0, end_mask = var_4998_end_mask_0, x = transpose_15);
            tensor<int32, [4]> var_5002_begin_0 = const()[name = tensor<string, []>("op_5002_begin_0"), val = tensor<int32, [4]>([0, 0, 0, 960])];
            tensor<int32, [4]> var_5002_end_0 = const()[name = tensor<string, []>("op_5002_end_0"), val = tensor<int32, [4]>([2, 256, 1, 1120])];
            tensor<bool, [4]> var_5002_end_mask_0 = const()[name = tensor<string, []>("op_5002_end_mask_0"), val = tensor<bool, [4]>([true, true, true, false])];
            tensor<fp16, [2, 256, 1, 160]> var_5002_cast = slice_by_index(begin = var_5002_begin_0, end = var_5002_end_0, end_mask = var_5002_end_mask_0, x = transpose_15);
            tensor<int32, [4]> var_5006_begin_0 = const()[name = tensor<string, []>("op_5006_begin_0"), val = tensor<int32, [4]>([0, 0, 0, 1120])];
            tensor<int32, [4]> var_5006_end_0 = const()[name = tensor<string, []>("op_5006_end_0"), val = tensor<int32, [4]>([2, 256, 1, 1280])];
            tensor<bool, [4]> var_5006_end_mask_0 = const()[name = tensor<string, []>("op_5006_end_mask_0"), val = tensor<bool, [4]>([true, true, true, false])];
            tensor<fp16, [2, 256, 1, 160]> var_5006_cast = slice_by_index(begin = var_5006_begin_0, end = var_5006_end_0, end_mask = var_5006_end_mask_0, x = transpose_15);
            tensor<int32, [4]> var_5008_begin_0 = const()[name = tensor<string, []>("op_5008_begin_0"), val = tensor<int32, [4]>([0, 0, 0, 0])];
            tensor<int32, [4]> var_5008_end_0 = const()[name = tensor<string, []>("op_5008_end_0"), val = tensor<int32, [4]>([2, 160, 1, 256])];
            tensor<bool, [4]> var_5008_end_mask_0 = const()[name = tensor<string, []>("op_5008_end_mask_0"), val = tensor<bool, [4]>([true, false, true, true])];
            tensor<fp16, [2, 160, 1, 256]> var_5008_cast = slice_by_index(begin = var_5008_begin_0, end = var_5008_end_0, end_mask = var_5008_end_mask_0, x = v_33_cast);
            tensor<int32, [4]> var_5012_begin_0 = const()[name = tensor<string, []>("op_5012_begin_0"), val = tensor<int32, [4]>([0, 160, 0, 0])];
            tensor<int32, [4]> var_5012_end_0 = const()[name = tensor<string, []>("op_5012_end_0"), val = tensor<int32, [4]>([2, 320, 1, 256])];
            tensor<bool, [4]> var_5012_end_mask_0 = const()[name = tensor<string, []>("op_5012_end_mask_0"), val = tensor<bool, [4]>([true, false, true, true])];
            tensor<fp16, [2, 160, 1, 256]> var_5012_cast = slice_by_index(begin = var_5012_begin_0, end = var_5012_end_0, end_mask = var_5012_end_mask_0, x = v_33_cast);
            tensor<int32, [4]> var_5016_begin_0 = const()[name = tensor<string, []>("op_5016_begin_0"), val = tensor<int32, [4]>([0, 320, 0, 0])];
            tensor<int32, [4]> var_5016_end_0 = const()[name = tensor<string, []>("op_5016_end_0"), val = tensor<int32, [4]>([2, 480, 1, 256])];
            tensor<bool, [4]> var_5016_end_mask_0 = const()[name = tensor<string, []>("op_5016_end_mask_0"), val = tensor<bool, [4]>([true, false, true, true])];
            tensor<fp16, [2, 160, 1, 256]> var_5016_cast = slice_by_index(begin = var_5016_begin_0, end = var_5016_end_0, end_mask = var_5016_end_mask_0, x = v_33_cast);
            tensor<int32, [4]> var_5020_begin_0 = const()[name = tensor<string, []>("op_5020_begin_0"), val = tensor<int32, [4]>([0, 480, 0, 0])];
            tensor<int32, [4]> var_5020_end_0 = const()[name = tensor<string, []>("op_5020_end_0"), val = tensor<int32, [4]>([2, 640, 1, 256])];
            tensor<bool, [4]> var_5020_end_mask_0 = const()[name = tensor<string, []>("op_5020_end_mask_0"), val = tensor<bool, [4]>([true, false, true, true])];
            tensor<fp16, [2, 160, 1, 256]> var_5020_cast = slice_by_index(begin = var_5020_begin_0, end = var_5020_end_0, end_mask = var_5020_end_mask_0, x = v_33_cast);
            tensor<int32, [4]> var_5024_begin_0 = const()[name = tensor<string, []>("op_5024_begin_0"), val = tensor<int32, [4]>([0, 640, 0, 0])];
            tensor<int32, [4]> var_5024_end_0 = const()[name = tensor<string, []>("op_5024_end_0"), val = tensor<int32, [4]>([2, 800, 1, 256])];
            tensor<bool, [4]> var_5024_end_mask_0 = const()[name = tensor<string, []>("op_5024_end_mask_0"), val = tensor<bool, [4]>([true, false, true, true])];
            tensor<fp16, [2, 160, 1, 256]> var_5024_cast = slice_by_index(begin = var_5024_begin_0, end = var_5024_end_0, end_mask = var_5024_end_mask_0, x = v_33_cast);
            tensor<int32, [4]> var_5028_begin_0 = const()[name = tensor<string, []>("op_5028_begin_0"), val = tensor<int32, [4]>([0, 800, 0, 0])];
            tensor<int32, [4]> var_5028_end_0 = const()[name = tensor<string, []>("op_5028_end_0"), val = tensor<int32, [4]>([2, 960, 1, 256])];
            tensor<bool, [4]> var_5028_end_mask_0 = const()[name = tensor<string, []>("op_5028_end_mask_0"), val = tensor<bool, [4]>([true, false, true, true])];
            tensor<fp16, [2, 160, 1, 256]> var_5028_cast = slice_by_index(begin = var_5028_begin_0, end = var_5028_end_0, end_mask = var_5028_end_mask_0, x = v_33_cast);
            tensor<int32, [4]> var_5032_begin_0 = const()[name = tensor<string, []>("op_5032_begin_0"), val = tensor<int32, [4]>([0, 960, 0, 0])];
            tensor<int32, [4]> var_5032_end_0 = const()[name = tensor<string, []>("op_5032_end_0"), val = tensor<int32, [4]>([2, 1120, 1, 256])];
            tensor<bool, [4]> var_5032_end_mask_0 = const()[name = tensor<string, []>("op_5032_end_mask_0"), val = tensor<bool, [4]>([true, false, true, true])];
            tensor<fp16, [2, 160, 1, 256]> var_5032_cast = slice_by_index(begin = var_5032_begin_0, end = var_5032_end_0, end_mask = var_5032_end_mask_0, x = v_33_cast);
            tensor<int32, [4]> var_5036_begin_0 = const()[name = tensor<string, []>("op_5036_begin_0"), val = tensor<int32, [4]>([0, 1120, 0, 0])];
            tensor<int32, [4]> var_5036_end_0 = const()[name = tensor<string, []>("op_5036_end_0"), val = tensor<int32, [4]>([2, 1280, 1, 256])];
            tensor<bool, [4]> var_5036_end_mask_0 = const()[name = tensor<string, []>("op_5036_end_mask_0"), val = tensor<bool, [4]>([true, false, true, true])];
…
            tensor<fp16, []> var_8915_to_fp16 = const()[name = tensor<string, []>("op_8915_to_fp16"), val = tensor<fp16, []>(0x1.43cp-3)];
            tensor<fp16, [2, 4096, 1, 4096]> aw_493_cast = mul(x = var_8914_cast, y = var_8915_to_fp16);
            tensor<string, []> var_8918_equation_0 = const()[name = tensor<string, []>("op_8918_equation_0"), val = tensor<string, []>("bkhc,bchq->bkhq")];
            tensor<fp16, [2, 4096, 1, 4096]> var_8918_cast = einsum(equation = var_8918_equation_0, values = (var_8856_cast, var_8821_cast));
            tensor<fp16, []> var_8919_to_fp16 = const()[name = tensor<string, []>("op_8919_to_fp16"), val = tensor<fp16, []>(0x1.43cp-3)];
            tensor<fp16, [2, 4096, 1, 4096]> aw_495_cast = mul(x = var_8918_cast, y = var_8919_to_fp16);
            tensor<fp16, [2, 4096, 1, 4096]> var_8921_cast = softmax(axis = var_7587, x = aw_481_cast);
            tensor<fp16, [2, 4096, 1, 4096]> var_8922_cast = softmax(axis = var_7587, x = aw_483_cast);
            tensor<fp16, [2, 4096, 1, 4096]> var_8923_cast = softmax(axis = var_7587, x = aw_485_cast);
            tensor<fp16, [2, 4096, 1, 4096]> var_8924_cast = softmax(axis = var_7587, x = aw_487_cast);
            tensor<fp16, [2, 4096, 1, 4096]> var_8925_cast = softmax(axis = var_7587, x = aw_489_cast);
            tensor<fp16, [2, 4096, 1, 4096]> var_8926_cast = softmax(axis = var_7587, x = aw_491_cast);
            tensor<fp16, [2, 4096, 1, 4096]> var_8927_cast = softmax(axis = var_7587, x = aw_493_cast);
            tensor<fp16, [2, 4096, 1, 4096]> var_8928_cast = softmax(axis = var_7587, x = aw_495_cast);
            tensor<string, []> var_8930_equation_0 = const()[name = tensor<string, []>("op_8930_equation_0"), val = tensor<string, []>("bchk,bkhq->bchq")];
            tensor<fp16, [2, 40, 1, 4096]> var_8930_cast = einsum(equation = var_8930_equation_0, values = (var_8858_cast, var_8921_cast));
            tensor<string, []> var_8932_equation_0 = const()[name = tensor<string, []>("op_8932_equation_0"), val = tensor<string, []>("bchk,bkhq->bchq")];
            tensor<fp16, [2, 40, 1, 4096]> var_8932_cast = einsum(equation = var_8932_equation_0, values = (var_8862_cast, var_8922_cast));
            tensor<string, []> var_8934_equation_0 = const()[name = tensor<string, []>("op_8934_equation_0"), val = tensor<string, []>("bchk,bkhq->bchq")];
            tensor<fp16, [2, 40, 1, 4096]> var_8934_cast = einsum(equation = var_8934_equation_0, values = (var_8866_cast, var_8923_cast));
            tensor<string, []> var_8936_equation_0 = const()[name = tensor<string, []>("op_8936_equation_0"), val = tensor<string, []>("bchk,bkhq->bchq")];
            tensor<fp16, [2, 40, 1, 4096]> var_8936_cast = einsum(equation = var_8936_equation_0, values = (var_8870_cast, var_8924_cast));
            tensor<string, []> var_8938_equation_0 = const()[name = tensor<string, []>("op_8938_equation_0"), val = tensor<string, []>("bchk,bkhq->bchq")];
            tensor<fp16, [2, 40, 1, 4096]> var_8938_cast = einsum(equation = var_8938_equation_0, values = (var_8874_cast, var_8925_cast));
            tensor<string, []> var_8940_equation_0 = const()[name = tensor<string, []>("op_8940_equation_0"), val = tensor<string, []>("bchk,bkhq->bchq")];
            tensor<fp16, [2, 40, 1, 4096]> var_8940_cast = einsum(equation = var_8940_equation_0, values = (var_8878_cast, var_8926_cast));
            tensor<string, []> var_8942_equation_0 = const()[name = tensor<string, []>("op_8942_equation_0"), val = tensor<string, []>("bchk,bkhq->bchq")];
            tensor<fp16, [2, 40, 1, 4096]> var_8942_cast = einsum(equation = var_8942_equation_0, values = (var_8882_cast, var_8927_cast));
            tensor<string, []> var_8944_equation_0 = const()[name = tensor<string, []>("op_8944_equation_0"), val = tensor<string, []>("bchk,bkhq->bchq")];
            tensor<fp16, [2, 40, 1, 4096]> var_8944_cast = einsum(equation = var_8944_equation_0, values = (var_8886_cast, var_8928_cast));
            tensor<bool, []> input_517_interleave_0 = const()[name = tensor<string, []>("input_517_interleave_0"), val = tensor<bool, []>(false)];
            tensor<fp16, [2, 320, 1, 4096]> input_517_cast = concat(axis = var_7587, interleave = input_517_interleave_0, values = (var_8930_cast, var_8932_cast, var_8934_cast, var_8936_cast, var_8938_cast, var_8940_cast, var_8942_cast, var_8944_cast));
            tensor<int32, [2]> var_8950 = const()[name = tensor<string, []>("op_8950"), val = tensor<int32, [2]>([1, 1])];
            tensor<int32, [2]> var_8952 = const()[name = tensor<string, []>("op_8952"), val = tensor<int32, [2]>([1, 1])];
            tensor<string, []> var_8954_pad_type_0 = const()[name = tensor<string, []>("op_8954_pad_type_0"), val = tensor<string, []>("custom")];
            tensor<int32, [4]> var_8954_pad_0 = const()[name = tensor<string, []>("op_8954_pad_0"), val = tensor<int32, [4]>([0, 0, 0, 0])];
            tensor<fp16, [320, 320, 1, 1]> up_blocks_3_attentions_2_transformer_blocks_0_attn1_to_out_0_weight_to_fp16 = const()[name = tensor<string, []>("up_blocks_3_attentions_2_transformer_blocks_0_attn1_to_out_0_weight_to_fp16"), val = tensor<fp16, [320, 320, 1, 1]>(BLOBFILE(path = tensor<string, []>("@model_path/weights/weight.bin"), offset = tensor<uint64, []>(827367296)))];
            tensor<fp16, [320]> up_blocks_3_attentions_2_transformer_blocks_0_attn1_to_out_0_bias_to_fp16 = const()[name = tensor<string, []>("up_blocks_3_attentions_2_transformer_blocks_0_attn1_to_out_0_bias_to_fp16"), val = tensor<fp16, [320]>(BLOBFILE(path = tensor<string, []>("@model_path/weights/weight.bin"), offset = tensor<uint64, []>(827572160)))];
            tensor<fp16, [2, 320, 1, 4096]> var_8954_cast = conv(bias = up_blocks_3_attentions_2_transformer_blocks_0_attn1_to_out_0_bias_to_fp16, dilations = var_8952, groups = var_7587, pad = var_8954_pad_0, pad_type = var_8954_pad_type_0, strides = var_8950, weight = up_blocks_3_attentions_2_transformer_blocks_0_attn1_to_out_0_weight_to_fp16, x = input_517_cast);
            tensor<fp16, [2, 320, 1, 4096]> inputs_93_cast = add(x = var_8954_cast, y = inputs_91_cast);
            tensor<int32, [1]> var_8958 = const()[name = tensor<string, []>("op_8958"), val = tensor<int32, [1]>([1])];
            tensor<fp16, [2, 1, 1, 4096]> channels_mean_93_cast = reduce_mean(axes = var_8958, keep_dims = var_7582, x = inputs_93_cast);
            tensor<fp16, [2, 320, 1, 4096]> zero_mean_93_cast = sub(x = inputs_93_cast, y = channels_mean_93_cast);
            tensor<fp16, [2, 320, 1, 4096]> zero_mean_sq_93_cast = mul(x = zero_mean_93_cast, y = zero_mean_93_cast);
            tensor<int32, [1]> var_8962 = const()[name = tensor<string, []>("op_8962"), val = tensor<int32, [1]>([1])];
            tensor<fp16, [2, 1, 1, 4096]> var_8963_cast = reduce_mean(axes = var_8962, keep_dims = var_7582, x = zero_mean_sq_93_cast);
            tensor<fp16, []> var_8964_to_fp16 = const()[name = tensor<string, []>("op_8964_to_fp16"), val = tensor<fp16, []>(0x1.5p-17)];
            tensor<fp16, [2, 1, 1, 4096]> var_8965_cast = add(x = var_8963_cast, y = var_8964_to_fp16);
            tensor<fp16, []> denom_93_epsilon_0_to_fp16 = const()[name = tensor<string, []>("denom_93_epsilon_0_to_fp16"), val = tensor<fp16, []>(0x1p-24)];
            tensor<fp16, [2, 1, 1, 4096]> denom_93_cast = rsqrt(epsilon = denom_93_epsilon_0_to_fp16, x = var_8965_cast);
            tensor<fp16, [2, 320, 1, 4096]> out_93_cast = mul(x = zero_mean_93_cast, y = denom_93_cast);
            tensor<fp16, [1, 320, 1, 1]> var_8969_to_fp16 = const()[name = tensor<string, []>("op_8969_to_fp16"), val = tensor<fp16, [1, 320, 1, 1]>(BLOBFILE(path = tensor<string, []>("@model_path/weights/weight.bin"), offset = tensor<uint64, []>(827572864)))];
            tensor<fp16, [2, 320, 1, 4096]> var_8970_cast = add(x = out_93_cast, y = var_8969_to_fp16);
            tensor<fp16, [1, 320, 1, 1]> var_8972_to_fp16 = const()[name = tensor<string, []>("op_8972_to_fp16"), val = tensor<fp16, [1, 320, 1, 1]>(BLOBFILE(path = tensor<string, []>("@model_path/weights/weight.bin"), offset = tensor<uint64, []>(827573568)))];
            tensor<fp16, [2, 320, 1, 4096]> hidden_states_329_cast = mul(x = var_8970_cast, y = var_8972_to_fp16);
            tensor<int32, [2]> var_8979 = const()[name = tensor<string, []>("op_8979"), val = tensor<int32, [2]>([1, 1])];
            tensor<int32, [2]> var_8981 = const()[name = tensor<string, []>("op_8981"), val = tensor<int32, [2]>([1, 1])];
            tensor<string, []> q_pad_type_0 = const()[name = tensor<string, []>("q_pad_type_0"), val = tensor<string, []>("custom")];
            tensor<int32, [4]> q_pad_0 = const()[name = tensor<string, []>("q_pad_0"), val = tensor<int32, [4]>([0, 0, 0, 0])];
            tensor<fp16, [320, 320, 1, 1]> up_blocks_3_attentions_2_transformer_blocks_0_attn2_to_q_weight_to_fp16 = const()[name = tensor<string, []>("up_blocks_3_attentions_2_transformer_blocks_0_attn2_to_q_weight_to_fp16"), val = tensor<fp16, [320, 320, 1, 1]>(BLOBFILE(path = tensor<string, []>("@model_path/weights/weight.bin"), offset = tensor<uint64, []>(827574272)))];
            tensor<fp16, [2, 320, 1, 4096]> q_cast = conv(dilations = var_8981, groups = var_7587, pad = q_pad_0, pad_type = q_pad_type_0, strides = var_8979, weight = up_blocks_3_attentions_2_transformer_blocks_0_attn2_to_q_weight_to_fp16, x = hidden_states_329_cast);
            tensor<int32, [2]> var_8985 = const()[name = tensor<string, []>("op_8985"), val = tensor<int32, [2]>([1, 1])];
            tensor<int32, [2]> var_8987 = const()[name = tensor<string, []>("op_8987"), val = tensor<int32, [2]>([1, 1])];
            tensor<string, []> k_125_pad_type_0 = const()[name = tensor<string, []>("k_125_pad_type_0"), val = tensor<string, []>("custom")];
            tensor<int32, [4]> k_125_pad_0 = const()[name = tensor<string, []>("k_125_pad_0"), val = tensor<int32, [4]>([0, 0, 0, 0])];
            tensor<fp16, [320, 768, 1, 1]> up_blocks_3_attentions_2_transformer_blocks_0_attn2_to_k_weight_to_fp16 = const()[name = tensor<string, []>("up_blocks_3_attentions_2_transformer_blocks_0_attn2_to_k_weight_to_fp16"), val = tensor<fp16, [320, 768, 1, 1]>(BLOBFILE(path = tensor<string, []>("@model_path/weights/weight.bin"), offset = tensor<uint64, []>(827779136)))];
            tensor<fp16, [2, 320, 1, 77]> k_125_cast = conv(dilations = var_8987, groups = var_7587, pad = k_125_pad_0, pad_type = k_125_pad_type_0, strides = var_8985, weight = up_blocks_3_attentions_2_transformer_blocks_0_attn2_to_k_weight_to_fp16, x = encoder_hidden_states);
            tensor<int32, [2]> var_8991 = const()[name = tensor<string, []>("op_8991"), val = tensor<int32, [2]>([1, 1])];
            tensor<int32, [2]> var_8993 = const()[name = tensor<string, []>("op_8993"), val = tensor<int32, [2]>([1, 1])];
            tensor<string, []> v_pad_type_0 = const()[name = tensor<string, []>("v_pad_type_0"), val = tensor<string, []>("custom")];
            tensor<int32, [4]> v_pad_0 = const()[name = tensor<string, []>("v_pad_0"), val = tensor<int32, [4]>([0, 0, 0, 0])];
            tensor<fp16, [320, 768, 1, 1]> up_blocks_3_attentions_2_transformer_blocks_0_attn2_to_v_weight_to_fp16 = const()[name = tensor<string, []>("up_blocks_3_attentions_2_transformer_blocks_0_attn2_to_v_weight_to_fp16"), val = tensor<fp16, [320, 768, 1, 1]>(BLOBFILE(path = tensor<string, []>("@model_path/weights/weight.bin"), offset = tensor<uint64, []>(828270720)))];
            tensor<fp16, [2, 320, 1, 77]> v_cast = conv(dilations = var_8993, groups = var_7587, pad = v_pad_0, pad_type = v_pad_type_0, strides = var_8991, weight = up_blocks_3_attentions_2_transformer_blocks_0_attn2_to_v_weight_to_fp16, x = encoder_hidden_states);
            tensor<int32, [4]> var_8997_begin_0 = const()[name = tensor<string, []>("op_8997_begin_0"), val = tensor<int32, [4]>([0, 0, 0, 0])];
            tensor<int32, [4]> var_8997_end_0 = const()[name = tensor<string, []>("op_8997_end_0"), val = tensor<int32, [4]>([2, 40, 1, 4096])];
            tensor<bool, [4]> var_8997_end_mask_0 = const()[name = tensor<string, []>("op_8997_end_mask_0"), val = tensor<bool, [4]>([true, false, true, true])];
            tensor<fp16, [2, 40, 1, 4096]> var_8997_cast = slice_by_index(begin = var_8997_begin_0, end = var_8997_end_0, end_mask = var_8997_end_mask_0, x = q_cast);
            tensor<int32, [4]> var_9001_begin_0 = const()[name = tensor<string, []>("op_9001_begin_0"), val = tensor<int32, [4]>([0, 40, 0, 0])];
            tensor<int32, [4]> var_9001_end_0 = const()[name = tensor<string, []>("op_9001_end_0"), val = tensor<int32, [4]>([2, 80, 1, 4096])];
            tensor<bool, [4]> var_9001_end_mask_0 = const()[name = tensor<string, []>("op_9001_end_mask_0"), val = tensor<bool, [4]>([true, false, true, true])];
            tensor<fp16, [2, 40, 1, 4096]> var_9001_cast = slice_by_index(begin = var_9001_begin_0, end = var_9001_end_0, end_mask = var_9001_end_mask_0, x = q_cast);
            tensor<int32, [4]> var_9005_begin_0 = const()[name = tensor<string, []>("op_9005_begin_0"), val = tensor<int32, [4]>([0, 80, 0, 0])];
            tensor<int32, [4]> var_9005_end_0 = const()[name = tensor<string, []>("op_9005_end_0"), val = tensor<int32, [4]>([2, 120, 1, 4096])];
            tensor<bool, [4]> var_9005_end_mask_0 = const()[name = tensor<string, []>("op_9005_end_mask_0"), val = tensor<bool, [4]>([true, false, true, true])];
            tensor<fp16, [2, 40, 1, 4096]> var_9005_cast = slice_by_index(begin = var_9005_begin_0, end = var_9005_end_0, end_mask = var_9005_end_mask_0, x = q_cast);
            tensor<int32, [4]> var_9009_begin_0 = const()[name = tensor<string, []>("op_9009_begin_0"), val = tensor<int32, [4]>([0, 120, 0, 0])];
            tensor<int32, [4]> var_9009_end_0 = const()[name = tensor<string, []>("op_9009_end_0"), val = tensor<int32, [4]>([2, 160, 1, 4096])];
            tensor<bool, [4]> var_9009_end_mask_0 = const()[name = tensor<string, []>("op_9009_end_mask_0"), val = tensor<bool, [4]>([true, false, true, true])];
            tensor<fp16, [2, 40, 1, 4096]> var_9009_cast = slice_by_index(begin = var_9009_begin_0, end = var_9009_end_0, end_mask = var_9009_end_mask_0, x = q_cast);
            tensor<int32, [4]> var_9013_begin_0 = const()[name = tensor<string, []>("op_9013_begin_0"), val = tensor<int32, [4]>([0, 160, 0, 0])];
            tensor<int32, [4]> var_9013_end_0 = const()[name = tensor<string, []>("op_9013_end_0"), val = tensor<int32, [4]>([2, 200, 1, 4096])];
            tensor<bool, [4]> var_9013_end_mask_0 = const()[name = tensor<string, []>("op_9013_end_mask_0"), val = tensor<bool, [4]>([true, false, true, true])];
            tensor<fp16, [2, 40, 1, 4096]> var_9013_cast = slice_by_index(begin = var_9013_begin_0, end = var_9013_end_0, end_mask = var_9013_end_mask_0, x = q_cast);
            tensor<int32, [4]> var_9017_begin_0 = const()[name = tensor<string, []>("op_9017_begin_0"), val = tensor<int32, [4]>([0, 200, 0, 0])];
            tensor<int32, [4]> var_9017_end_0 = const()[name = tensor<string, []>("op_9017_end_0"), val = tensor<int32, [4]>([2, 240, 1, 4096])];
            tensor<bool, [4]> var_9017_end_mask_0 = const()[name = tensor<string, []>("op_9017_end_mask_0"), val = tensor<bool, [4]>([true, false, true, true])];
            tensor<fp16, [2, 40, 1, 4096]> var_9017_cast = slice_by_index(begin = var_9017_begin_0, end = var_9017_end_0, end_mask = var_9017_end_mask_0, x = q_cast);
            tensor<int32, [4]> var_9021_begin_0 = const()[name = tensor<string, []>("op_9021_begin_0"), val = tensor<int32, [4]>([0, 240, 0, 0])];
            tensor<int32, [4]> var_9021_end_0 = const()[name = tensor<string, []>("op_9021_end_0"), val = tensor<int32, [4]>([2, 280, 1, 4096])];
            tensor<bool, [4]> var_9021_end_mask_0 = const()[name = tensor<string, []>("op_9021_end_mask_0"), val = tensor<bool, [4]>([true, false, true, true])];
            tensor<fp16, [2, 40, 1, 4096]> var_9021_cast = slice_by_index(begin = var_9021_begin_0, end = var_9021_end_0, end_mask = var_9021_end_mask_0, x = q_cast);
            tensor<int32, [4]> var_9025_begin_0 = const()[name = tensor<string, []>("op_9025_begin_0"), val = tensor<int32, [4]>([0, 280, 0, 0])];
            tensor<int32, [4]> var_9025_end_0 = const()[name = tensor<string, []>("op_9025_end_0"), val = tensor<int32, [4]>([2, 320, 1, 4096])];
            tensor<bool, [4]> var_9025_end_mask_0 = const()[name = tensor<string, []>("op_9025_end_mask_0"), val = tensor<bool, [4]>([true, false, true, true])];
            tensor<fp16, [2, 40, 1, 4096]> var_9025_cast = slice_by_index(begin = var_9025_begin_0, end = var_9025_end_0, end_mask = var_9025_end_mask_0, x = q_cast);
            tensor<int32, [4]> k_perm_0 = const()[name = tensor<string, []>("k_perm_0"), val = tensor<int32, [4]>([0, 3, 2, 1])];
            tensor<int32, [4]> var_9032_begin_0 = const()[name = tensor<string, []>("op_9032_begin_0"), val = tensor<int32, [4]>([0, 0, 0, 0])];
            tensor<int32, [4]> var_9032_end_0 = const()[name = tensor<string, []>("op_9032_end_0"), val = tensor<int32, [4]>([2, 77, 1, 40])];
            tensor<bool, [4]> var_9032_end_mask_0 = const()[name = tensor<string, []>("op_9032_end_mask_0"), val = tensor<bool, [4]>([true, true, true, false])];
            tensor<fp16, [2, 77, 1, 320]> transpose_0 = transpose(perm = k_perm_0, x = k_125_cast);
            tensor<fp16, [2, 77, 1, 40]> var_9032_cast = slice_by_index(begin = var_9032_begin_0, end = var_9032_end_0, end_mask = var_9032_end_mask_0, x = transpose_0);
            tensor<int32, [4]> var_9036_begin_0 = const()[name = tensor<string, []>("op_9036_begin_0"), val = tensor<int32, [4]>([0, 0, 0, 40])];
            tensor<int32, [4]> var_9036_end_0 = const()[name = tensor<string, []>("op_9036_end_0"), val = tensor<int32, [4]>([2, 77, 1, 80])];
            tensor<bool, [4]> var_9036_end_mask_0 = const()[name = tensor<string, []>("op_9036_end_mask_0"), val = tensor<bool, [4]>([true, true, true, false])];
            tensor<fp16, [2, 77, 1, 40]> var_9036_cast = slice_by_index(begin = var_9036_begin_0, end = var_9036_end_0, end_mask = var_9036_end_mask_0, x = transpose_0);
            tensor<int32, [4]> var_9040_begin_0 = const()[name = tensor<string, []>("op_9040_begin_0"), val = tensor<int32, [4]>([0, 0, 0, 80])];
            tensor<int32, [4]> var_9040_end_0 = const()[name = tensor<string, []>("op_9040_end_0"), val = tensor<int32, [4]>([2, 77, 1, 120])];
            tensor<bool, [4]> var_9040_end_mask_0 = const()[name = tensor<string, []>("op_9040_end_mask_0"), val = tensor<bool, [4]>([true, true, true, false])];
            tensor<fp16, [2, 77, 1, 40]> var_9040_cast = slice_by_index(begin = var_9040_begin_0, end = var_9040_end_0, end_mask = var_9040_end_mask_0, x = transpose_0);
            tensor<int32, [4]> var_9044_begin_0 = const()[name = tensor<string, []>("op_9044_begin_0"), val = tensor<int32, [4]>([0, 0, 0, 120])];
            tensor<int32, [4]> var_9044_end_0 = const()[name = tensor<string, []>("op_9044_end_0"), val = tensor<int32, [4]>([2, 77, 1, 160])];
            tensor<bool, [4]> var_9044_end_mask_0 = const()[name = tensor<string, []>("op_9044_end_mask_0"), val = tensor<bool, [4]>([true, true, true, false])];
            tensor<fp16, [2, 77, 1, 40]> var_9044_cast = slice_by_index(begin = var_9044_begin_0, end = var_9044_end_0, end_mask = var_9044_end_mask_0, x = transpose_0);
            tensor<int32, [4]> var_9048_begin_0 = const()[name = tensor<string, []>("op_9048_begin_0"), val = tensor<int32, [4]>([0, 0, 0, 160])];
            tensor<int32, [4]> var_9048_end_0 = const()[name = tensor<string, []>("op_9048_end_0"), val = tensor<int32, [4]>([2, 77, 1, 200])];
            tensor<bool, [4]> var_9048_end_mask_0 = const()[name = tensor<string, []>("op_9048_end_mask_0"), val = tensor<bool, [4]>([true, true, true, false])];
            tensor<fp16, [2, 77, 1, 40]> var_9048_cast = slice_by_index(begin = var_9048_begin_0, end = var_9048_end_0, end_mask = var_9048_end_mask_0, x = transpose_0);
            tensor<int32, [4]> var_9052_begin_0 = const()[name = tensor<string, []>("op_9052_begin_0"), val = tensor<int32, [4]>([0, 0, 0, 200])];
            tensor<int32, [4]> var_9052_end_0 = const()[name = tensor<string, []>("op_9052_end_0"), val = tensor<int32, [4]>([2, 77, 1, 240])];
            tensor<bool, [4]> var_9052_end_mask_0 = const()[name = tensor<string, []>("op_9052_end_mask_0"), val = tensor<bool, [4]>([true, true, true, false])];
            tensor<fp16, [2, 77, 1, 40]> var_9052_cast = slice_by_index(begin = var_9052_begin_0, end = var_9052_end_0, end_mask = var_9052_end_mask_0, x = transpose_0);
            tensor<int32, [4]> var_9056_begin_0 = const()[name = tensor<string, []>("op_9056_begin_0"), val = tensor<int32, [4]>([0, 0, 0, 240])];
            tensor<int32, [4]> var_9056_end_0 = const()[name = tensor<string, []>("op_9056_end_0"), val = tensor<int32, [4]>([2, 77, 1, 280])];
            tensor<bool, [4]> var_9056_end_mask_0 = const()[name = tensor<string, []>("op_9056_end_mask_0"), val = tensor<bool, [4]>([true, true, true, false])];
            tensor<fp16, [2, 77, 1, 40]> var_9056_cast = slice_by_index(begin = var_9056_begin_0, end = var_9056_end_0, end_mask = var_9056_end_mask_0, x = transpose_0);
            tensor<int32, [4]> var_9060_begin_0 = const()[name = tensor<string, []>("op_9060_begin_0"), val = tensor<int32, [4]>([0, 0, 0, 280])];
            tensor<int32, [4]> var_9060_end_0 = const()[name = tensor<string, []>("op_9060_end_0"), val = tensor<int32, [4]>([2, 77, 1, 320])];
            tensor<bool, [4]> var_9060_end_mask_0 = const()[name = tensor<string, []>("op_9060_end_mask_0"), val = tensor<bool, [4]>([true, true, true, false])];
            tensor<fp16, [2, 77, 1, 40]> var_9060_cast = slice_by_index(begin = var_9060_begin_0, end = var_9060_end_0, end_mask = var_9060_end_mask_0, x = transpose_0);
            tensor<int32, [4]> var_9062_begin_0 = const()[name = tensor<string, []>("op_9062_begin_0"), val = tensor<int32, [4]>([0, 0, 0, 0])];
            tensor<int32, [4]> var_9062_end_0 = const()[name = tensor<string, []>("op_9062_end_0"), val = tensor<int32, [4]>([2, 40, 1, 77])];
            tensor<bool, [4]> var_9062_end_mask_0 = const()[name = tensor<string, []>("op_9062_end_mask_0"), val = tensor<bool, [4]>([true, false, true, true])];
            tensor<fp16, [2, 40, 1, 77]> var_9062_cast = slice_by_index(begin = var_9062_begin_0, end = var_9062_end_0, end_mask = var_9062_end_mask_0, x = v_cast);
            tensor<int32, [4]> var_9066_begin_0 = const()[name = tensor<string, []>("op_9066_begin_0"), val = tensor<int32, [4]>([0, 40, 0, 0])];
            tensor<int32, [4]> var_9066_end_0 = const()[name = tensor<string, []>("op_9066_end_0"), val = tensor<int32, [4]>([2, 80, 1, 77])];
            tensor<bool, [4]> var_9066_end_mask_0 = const()[name = tensor<string, []>("op_9066_end_mask_0"), val = tensor<bool, [4]>([true, false, true, true])];
            tensor<fp16, [2, 40, 1, 77]> var_9066_cast = slice_by_index(begin = var_9066_begin_0, end = var_9066_end_0, end_mask = var_9066_end_mask_0, x = v_cast);
            tensor<int32, [4]> var_9070_begin_0 = const()[name = tensor<string, []>("op_9070_begin_0"), val = tensor<int32, [4]>([0, 80, 0, 0])];
            tensor<int32, [4]> var_9070_end_0 = const()[name = tensor<string, []>("op_9070_end_0"), val = tensor<int32, [4]>([2, 120, 1, 77])];
            tensor<bool, [4]> var_9070_end_mask_0 = const()[name = tensor<string, []>("op_9070_end_mask_0"), val = tensor<bool, [4]>([true, false, true, true])];
            tensor<fp16, [2, 40, 1, 77]> var_9070_cast = slice_by_index(begin = var_9070_begin_0, end = var_9070_end_0, end_mask = var_9070_end_mask_0, x = v_cast);
            tensor<int32, [4]> var_9074_begin_0 = const()[name = tensor<string, []>("op_9074_begin_0"), val = tensor<int32, [4]>([0, 120, 0, 0])];
            tensor<int32, [4]> var_9074_end_0 = const()[name = tensor<string, []>("op_9074_end_0"), val = tensor<int32, [4]>([2, 160, 1, 77])];
            tensor<bool, [4]> var_9074_end_mask_0 = const()[name = tensor<string, []>("op_9074_end_mask_0"), val = tensor<bool, [4]>([true, false, true, true])];
            tensor<fp16, [2, 40, 1, 77]> var_9074_cast = slice_by_index(begin = var_9074_begin_0, end = var_9074_end_0, end_mask = var_9074_end_mask_0, x = v_cast);
            tensor<int32, [4]> var_9078_begin_0 = const()[name = tensor<string, []>("op_9078_begin_0"), val = tensor<int32, [4]>([0, 160, 0, 0])];
            tensor<int32, [4]> var_9078_end_0 = const()[name = tensor<string, []>("op_9078_end_0"), val = tensor<int32, [4]>([2, 200, 1, 77])];
            tensor<bool, [4]> var_9078_end_mask_0 = const()[name = tensor<string, []>("op_9078_end_mask_0"), val = tensor<bool, [4]>([true, false, true, true])];
            tensor<fp16, [2, 40, 1, 77]> var_9078_cast = slice_by_index(begin = var_9078_begin_0, end = var_9078_end_0, end_mask = var_9078_end_mask_0, x = v_cast);
            tensor<int32, [4]> var_9082_begin_0 = const()[name = tensor<string, []>("op_9082_begin_0"), val = tensor<int32, [4]>([0, 200, 0, 0])];
            tensor<int32, [4]> var_9082_end_0 = const()[name = tensor<string, []>("op_9082_end_0"), val = tensor<int32, [4]>([2, 240, 1, 77])];
            tensor<bool, [4]> var_9082_end_mask_0 = const()[name = tensor<string, []>("op_9082_end_mask_0"), val = tensor<bool, [4]>([true, false, true, true])];
            tensor<fp16, [2, 40, 1, 77]> var_9082_cast = slice_by_index(begin = var_9082_begin_0, end = var_9082_end_0, end_mask = var_9082_end_mask_0, x = v_cast);
            tensor<int32, [4]> var_9086_begin_0 = const()[name = tensor<string, []>("op_9086_begin_0"), val = tensor<int32, [4]>([0, 240, 0, 0])];
            tensor<int32, [4]> var_9086_end_0 = const()[name = tensor<string, []>("op_9086_end_0"), val = tensor<int32, [4]>([2, 280, 1, 77])];
            tensor<bool, [4]> var_9086_end_mask_0 = const()[name = tensor<string, []>("op_9086_end_mask_0"), val = tensor<bool, [4]>([true, false, true, true])];
            tensor<fp16, [2, 40, 1, 77]> var_9086_cast = slice_by_index(begin = var_9086_begin_0, end = var_9086_end_0, end_mask = var_9086_end_mask_0, x = v_cast);
            tensor<int32, [4]> var_9090_begin_0 = const()[name = tensor<string, []>("op_9090_begin_0"), val = tensor<int32, [4]>([0, 280, 0, 0])];
            tensor<int32, [4]> var_9090_end_0 = const()[name = tensor<string, []>("op_9090_end_0"), val = tensor<int32, [4]>([2, 320, 1, 77])];
            tensor<bool, [4]> var_9090_end_mask_0 = const()[name = tensor<string, []>("op_9090_end_mask_0"), val = tensor<bool, [4]>([true, false, true, true])];
            tensor<fp16, [2, 40, 1, 77]> var_9090_cast = slice_by_index(begin = var_9090_begin_0, end = var_9090_end_0, end_mask = var_9090_end_mask_0, x = v_cast);
            tensor<string, []> var_9094_equation_0 = const()[name = tensor<string, []>("op_9094_equation_0"), val = tensor<string, []>("bkhc,bchq->bkhq")];
            tensor<fp16, [2, 77, 1, 4096]> var_9094_cast = einsum(equation = var_9094_equation_0, values = (var_9032_cast, var_8997_cast));
            tensor<fp16, []> var_9095_to_fp16 = const()[name = tensor<string, []>("op_9095_to_fp16"), val = tensor<fp16, []>(0x1.43cp-3)];
            tensor<fp16, [2, 77, 1, 4096]> aw_497_cast = mul(x = var_9094_cast, y = var_9095_to_fp16);
            tensor<string, []> var_9098_equation_0 = const()[name = tensor<string, []>("op_9098_equation_0"), val = tensor<string, []>("bkhc,bchq->bkhq")];
            tensor<fp16, [2, 77, 1, 4096]> var_9098_cast = einsum(equation = var_9098_equation_0, values = (var_9036_cast, var_9001_cast));
            tensor<fp16, []> var_9099_to_fp16 = const()[name = tensor<string, []>("op_9099_to_fp16"), val = tensor<fp16, []>(0x1.43cp-3)];
            tensor<fp16, [2, 77, 1, 4096]> aw_499_cast = mul(x = var_9098_cast, y = var_9099_to_fp16);
            tensor<string, []> var_9102_equation_0 = const()[name = tensor<string, []>("op_9102_equation_0"), val = tensor<string, []>("bkhc,bchq->bkhq")];
            tensor<fp16, [2, 77, 1, 4096]> var_9102_cast = einsum(equation = var_9102_equation_0, values = (var_9040_cast, var_9005_cast));
            tensor<fp16, []> var_9103_to_fp16 = const()[name = tensor<string, []>("op_9103_to_fp16"), val = tensor<fp16, []>(0x1.43cp-3)];
            tensor<fp16, [2, 77, 1, 4096]> aw_501_cast = mul(x = var_9102_cast, y = var_9103_to_fp16);
            tensor<string, []> var_9106_equation_0 = const()[name = tensor<string, []>("op_9106_equation_0"), val = tensor<string, []>("bkhc,bchq->bkhq")];
            tensor<fp16, [2, 77, 1, 4096]> var_9106_cast = einsum(equation = var_9106_equation_0, values = (var_9044_cast, var_9009_cast));
            tensor<fp16, []> var_9107_to_fp16 = const()[name = tensor<string, []>("op_9107_to_fp16"), val = tensor<fp16, []>(0x1.43cp-3)];
            tensor<fp16, [2, 77, 1, 4096]> aw_503_cast = mul(x = var_9106_cast, y = var_9107_to_fp16);
            tensor<string, []> var_9110_equation_0 = const()[name = tensor<string, []>("op_9110_equation_0"), val = tensor<string, []>("bkhc,bchq->bkhq")];
            tensor<fp16, [2, 77, 1, 4096]> var_9110_cast = einsum(equation = var_9110_equation_0, values = (var_9048_cast, var_9013_cast));
            tensor<fp16, []> var_9111_to_fp16 = const()[name = tensor<string, []>("op_9111_to_fp16"), val = tensor<fp16, []>(0x1.43cp-3)];
            tensor<fp16, [2, 77, 1, 4096]> aw_505_cast = mul(x = var_9110_cast, y = var_9111_to_fp16);
            tensor<string, []> var_9114_equation_0 = const()[name = tensor<string, []>("op_9114_equation_0"), val = tensor<string, []>("bkhc,bchq->bkhq")];
            tensor<fp16, [2, 77, 1, 4096]> var_9114_cast = einsum(equation = var_9114_equation_0, values = (var_9052_cast, var_9017_cast));
            tensor<fp16, []> var_9115_to_fp16 = const()[name = tensor<string, []>("op_9115_to_fp16"), val = tensor<fp16, []>(0x1.43cp-3)];
            tensor<fp16, [2, 77, 1, 4096]> aw_507_cast = mul(x = var_9114_cast, y = var_9115_to_fp16);
            tensor<string, []> var_9118_equation_0 = const()[name = tensor<string, []>("op_9118_equation_0"), val = tensor<string, []>("bkhc,bchq->bkhq")];
            tensor<fp16, [2, 77, 1, 4096]> var_9118_cast = einsum(equation = var_9118_equation_0, values = (var_9056_cast, var_9021_cast));
            tensor<fp16, []> var_9119_to_fp16 = const()[name = tensor<string, []>("op_9119_to_fp16"), val = tensor<fp16, []>(0x1.43cp-3)];
            tensor<fp16, [2, 77, 1, 4096]> aw_509_cast = mul(x = var_9118_cast, y = var_9119_to_fp16);
            tensor<string, []> var_9122_equation_0 = const()[name = tensor<string, []>("op_9122_equation_0"), val = tensor<string, []>("bkhc,bchq->bkhq")];
            tensor<fp16, [2, 77, 1, 4096]> var_9122_cast = einsum(equation = var_9122_equation_0, values = (var_9060_cast, var_9025_cast));
            tensor<fp16, []> var_9123_to_fp16 = const()[name = tensor<string, []>("op_9123_to_fp16"), val = tensor<fp16, []>(0x1.43cp-3)];
            tensor<fp16, [2, 77, 1, 4096]> aw_cast = mul(x = var_9122_cast, y = var_9123_to_fp16);
            tensor<fp16, [2, 77, 1, 4096]> var_9125_cast = softmax(axis = var_7587, x = aw_497_cast);
            tensor<fp16, [2, 77, 1, 4096]> var_9126_cast = softmax(axis = var_7587, x = aw_499_cast);
            tensor<fp16, [2, 77, 1, 4096]> var_9127_cast = softmax(axis = var_7587, x = aw_501_cast);
            tensor<fp16, [2, 77, 1, 4096]> var_9128_cast = softmax(axis = var_7587, x = aw_503_cast);
            tensor<fp16, [2, 77, 1, 4096]> var_9129_cast = softmax(axis = var_7587, x = aw_505_cast);
            tensor<fp16, [2, 77, 1, 4096]> var_9130_cast = softmax(axis = var_7587, x = aw_507_cast);
            tensor<fp16, [2, 77, 1, 4096]> var_9131_cast = softmax(axis = var_7587, x = aw_509_cast);
            tensor<fp16, [2, 77, 1, 4096]> var_9132_cast = softmax(axis = var_7587, x = aw_cast);
            tensor<string, []> var_9134_equation_0 = const()[name = tensor<string, []>("op_9134_equation_0"), val = tensor<string, []>("bchk,bkhq->bchq")];
            tensor<fp16, [2, 40, 1, 4096]> var_9134_cast = einsum(equation = var_9134_equation_0, values = (var_9062_cast, var_9125_cast));
            tensor<string, []> var_9136_equation_0 = const()[name = tensor<string, []>("op_9136_equation_0"), val = tensor<string, []>("bchk,bkhq->bchq")];
            tensor<fp16, [2, 40, 1, 4096]> var_9136_cast = einsum(equation = var_9136_equation_0, values = (var_9066_cast, var_9126_cast));
            tensor<string, []> var_9138_equation_0 = const()[name = tensor<string, []>("op_9138_equation_0"), val = tensor<string, []>("bchk,bkhq->bchq")];
            tensor<fp16, [2, 40, 1, 4096]> var_9138_cast = einsum(equation = var_9138_equation_0, values = (var_9070_cast, var_9127_cast));
            tensor<string, []> var_9140_equation_0 = const()[name = tensor<string, []>("op_9140_equation_0"), val = tensor<string, []>("bchk,bkhq->bchq")];
            tensor<fp16, [2, 40, 1, 4096]> var_9140_cast = einsum(equation = var_9140_equation_0, values = (var_9074_cast, var_9128_cast));
            tensor<string, []> var_9142_equation_0 = const()[name = tensor<string, []>("op_9142_equation_0"), val = tensor<string, []>("bchk,bkhq->bchq")];
            tensor<fp16, [2, 40, 1, 4096]> var_9142_cast = einsum(equation = var_9142_equation_0, values = (var_9078_cast, var_9129_cast));
            tensor<string, []> var_9144_equation_0 = const()[name = tensor<string, []>("op_9144_equation_0"), val = tensor<string, []>("bchk,bkhq->bchq")];
            tensor<fp16, [2, 40, 1, 4096]> var_9144_cast = einsum(equation = var_9144_equation_0, values = (var_9082_cast, var_9130_cast));
            tensor<string, []> var_9146_equation_0 = const()[name = tensor<string, []>("op_9146_equation_0"), val = tensor<string, []>("bchk,bkhq->bchq")];
            tensor<fp16, [2, 40, 1, 4096]> var_9146_cast = einsum(equation = var_9146_equation_0, values = (var_9086_cast, var_9131_cast));
            tensor<string, []> var_9148_equation_0 = const()[name = tensor<string, []>("op_9148_equation_0"), val = tensor<string, []>("bchk,bkhq->bchq")];
            tensor<fp16, [2, 40, 1, 4096]> var_9148_cast = einsum(equation = var_9148_equation_0, values = (var_9090_cast, var_9132_cast));
            tensor<bool, []> input_519_interleave_0 = const()[name = tensor<string, []>("input_519_interleave_0"), val = tensor<bool, []>(false)];
            tensor<fp16, [2, 320, 1, 4096]> input_519_cast = concat(axis = var_7587, interleave = input_519_interleave_0, values = (var_9134_cast, var_9136_cast, var_9138_cast, var_9140_cast, var_9142_cast, var_9144_cast, var_9146_cast, var_9148_cast));
            tensor<int32, [2]> var_9154 = const()[name = tensor<string, []>("op_9154"), val = tensor<int32, [2]>([1, 1])];
            tensor<int32, [2]> var_9156 = const()[name = tensor<string, []>("op_9156"), val = tensor<int32, [2]>([1, 1])];
            tensor<string, []> var_9158_pad_type_0 = const()[name = tensor<string, []>("op_9158_pad_type_0"), val = tensor<string, []>("custom")];
            tensor<int32, [4]> var_9158_pad_0 = const()[name = tensor<string, []>("op_9158_pad_0"), val = tensor<int32, [4]>([0, 0, 0, 0])];
            tensor<fp16, [320, 320, 1, 1]> up_blocks_3_attentions_2_transformer_blocks_0_attn2_to_out_0_weight_to_fp16 = const()[name = tensor<string, []>("up_blocks_3_attentions_2_transformer_blocks_0_attn2_to_out_0_weight_to_fp16"), val = tensor<fp16, [320, 320, 1, 1]>(BLOBFILE(path = tensor<string, []>("@model_path/weights/weight.bin"), offset = tensor<uint64, []>(828762304)))];
            tensor<fp16, [320]> up_blocks_3_attentions_2_transformer_blocks_0_attn2_to_out_0_bias_to_fp16 = const()[name = tensor<string, []>("up_blocks_3_attentions_2_transformer_blocks_0_attn2_to_out_0_bias_to_fp16"), val = tensor<fp16, [320]>(BLOBFILE(path = tensor<string, []>("@model_path/weights/weight.bin"), offset = tensor<uint64, []>(828967168)))];
            tensor<fp16, [2, 320, 1, 4096]> var_9158_cast = conv(bias = up_blocks_3_attentions_2_transformer_blocks_0_attn2_to_out_0_bias_to_fp16, dilations = var_9156, groups = var_7587, pad = var_9158_pad_0, pad_type = var_9158_pad_type_0, strides = var_9154, weight = up_blocks_3_attentions_2_transformer_blocks_0_attn2_to_out_0_weight_to_fp16, x = input_519_cast);
            tensor<fp16, [2, 320, 1, 4096]> inputs_cast = add(x = var_9158_cast, y = inputs_93_cast);
            tensor<int32, [1]> var_9162 = const()[name = tensor<string, []>("op_9162"), val = tensor<int32, [1]>([1])];
            tensor<fp16, [2, 1, 1, 4096]> channels_mean_cast = reduce_mean(axes = var_9162, keep_dims = var_7582, x = inputs_cast);
            tensor<fp16, [2, 320, 1, 4096]> zero_mean_cast = sub(x = inputs_cast, y = channels_mean_cast);
            tensor<fp16, [2, 320, 1, 4096]> zero_mean_sq_cast = mul(x = zero_mean_cast, y = zero_mean_cast);
            tensor<int32, [1]> var_9166 = const()[name = tensor<string, []>("op_9166"), val = tensor<int32, [1]>([1])];
            tensor<fp16, [2, 1, 1, 4096]> var_9167_cast = reduce_mean(axes = var_9166, keep_dims = var_7582, x = zero_mean_sq_cast);
            tensor<fp16, []> var_9168_to_fp16 = const()[name = tensor<string, []>("op_9168_to_fp16"), val = tensor<fp16, []>(0x1.5p-17)];
            tensor<fp16, [2, 1, 1, 4096]> var_9169_cast = add(x = var_9167_cast, y = var_9168_to_fp16);
            tensor<fp16, []> denom_epsilon_0_to_fp16 = const()[name = tensor<string, []>("denom_epsilon_0_to_fp16"), val = tensor<fp16, []>(0x1p-24)];
            tensor<fp16, [2, 1, 1, 4096]> denom_cast = rsqrt(epsilon = denom_epsilon_0_to_fp16, x = var_9169_cast);
            tensor<fp16, [2, 320, 1, 4096]> out_cast = mul(x = zero_mean_cast, y = denom_cast);
            tensor<fp16, [1, 320, 1, 1]> var_9173_to_fp16 = const()[name = tensor<string, []>("op_9173_to_fp16"), val = tensor<fp16, [1, 320, 1, 1]>(BLOBFILE(path = tensor<string, []>("@model_path/weights/weight.bin"), offset = tensor<uint64, []>(828967872)))];
            tensor<fp16, [2, 320, 1, 4096]> var_9174_cast = add(x = out_cast, y = var_9173_to_fp16);
            tensor<fp16, [1, 320, 1, 1]> var_9176_to_fp16 = const()[name = tensor<string, []>("op_9176_to_fp16"), val = tensor<fp16, [1, 320, 1, 1]>(BLOBFILE(path = tensor<string, []>("@model_path/weights/weight.bin"), offset = tensor<uint64, []>(828968576)))];
            tensor<fp16, [2, 320, 1, 4096]> input_521_cast = mul(x = var_9174_cast, y = var_9176_to_fp16);
            tensor<int32, [2]> var_9184 = const()[name = tensor<string, []>("op_9184"), val = tensor<int32, [2]>([1, 1])];
            tensor<int32, [2]> var_9186 = const()[name = tensor<string, []>("op_9186"), val = tensor<int32, [2]>([1, 1])];
            tensor<string, []> var_9188_pad_type_0 = const()[name = tensor<string, []>("op_9188_pad_type_0"), val = tensor<string, []>("custom")];
            tensor<int32, [4]> var_9188_pad_0 = const()[name = tensor<string, []>("op_9188_pad_0"), val = tensor<int32, [4]>([0, 0, 0, 0])];
            tensor<fp16, [2560, 320, 1, 1]> up_blocks_3_attentions_2_transformer_blocks_0_ff_net_0_proj_weight_to_fp16 = const()[name = tensor<string, []>("up_blocks_3_attentions_2_transformer_blocks_0_ff_net_0_proj_weight_to_fp16"), val = tensor<fp16, [2560, 320, 1, 1]>(BLOBFILE(path = tensor<string, []>("@model_path/weights/weight.bin"), offset = tensor<uint64, []>(828969280)))];
            tensor<fp16, [2560]> up_blocks_3_attentions_2_transformer_blocks_0_ff_net_0_proj_bias_to_fp16 = const()[name = tensor<string, []>("up_blocks_3_attentions_2_transformer_blocks_0_ff_net_0_proj_bias_to_fp16"), val = tensor<fp16, [2560]>(BLOBFILE(path = tensor<string, []>("@model_path/weights/weight.bin"), offset = tensor<uint64, []>(830607744)))];
            tensor<fp16, [2, 2560, 1, 4096]> var_9188_cast = conv(bias = up_blocks_3_attentions_2_transformer_blocks_0_ff_net_0_proj_bias_to_fp16, dilations = var_9186, groups = var_7587, pad = var_9188_pad_0, pad_type = var_9188_pad_type_0, strides = var_9184, weight = up_blocks_3_attentions_2_transformer_blocks_0_ff_net_0_proj_weight_to_fp16, x = input_521_cast);
            tensor<int32, [2]> var_9189_split_sizes_0 = const()[name = tensor<string, []>("op_9189_split_sizes_0"), val = tensor<int32, [2]>([1280, 1280])];
            tensor<int32, []> var_9189_axis_0 = const()[name = tensor<string, []>("op_9189_axis_0"), val = tensor<int32, []>(1)];
            tensor<fp16, [2, 1280, 1, 4096]> var_9189_cast_0, tensor<fp16, [2, 1280, 1, 4096]> var_9189_cast_1 = split(axis = var_9189_axis_0, split_sizes = var_9189_split_sizes_0, x = var_9188_cast);
            tensor<string, []> var_9191_mode_0 = const()[name = tensor<string, []>("op_9191_mode_0"), val = tensor<string, []>("EXACT")];
            tensor<fp16, [2, 1280, 1, 4096]> var_9191_cast = gelu(mode = var_9191_mode_0, x = var_9189_cast_1);
            tensor<fp16, [2, 1280, 1, 4096]> input_523_cast = mul(x = var_9189_cast_0, y = var_9191_cast);
            tensor<int32, [2]> var_9195 = const()[name = tensor<string, []>("op_9195"), val = tensor<int32, [2]>([1, 1])];
            tensor<int32, [2]> var_9197 = const()[name = tensor<string, []>("op_9197"), val = tensor<int32, [2]>([1, 1])];
            tensor<string, []> var_9199_pad_type_0 = const()[name = tensor<string, []>("op_9199_pad_type_0"), val = tensor<string, []>("custom")];
            tensor<int32, [4]> var_9199_pad_0 = const()[name = tensor<string, []>("op_9199_pad_0"), val = tensor<int32, [4]>([0, 0, 0, 0])];
            tensor<fp16, [320, 1280, 1, 1]> up_blocks_3_attentions_2_transformer_blocks_0_ff_net_2_weight_to_fp16 = const()[name = tensor<string, []>("up_blocks_3_attentions_2_transformer_blocks_0_ff_net_2_weight_to_fp16"), val = tensor<fp16, [320, 1280, 1, 1]>(BLOBFILE(path = tensor<string, []>("@model_path/weights/weight.bin"), offset = tensor<uint64, []>(830612928)))];
            tensor<fp16, [320]> up_blocks_3_attentions_2_transformer_blocks_0_ff_net_2_bias_to_fp16 = const()[name = tensor<string, []>("up_blocks_3_attentions_2_transformer_blocks_0_ff_net_2_bias_to_fp16"), val = tensor<fp16, [320]>(BLOBFILE(path = tensor<string, []>("@model_path/weights/weight.bin"), offset = tensor<uint64, []>(831432192)))];
            tensor<fp16, [2, 320, 1, 4096]> var_9199_cast = conv(bias = up_blocks_3_attentions_2_transformer_blocks_0_ff_net_2_bias_to_fp16, dilations = var_9197, groups = var_7587, pad = var_9199_pad_0, pad_type = var_9199_pad_type_0, strides = var_9195, weight = up_blocks_3_attentions_2_transformer_blocks_0_ff_net_2_weight_to_fp16, x = input_523_cast);
            tensor<fp16, [2, 320, 1, 4096]> hidden_states_333_cast = add(x = var_9199_cast, y = inputs_cast);
            tensor<int32, [4]> var_9201 = const()[name = tensor<string, []>("op_9201"), val = tensor<int32, [4]>([2, 320, 64, 64])];
            tensor<fp16, [2, 320, 64, 64]> input_525_cast = reshape(shape = var_9201, x = hidden_states_333_cast);
            tensor<int32, [2]> var_9205 = const()[name = tensor<string, []>("op_9205"), val = tensor<int32, [2]>([1, 1])];
            tensor<int32, [2]> var_9207 = const()[name = tensor<string, []>("op_9207"), val = tensor<int32, [2]>([1, 1])];
            tensor<string, []> hidden_states_pad_type_0 = const()[name = tensor<string, []>("hidden_states_pad_type_0"), val = tensor<string, []>("custom")];
            tensor<int32, [4]> hidden_states_pad_0 = const()[name = tensor<string, []>("hidden_states_pad_0"), val = tensor<int32, [4]>([0, 0, 0, 0])];
            tensor<fp16, [320, 320, 1, 1]> up_blocks_3_attentions_2_proj_out_weight_to_fp16 = const()[name = tensor<string, []>("up_blocks_3_attentions_2_proj_out_weight_to_fp16"), val = tensor<fp16, [320, 320, 1, 1]>(BLOBFILE(path = tensor<string, []>("@model_path/weights/weight.bin"), offset = tensor<uint64, []>(831432896)))];
            tensor<fp16, [320]> up_blocks_3_attentions_2_proj_out_bias_to_fp16 = const()[name = tensor<string, []>("up_blocks_3_attentions_2_proj_out_bias_to_fp16"), val = tensor<fp16, [320]>(BLOBFILE(path = tensor<string, []>("@model_path/weights/weight.bin"), offset = tensor<uint64, []>(831637760)))];
            tensor<fp16, [2, 320, 64, 64]> hidden_states_cast = conv(bias = up_blocks_3_attentions_2_proj_out_bias_to_fp16, dilations = var_9207, groups = var_7587, pad = hidden_states_pad_0, pad_type = hidden_states_pad_type_0, strides = var_9205, weight = up_blocks_3_attentions_2_proj_out_weight_to_fp16, x = input_525_cast);
            tensor<fp16, [2, 320, 64, 64]> input_527_cast = add(x = hidden_states_cast, y = hidden_states_323_cast);
            tensor<int32, [5]> reshape_240_shape_0 = const()[name = tensor<string, []>("reshape_240_shape_0"), val = tensor<int32, [5]>([2, 32, 10, 64, 64])];
            tensor<fp16, [2, 32, 10, 64, 64]> reshape_240_cast = reshape(shape = reshape_240_shape_0, x = input_527_cast);
            tensor<int32, [3]> reduce_mean_180_axes_0 = const()[name = tensor<string, []>("reduce_mean_180_axes_0"), val = tensor<int32, [3]>([2, 3, 4])];
            tensor<bool, []> reduce_mean_180_keep_dims_0 = const()[name = tensor<string, []>("reduce_mean_180_keep_dims_0"), val = tensor<bool, []>(true)];
            tensor<fp16, [2, 32, 1, 1, 1]> reduce_mean_180_cast = reduce_mean(axes = reduce_mean_180_axes_0, keep_dims = reduce_mean_180_keep_dims_0, x = reshape_240_cast);
            tensor<fp16, [2, 32, 10, 64, 64]> sub_120_cast = sub(x = reshape_240_cast, y = reduce_mean_180_cast);
            tensor<fp16, [2, 32, 10, 64, 64]> square_60_cast = square(x = sub_120_cast);
            tensor<int32, [3]> reduce_mean_182_axes_0 = const()[name = tensor<string, []>("reduce_mean_182_axes_0"), val = tensor<int32, [3]>([2, 3, 4])];
            tensor<bool, []> reduce_mean_182_keep_dims_0 = const()[name = tensor<string, []>("reduce_mean_182_keep_dims_0"), val = tensor<bool, []>(true)];
            tensor<fp16, [2, 32, 1, 1, 1]> reduce_mean_182_cast = reduce_mean(axes = reduce_mean_182_axes_0, keep_dims = reduce_mean_182_keep_dims_0, x = square_60_cast);
            tensor<fp16, []> add_120_y_0_to_fp16 = const()[name = tensor<string, []>("add_120_y_0_to_fp16"), val = tensor<fp16, []>(0x1.5p-17)];
            tensor<fp16, [2, 32, 1, 1, 1]> add_120_cast = add(x = reduce_mean_182_cast, y = add_120_y_0_to_fp16);
            tensor<fp16, [2, 32, 1, 1, 1]> sqrt_60_cast = sqrt(x = add_120_cast);
            tensor<fp16, [2, 32, 10, 64, 64]> real_div_60_cast = real_div(x = sub_120_cast, y = sqrt_60_cast);
            tensor<int32, [4]> reshape_241_shape_0 = const()[name = tensor<string, []>("reshape_241_shape_0"), val = tensor<int32, [4]>([2, 320, 64, 64])];
            tensor<fp16, [2, 320, 64, 64]> reshape_241_cast = reshape(shape = reshape_241_shape_0, x = real_div_60_cast);
            tensor<fp16, [320]> add_121_mean_0_to_fp16 = const()[name = tensor<string, []>("add_121_mean_0_to_fp16"), val = tensor<fp16, [320]>(BLOBFILE(path = tensor<string, []>("@model_path/weights/weight.bin"), offset = tensor<uint64, []>(831638464)))];
            tensor<fp16, [320]> add_121_variance_0_to_fp16 = const()[name = tensor<string, []>("add_121_variance_0_to_fp16"), val = tensor<fp16, [320]>(BLOBFILE(path = tensor<string, []>("@model_path/weights/weight.bin"), offset = tensor<uint64, []>(831639168)))];
            tensor<fp16, [320]> add_121_gamma_0_to_fp16 = const()[name = tensor<string, []>("add_121_gamma_0_to_fp16"), val = tensor<fp16, [320]>(BLOBFILE(path = tensor<string, []>("@model_path/weights/weight.bin"), offset = tensor<uint64, []>(831639872)))];
            tensor<fp16, [320]> add_121_beta_0_to_fp16 = const()[name = tensor<string, []>("add_121_beta_0_to_fp16"), val = tensor<fp16, [320]>(BLOBFILE(path = tensor<string, []>("@model_path/weights/weight.bin"), offset = tensor<uint64, []>(831640576)))];
            tensor<fp16, []> add_121_epsilon_0_to_fp16 = const()[name = tensor<string, []>("add_121_epsilon_0_to_fp16"), val = tensor<fp16, []>(0x1.5p-17)];
            tensor<fp16, [2, 320, 64, 64]> add_121_cast = batch_norm(beta = add_121_beta_0_to_fp16, epsilon = add_121_epsilon_0_to_fp16, gamma = add_121_gamma_0_to_fp16, mean = add_121_mean_0_to_fp16, variance = add_121_variance_0_to_fp16, x = reshape_241_cast);
            tensor<fp16, [2, 320, 64, 64]> input_cast = silu(x = add_121_cast);
            tensor<int32, []> var_9221 = const()[name = tensor<string, []>("op_9221"), val = tensor<int32, []>(1)];
            tensor<int32, [2]> var_9224 = const()[name = tensor<string, []>("op_9224"), val = tensor<int32, [2]>([1, 1])];
            tensor<int32, [2]> var_9226 = const()[name = tensor<string, []>("op_9226"), val = tensor<int32, [2]>([1, 1])];
            tensor<string, []> var_9228_pad_type_0 = const()[name = tensor<string, []>("op_9228_pad_type_0"), val = tensor<string, []>("custom")];
            tensor<int32, [4]> var_9228_pad_0 = const()[name = tensor<string, []>("op_9228_pad_0"), val = tensor<int32, [4]>([1, 1, 1, 1])];
            tensor<fp16, [4, 320, 3, 3]> conv_out_weight_to_fp16 = const()[name = tensor<string, []>("conv_out_weight_to_fp16"), val = tensor<fp16, [4, 320, 3, 3]>(BLOBFILE(path = tensor<string, []>("@model_path/weights/weight.bin"), offset = tensor<uint64, []>(831641280)))];
            tensor<fp16, [4]> conv_out_bias_to_fp16 = const()[name = tensor<string, []>("conv_out_bias_to_fp16"), val = tensor<fp16, [4]>([-0x1.6d4p-10, -0x1.a08p-10, -0x1.134p-12, -0x1.4bcp-9])];
            tensor<fp16, [2, 4, 64, 64]> var_9228_cast = conv(bias = conv_out_bias_to_fp16, dilations = var_9226, groups = var_9221, pad = var_9228_pad_0, pad_type = var_9228_pad_type_0, strides = var_9224, weight = conv_out_weight_to_fp16, x = input_cast);
            tensor<string, []> var_9228_cast_to_fp32_dtype_0 = const()[name = tensor<string, []>("op_9228_cast_to_fp32_dtype_0"), val = tensor<string, []>("fp32")];
            tensor<fp32, [2, 4, 64, 64]> noise_pred = cast(dtype = var_9228_cast_to_fp32_dtype_0, x = var_9228_cast);
        } -> (noise_pred);
}